// -----// IR Dump After mlir::iree_compiler::IREE::HAL::AssignTargetDevicesPass (iree-hal-assign-target-devices) //----- //
#executable_target_static = #hal.executable.target<"llvm-cpu", "static", {cpu = "generic-rv32", cpu_features = "+m", data_layout = "e-m:e-p:32:32-i64:64-n32-S128", native_vector_size = 16 : index, target_triple = "riscv32-pc-linux-elf", ukernels = false}>
#device_target_llvm_cpu = #hal.device.target<"llvm-cpu", {executable_targets = [#executable_target_static]}>
module attributes {hal.device.targets = [#device_target_llvm_cpu]} {
  func.func @main(%arg0: tensor<1x2xi8> {ml_program.identifier = "MobilenetV1/Logits/SpatialSqueeze"}) -> (tensor<1x2xi8> {ml_program.identifier = "MobilenetV1/Predictions/Reshape_1"}) {
    %0 = "tosa.const"() <{value = dense<-1.000000e+00> : tensor<1x1xf32>}> : () -> tensor<1x1xf32>
    %1 = "tosa.const"() <{value = dense<0.0125187514> : tensor<1x1xf32>}> : () -> tensor<1x1xf32>
    %2 = "tosa.const"() <{value = dense<2.560000e+02> : tensor<1x1xf32>}> : () -> tensor<1x1xf32>
    %3 = "tosa.const"() <{value = dense<-1.280000e+02> : tensor<1x1xf32>}> : () -> tensor<1x1xf32>
    %4 = "tosa.cast"(%arg0) : (tensor<1x2xi8>) -> tensor<1x2xf32>
    %5 = "tosa.sub"(%4, %0) : (tensor<1x2xf32>, tensor<1x1xf32>) -> tensor<1x2xf32>
    %6 = "tosa.mul"(%5, %1) <{shift = 0 : i32}> : (tensor<1x2xf32>, tensor<1x1xf32>) -> tensor<1x2xf32>
    %7 = "tosa.reduce_max"(%6) <{axis = 1 : i64}> : (tensor<1x2xf32>) -> tensor<1x1xf32>
    %8 = "tosa.sub"(%6, %7) : (tensor<1x2xf32>, tensor<1x1xf32>) -> tensor<1x2xf32>
    %9 = "tosa.exp"(%8) : (tensor<1x2xf32>) -> tensor<1x2xf32>
    %10 = "tosa.reduce_sum"(%9) <{axis = 1 : i64}> : (tensor<1x2xf32>) -> tensor<1x1xf32>
    %11 = "tosa.reciprocal"(%10) : (tensor<1x1xf32>) -> tensor<1x1xf32>
    %12 = "tosa.mul"(%9, %11) <{shift = 0 : i32}> : (tensor<1x2xf32>, tensor<1x1xf32>) -> tensor<1x2xf32>
    %13 = "tosa.mul"(%12, %2) <{shift = 0 : i32}> : (tensor<1x2xf32>, tensor<1x1xf32>) -> tensor<1x2xf32>
    %14 = "tosa.add"(%13, %3) : (tensor<1x2xf32>, tensor<1x1xf32>) -> tensor<1x2xf32>
    %15 = "tosa.cast"(%14) : (tensor<1x2xf32>) -> tensor<1x2xi8>
    return %15 : tensor<1x2xi8>
  }
}


// -----// IR Dump After TosaToSCF (tosa-to-scf) //----- //
func.func @main(%arg0: tensor<1x2xi8> {ml_program.identifier = "MobilenetV1/Logits/SpatialSqueeze"}) -> (tensor<1x2xi8> {ml_program.identifier = "MobilenetV1/Predictions/Reshape_1"}) {
  %0 = "tosa.const"() <{value = dense<-1.000000e+00> : tensor<1x1xf32>}> : () -> tensor<1x1xf32>
  %1 = "tosa.const"() <{value = dense<0.0125187514> : tensor<1x1xf32>}> : () -> tensor<1x1xf32>
  %2 = "tosa.const"() <{value = dense<2.560000e+02> : tensor<1x1xf32>}> : () -> tensor<1x1xf32>
  %3 = "tosa.const"() <{value = dense<-1.280000e+02> : tensor<1x1xf32>}> : () -> tensor<1x1xf32>
  %4 = "tosa.cast"(%arg0) : (tensor<1x2xi8>) -> tensor<1x2xf32>
  %5 = "tosa.sub"(%4, %0) : (tensor<1x2xf32>, tensor<1x1xf32>) -> tensor<1x2xf32>
  %6 = "tosa.mul"(%5, %1) <{shift = 0 : i32}> : (tensor<1x2xf32>, tensor<1x1xf32>) -> tensor<1x2xf32>
  %7 = "tosa.reduce_max"(%6) <{axis = 1 : i64}> : (tensor<1x2xf32>) -> tensor<1x1xf32>
  %8 = "tosa.sub"(%6, %7) : (tensor<1x2xf32>, tensor<1x1xf32>) -> tensor<1x2xf32>
  %9 = "tosa.exp"(%8) : (tensor<1x2xf32>) -> tensor<1x2xf32>
  %10 = "tosa.reduce_sum"(%9) <{axis = 1 : i64}> : (tensor<1x2xf32>) -> tensor<1x1xf32>
  %11 = "tosa.reciprocal"(%10) : (tensor<1x1xf32>) -> tensor<1x1xf32>
  %12 = "tosa.mul"(%9, %11) <{shift = 0 : i32}> : (tensor<1x2xf32>, tensor<1x1xf32>) -> tensor<1x2xf32>
  %13 = "tosa.mul"(%12, %2) <{shift = 0 : i32}> : (tensor<1x2xf32>, tensor<1x1xf32>) -> tensor<1x2xf32>
  %14 = "tosa.add"(%13, %3) : (tensor<1x2xf32>, tensor<1x1xf32>) -> tensor<1x2xf32>
  %15 = "tosa.cast"(%14) : (tensor<1x2xf32>) -> tensor<1x2xi8>
  return %15 : tensor<1x2xi8>
}

// -----// IR Dump After TopLevelSCFToCFG (iree-top-level-scf-to-cfg) //----- //
func.func @main(%arg0: tensor<1x2xi8> {ml_program.identifier = "MobilenetV1/Logits/SpatialSqueeze"}) -> (tensor<1x2xi8> {ml_program.identifier = "MobilenetV1/Predictions/Reshape_1"}) {
  %0 = "tosa.const"() <{value = dense<-1.000000e+00> : tensor<1x1xf32>}> : () -> tensor<1x1xf32>
  %1 = "tosa.const"() <{value = dense<0.0125187514> : tensor<1x1xf32>}> : () -> tensor<1x1xf32>
  %2 = "tosa.const"() <{value = dense<2.560000e+02> : tensor<1x1xf32>}> : () -> tensor<1x1xf32>
  %3 = "tosa.const"() <{value = dense<-1.280000e+02> : tensor<1x1xf32>}> : () -> tensor<1x1xf32>
  %4 = "tosa.cast"(%arg0) : (tensor<1x2xi8>) -> tensor<1x2xf32>
  %5 = "tosa.sub"(%4, %0) : (tensor<1x2xf32>, tensor<1x1xf32>) -> tensor<1x2xf32>
  %6 = "tosa.mul"(%5, %1) <{shift = 0 : i32}> : (tensor<1x2xf32>, tensor<1x1xf32>) -> tensor<1x2xf32>
  %7 = "tosa.reduce_max"(%6) <{axis = 1 : i64}> : (tensor<1x2xf32>) -> tensor<1x1xf32>
  %8 = "tosa.sub"(%6, %7) : (tensor<1x2xf32>, tensor<1x1xf32>) -> tensor<1x2xf32>
  %9 = "tosa.exp"(%8) : (tensor<1x2xf32>) -> tensor<1x2xf32>
  %10 = "tosa.reduce_sum"(%9) <{axis = 1 : i64}> : (tensor<1x2xf32>) -> tensor<1x1xf32>
  %11 = "tosa.reciprocal"(%10) : (tensor<1x1xf32>) -> tensor<1x1xf32>
  %12 = "tosa.mul"(%9, %11) <{shift = 0 : i32}> : (tensor<1x2xf32>, tensor<1x1xf32>) -> tensor<1x2xf32>
  %13 = "tosa.mul"(%12, %2) <{shift = 0 : i32}> : (tensor<1x2xf32>, tensor<1x1xf32>) -> tensor<1x2xf32>
  %14 = "tosa.add"(%13, %3) : (tensor<1x2xf32>, tensor<1x1xf32>) -> tensor<1x2xf32>
  %15 = "tosa.cast"(%14) : (tensor<1x2xf32>) -> tensor<1x2xi8>
  return %15 : tensor<1x2xi8>
}

// -----// IR Dump After Canonicalizer (canonicalize) //----- //
func.func @main(%arg0: tensor<1x2xi8> {ml_program.identifier = "MobilenetV1/Logits/SpatialSqueeze"}) -> (tensor<1x2xi8> {ml_program.identifier = "MobilenetV1/Predictions/Reshape_1"}) {
  %0 = "tosa.const"() <{value = dense<-1.000000e+00> : tensor<1x1xf32>}> : () -> tensor<1x1xf32>
  %1 = "tosa.const"() <{value = dense<0.0125187514> : tensor<1x1xf32>}> : () -> tensor<1x1xf32>
  %2 = "tosa.const"() <{value = dense<2.560000e+02> : tensor<1x1xf32>}> : () -> tensor<1x1xf32>
  %3 = "tosa.const"() <{value = dense<-1.280000e+02> : tensor<1x1xf32>}> : () -> tensor<1x1xf32>
  %4 = "tosa.cast"(%arg0) : (tensor<1x2xi8>) -> tensor<1x2xf32>
  %5 = "tosa.sub"(%4, %0) : (tensor<1x2xf32>, tensor<1x1xf32>) -> tensor<1x2xf32>
  %6 = "tosa.mul"(%5, %1) <{shift = 0 : i32}> : (tensor<1x2xf32>, tensor<1x1xf32>) -> tensor<1x2xf32>
  %7 = "tosa.reduce_max"(%6) <{axis = 1 : i64}> : (tensor<1x2xf32>) -> tensor<1x1xf32>
  %8 = "tosa.sub"(%6, %7) : (tensor<1x2xf32>, tensor<1x1xf32>) -> tensor<1x2xf32>
  %9 = "tosa.exp"(%8) : (tensor<1x2xf32>) -> tensor<1x2xf32>
  %10 = "tosa.reduce_sum"(%9) <{axis = 1 : i64}> : (tensor<1x2xf32>) -> tensor<1x1xf32>
  %11 = "tosa.reciprocal"(%10) : (tensor<1x1xf32>) -> tensor<1x1xf32>
  %12 = "tosa.mul"(%9, %11) <{shift = 0 : i32}> : (tensor<1x2xf32>, tensor<1x1xf32>) -> tensor<1x2xf32>
  %13 = "tosa.mul"(%12, %2) <{shift = 0 : i32}> : (tensor<1x2xf32>, tensor<1x1xf32>) -> tensor<1x2xf32>
  %14 = "tosa.add"(%13, %3) : (tensor<1x2xf32>, tensor<1x1xf32>) -> tensor<1x2xf32>
  %15 = "tosa.cast"(%14) : (tensor<1x2xf32>) -> tensor<1x2xi8>
  return %15 : tensor<1x2xi8>
}

// -----// IR Dump After Inliner (inline) //----- //
#executable_target_static = #hal.executable.target<"llvm-cpu", "static", {cpu = "generic-rv32", cpu_features = "+m", data_layout = "e-m:e-p:32:32-i64:64-n32-S128", native_vector_size = 16 : index, target_triple = "riscv32-pc-linux-elf", ukernels = false}>
#device_target_llvm_cpu = #hal.device.target<"llvm-cpu", {executable_targets = [#executable_target_static]}>
module attributes {hal.device.targets = [#device_target_llvm_cpu]} {
  func.func @main(%arg0: tensor<1x2xi8> {ml_program.identifier = "MobilenetV1/Logits/SpatialSqueeze"}) -> (tensor<1x2xi8> {ml_program.identifier = "MobilenetV1/Predictions/Reshape_1"}) {
    %0 = "tosa.const"() <{value = dense<-1.000000e+00> : tensor<1x1xf32>}> : () -> tensor<1x1xf32>
    %1 = "tosa.const"() <{value = dense<0.0125187514> : tensor<1x1xf32>}> : () -> tensor<1x1xf32>
    %2 = "tosa.const"() <{value = dense<2.560000e+02> : tensor<1x1xf32>}> : () -> tensor<1x1xf32>
    %3 = "tosa.const"() <{value = dense<-1.280000e+02> : tensor<1x1xf32>}> : () -> tensor<1x1xf32>
    %4 = "tosa.cast"(%arg0) : (tensor<1x2xi8>) -> tensor<1x2xf32>
    %5 = "tosa.sub"(%4, %0) : (tensor<1x2xf32>, tensor<1x1xf32>) -> tensor<1x2xf32>
    %6 = "tosa.mul"(%5, %1) <{shift = 0 : i32}> : (tensor<1x2xf32>, tensor<1x1xf32>) -> tensor<1x2xf32>
    %7 = "tosa.reduce_max"(%6) <{axis = 1 : i64}> : (tensor<1x2xf32>) -> tensor<1x1xf32>
    %8 = "tosa.sub"(%6, %7) : (tensor<1x2xf32>, tensor<1x1xf32>) -> tensor<1x2xf32>
    %9 = "tosa.exp"(%8) : (tensor<1x2xf32>) -> tensor<1x2xf32>
    %10 = "tosa.reduce_sum"(%9) <{axis = 1 : i64}> : (tensor<1x2xf32>) -> tensor<1x1xf32>
    %11 = "tosa.reciprocal"(%10) : (tensor<1x1xf32>) -> tensor<1x1xf32>
    %12 = "tosa.mul"(%9, %11) <{shift = 0 : i32}> : (tensor<1x2xf32>, tensor<1x1xf32>) -> tensor<1x2xf32>
    %13 = "tosa.mul"(%12, %2) <{shift = 0 : i32}> : (tensor<1x2xf32>, tensor<1x1xf32>) -> tensor<1x2xf32>
    %14 = "tosa.add"(%13, %3) : (tensor<1x2xf32>, tensor<1x1xf32>) -> tensor<1x2xf32>
    %15 = "tosa.cast"(%14) : (tensor<1x2xf32>) -> tensor<1x2xi8>
    return %15 : tensor<1x2xi8>
  }
}


// -----// IR Dump After TosaMakeBroadcastable (tosa-make-broadcastable) //----- //
func.func @main(%arg0: tensor<1x2xi8> {ml_program.identifier = "MobilenetV1/Logits/SpatialSqueeze"}) -> (tensor<1x2xi8> {ml_program.identifier = "MobilenetV1/Predictions/Reshape_1"}) {
  %0 = "tosa.const"() <{value = dense<-1.000000e+00> : tensor<1x1xf32>}> : () -> tensor<1x1xf32>
  %1 = "tosa.const"() <{value = dense<0.0125187514> : tensor<1x1xf32>}> : () -> tensor<1x1xf32>
  %2 = "tosa.const"() <{value = dense<2.560000e+02> : tensor<1x1xf32>}> : () -> tensor<1x1xf32>
  %3 = "tosa.const"() <{value = dense<-1.280000e+02> : tensor<1x1xf32>}> : () -> tensor<1x1xf32>
  %4 = "tosa.cast"(%arg0) : (tensor<1x2xi8>) -> tensor<1x2xf32>
  %5 = "tosa.sub"(%4, %0) : (tensor<1x2xf32>, tensor<1x1xf32>) -> tensor<1x2xf32>
  %6 = "tosa.mul"(%5, %1) <{shift = 0 : i32}> : (tensor<1x2xf32>, tensor<1x1xf32>) -> tensor<1x2xf32>
  %7 = "tosa.reduce_max"(%6) <{axis = 1 : i64}> : (tensor<1x2xf32>) -> tensor<1x1xf32>
  %8 = "tosa.sub"(%6, %7) : (tensor<1x2xf32>, tensor<1x1xf32>) -> tensor<1x2xf32>
  %9 = "tosa.exp"(%8) : (tensor<1x2xf32>) -> tensor<1x2xf32>
  %10 = "tosa.reduce_sum"(%9) <{axis = 1 : i64}> : (tensor<1x2xf32>) -> tensor<1x1xf32>
  %11 = "tosa.reciprocal"(%10) : (tensor<1x1xf32>) -> tensor<1x1xf32>
  %12 = "tosa.mul"(%9, %11) <{shift = 0 : i32}> : (tensor<1x2xf32>, tensor<1x1xf32>) -> tensor<1x2xf32>
  %13 = "tosa.mul"(%12, %2) <{shift = 0 : i32}> : (tensor<1x2xf32>, tensor<1x1xf32>) -> tensor<1x2xf32>
  %14 = "tosa.add"(%13, %3) : (tensor<1x2xf32>, tensor<1x1xf32>) -> tensor<1x2xf32>
  %15 = "tosa.cast"(%14) : (tensor<1x2xf32>) -> tensor<1x2xi8>
  return %15 : tensor<1x2xi8>
}

// -----// IR Dump After TosaToArith (tosa-to-arith) //----- //
func.func @main(%arg0: tensor<1x2xi8> {ml_program.identifier = "MobilenetV1/Logits/SpatialSqueeze"}) -> (tensor<1x2xi8> {ml_program.identifier = "MobilenetV1/Predictions/Reshape_1"}) {
  %cst = arith.constant dense<-1.000000e+00> : tensor<1x1xf32>
  %cst_0 = arith.constant dense<0.0125187514> : tensor<1x1xf32>
  %cst_1 = arith.constant dense<2.560000e+02> : tensor<1x1xf32>
  %cst_2 = arith.constant dense<-1.280000e+02> : tensor<1x1xf32>
  %0 = "tosa.cast"(%arg0) : (tensor<1x2xi8>) -> tensor<1x2xf32>
  %1 = "tosa.sub"(%0, %cst) : (tensor<1x2xf32>, tensor<1x1xf32>) -> tensor<1x2xf32>
  %2 = "tosa.mul"(%1, %cst_0) <{shift = 0 : i32}> : (tensor<1x2xf32>, tensor<1x1xf32>) -> tensor<1x2xf32>
  %3 = "tosa.reduce_max"(%2) <{axis = 1 : i64}> : (tensor<1x2xf32>) -> tensor<1x1xf32>
  %4 = "tosa.sub"(%2, %3) : (tensor<1x2xf32>, tensor<1x1xf32>) -> tensor<1x2xf32>
  %5 = "tosa.exp"(%4) : (tensor<1x2xf32>) -> tensor<1x2xf32>
  %6 = "tosa.reduce_sum"(%5) <{axis = 1 : i64}> : (tensor<1x2xf32>) -> tensor<1x1xf32>
  %7 = "tosa.reciprocal"(%6) : (tensor<1x1xf32>) -> tensor<1x1xf32>
  %8 = "tosa.mul"(%5, %7) <{shift = 0 : i32}> : (tensor<1x2xf32>, tensor<1x1xf32>) -> tensor<1x2xf32>
  %9 = "tosa.mul"(%8, %cst_1) <{shift = 0 : i32}> : (tensor<1x2xf32>, tensor<1x1xf32>) -> tensor<1x2xf32>
  %10 = "tosa.add"(%9, %cst_2) : (tensor<1x2xf32>, tensor<1x1xf32>) -> tensor<1x2xf32>
  %11 = "tosa.cast"(%10) : (tensor<1x2xf32>) -> tensor<1x2xi8>
  return %11 : tensor<1x2xi8>
}

// -----// IR Dump After TosaToTensor (tosa-to-tensor) //----- //
func.func @main(%arg0: tensor<1x2xi8> {ml_program.identifier = "MobilenetV1/Logits/SpatialSqueeze"}) -> (tensor<1x2xi8> {ml_program.identifier = "MobilenetV1/Predictions/Reshape_1"}) {
  %cst = arith.constant dense<-1.000000e+00> : tensor<1x1xf32>
  %cst_0 = arith.constant dense<0.0125187514> : tensor<1x1xf32>
  %cst_1 = arith.constant dense<2.560000e+02> : tensor<1x1xf32>
  %cst_2 = arith.constant dense<-1.280000e+02> : tensor<1x1xf32>
  %0 = "tosa.cast"(%arg0) : (tensor<1x2xi8>) -> tensor<1x2xf32>
  %1 = "tosa.sub"(%0, %cst) : (tensor<1x2xf32>, tensor<1x1xf32>) -> tensor<1x2xf32>
  %2 = "tosa.mul"(%1, %cst_0) <{shift = 0 : i32}> : (tensor<1x2xf32>, tensor<1x1xf32>) -> tensor<1x2xf32>
  %3 = "tosa.reduce_max"(%2) <{axis = 1 : i64}> : (tensor<1x2xf32>) -> tensor<1x1xf32>
  %4 = "tosa.sub"(%2, %3) : (tensor<1x2xf32>, tensor<1x1xf32>) -> tensor<1x2xf32>
  %5 = "tosa.exp"(%4) : (tensor<1x2xf32>) -> tensor<1x2xf32>
  %6 = "tosa.reduce_sum"(%5) <{axis = 1 : i64}> : (tensor<1x2xf32>) -> tensor<1x1xf32>
  %7 = "tosa.reciprocal"(%6) : (tensor<1x1xf32>) -> tensor<1x1xf32>
  %8 = "tosa.mul"(%5, %7) <{shift = 0 : i32}> : (tensor<1x2xf32>, tensor<1x1xf32>) -> tensor<1x2xf32>
  %9 = "tosa.mul"(%8, %cst_1) <{shift = 0 : i32}> : (tensor<1x2xf32>, tensor<1x1xf32>) -> tensor<1x2xf32>
  %10 = "tosa.add"(%9, %cst_2) : (tensor<1x2xf32>, tensor<1x1xf32>) -> tensor<1x2xf32>
  %11 = "tosa.cast"(%10) : (tensor<1x2xf32>) -> tensor<1x2xi8>
  return %11 : tensor<1x2xi8>
}

// -----// IR Dump After TosaToLinalgExt (iree-tosa-to-linalg-ext) //----- //
func.func @main(%arg0: tensor<1x2xi8> {ml_program.identifier = "MobilenetV1/Logits/SpatialSqueeze"}) -> (tensor<1x2xi8> {ml_program.identifier = "MobilenetV1/Predictions/Reshape_1"}) {
  %cst = arith.constant dense<-1.000000e+00> : tensor<1x1xf32>
  %cst_0 = arith.constant dense<0.0125187514> : tensor<1x1xf32>
  %cst_1 = arith.constant dense<2.560000e+02> : tensor<1x1xf32>
  %cst_2 = arith.constant dense<-1.280000e+02> : tensor<1x1xf32>
  %0 = "tosa.cast"(%arg0) : (tensor<1x2xi8>) -> tensor<1x2xf32>
  %1 = "tosa.sub"(%0, %cst) : (tensor<1x2xf32>, tensor<1x1xf32>) -> tensor<1x2xf32>
  %2 = "tosa.mul"(%1, %cst_0) <{shift = 0 : i32}> : (tensor<1x2xf32>, tensor<1x1xf32>) -> tensor<1x2xf32>
  %3 = "tosa.reduce_max"(%2) <{axis = 1 : i64}> : (tensor<1x2xf32>) -> tensor<1x1xf32>
  %4 = "tosa.sub"(%2, %3) : (tensor<1x2xf32>, tensor<1x1xf32>) -> tensor<1x2xf32>
  %5 = "tosa.exp"(%4) : (tensor<1x2xf32>) -> tensor<1x2xf32>
  %6 = "tosa.reduce_sum"(%5) <{axis = 1 : i64}> : (tensor<1x2xf32>) -> tensor<1x1xf32>
  %7 = "tosa.reciprocal"(%6) : (tensor<1x1xf32>) -> tensor<1x1xf32>
  %8 = "tosa.mul"(%5, %7) <{shift = 0 : i32}> : (tensor<1x2xf32>, tensor<1x1xf32>) -> tensor<1x2xf32>
  %9 = "tosa.mul"(%8, %cst_1) <{shift = 0 : i32}> : (tensor<1x2xf32>, tensor<1x1xf32>) -> tensor<1x2xf32>
  %10 = "tosa.add"(%9, %cst_2) : (tensor<1x2xf32>, tensor<1x1xf32>) -> tensor<1x2xf32>
  %11 = "tosa.cast"(%10) : (tensor<1x2xf32>) -> tensor<1x2xi8>
  return %11 : tensor<1x2xi8>
}

// -----// IR Dump After Canonicalizer (canonicalize) //----- //
func.func @main(%arg0: tensor<1x2xi8> {ml_program.identifier = "MobilenetV1/Logits/SpatialSqueeze"}) -> (tensor<1x2xi8> {ml_program.identifier = "MobilenetV1/Predictions/Reshape_1"}) {
  %cst = arith.constant dense<-1.000000e+00> : tensor<1x1xf32>
  %cst_0 = arith.constant dense<0.0125187514> : tensor<1x1xf32>
  %cst_1 = arith.constant dense<2.560000e+02> : tensor<1x1xf32>
  %cst_2 = arith.constant dense<-1.280000e+02> : tensor<1x1xf32>
  %0 = "tosa.cast"(%arg0) : (tensor<1x2xi8>) -> tensor<1x2xf32>
  %1 = "tosa.sub"(%0, %cst) : (tensor<1x2xf32>, tensor<1x1xf32>) -> tensor<1x2xf32>
  %2 = "tosa.mul"(%1, %cst_0) <{shift = 0 : i32}> : (tensor<1x2xf32>, tensor<1x1xf32>) -> tensor<1x2xf32>
  %3 = "tosa.reduce_max"(%2) <{axis = 1 : i64}> : (tensor<1x2xf32>) -> tensor<1x1xf32>
  %4 = "tosa.sub"(%2, %3) : (tensor<1x2xf32>, tensor<1x1xf32>) -> tensor<1x2xf32>
  %5 = "tosa.exp"(%4) : (tensor<1x2xf32>) -> tensor<1x2xf32>
  %6 = "tosa.reduce_sum"(%5) <{axis = 1 : i64}> : (tensor<1x2xf32>) -> tensor<1x1xf32>
  %7 = "tosa.reciprocal"(%6) : (tensor<1x1xf32>) -> tensor<1x1xf32>
  %8 = "tosa.mul"(%5, %7) <{shift = 0 : i32}> : (tensor<1x2xf32>, tensor<1x1xf32>) -> tensor<1x2xf32>
  %9 = "tosa.mul"(%8, %cst_1) <{shift = 0 : i32}> : (tensor<1x2xf32>, tensor<1x1xf32>) -> tensor<1x2xf32>
  %10 = "tosa.add"(%9, %cst_2) : (tensor<1x2xf32>, tensor<1x1xf32>) -> tensor<1x2xf32>
  %11 = "tosa.cast"(%10) : (tensor<1x2xf32>) -> tensor<1x2xi8>
  return %11 : tensor<1x2xi8>
}

// -----// IR Dump After TosaOptionalDecompositions (tosa-optional-decompositions) //----- //
func.func @main(%arg0: tensor<1x2xi8> {ml_program.identifier = "MobilenetV1/Logits/SpatialSqueeze"}) -> (tensor<1x2xi8> {ml_program.identifier = "MobilenetV1/Predictions/Reshape_1"}) {
  %cst = arith.constant dense<-1.000000e+00> : tensor<1x1xf32>
  %cst_0 = arith.constant dense<0.0125187514> : tensor<1x1xf32>
  %cst_1 = arith.constant dense<2.560000e+02> : tensor<1x1xf32>
  %cst_2 = arith.constant dense<-1.280000e+02> : tensor<1x1xf32>
  %0 = "tosa.cast"(%arg0) : (tensor<1x2xi8>) -> tensor<1x2xf32>
  %1 = "tosa.sub"(%0, %cst) : (tensor<1x2xf32>, tensor<1x1xf32>) -> tensor<1x2xf32>
  %2 = "tosa.mul"(%1, %cst_0) <{shift = 0 : i32}> : (tensor<1x2xf32>, tensor<1x1xf32>) -> tensor<1x2xf32>
  %3 = "tosa.reduce_max"(%2) <{axis = 1 : i64}> : (tensor<1x2xf32>) -> tensor<1x1xf32>
  %4 = "tosa.sub"(%2, %3) : (tensor<1x2xf32>, tensor<1x1xf32>) -> tensor<1x2xf32>
  %5 = "tosa.exp"(%4) : (tensor<1x2xf32>) -> tensor<1x2xf32>
  %6 = "tosa.reduce_sum"(%5) <{axis = 1 : i64}> : (tensor<1x2xf32>) -> tensor<1x1xf32>
  %7 = "tosa.reciprocal"(%6) : (tensor<1x1xf32>) -> tensor<1x1xf32>
  %8 = "tosa.mul"(%5, %7) <{shift = 0 : i32}> : (tensor<1x2xf32>, tensor<1x1xf32>) -> tensor<1x2xf32>
  %9 = "tosa.mul"(%8, %cst_1) <{shift = 0 : i32}> : (tensor<1x2xf32>, tensor<1x1xf32>) -> tensor<1x2xf32>
  %10 = "tosa.add"(%9, %cst_2) : (tensor<1x2xf32>, tensor<1x1xf32>) -> tensor<1x2xf32>
  %11 = "tosa.cast"(%10) : (tensor<1x2xf32>) -> tensor<1x2xi8>
  return %11 : tensor<1x2xi8>
}

// -----// IR Dump After Canonicalizer (canonicalize) //----- //
func.func @main(%arg0: tensor<1x2xi8> {ml_program.identifier = "MobilenetV1/Logits/SpatialSqueeze"}) -> (tensor<1x2xi8> {ml_program.identifier = "MobilenetV1/Predictions/Reshape_1"}) {
  %cst = arith.constant dense<-1.000000e+00> : tensor<1x1xf32>
  %cst_0 = arith.constant dense<0.0125187514> : tensor<1x1xf32>
  %cst_1 = arith.constant dense<2.560000e+02> : tensor<1x1xf32>
  %cst_2 = arith.constant dense<-1.280000e+02> : tensor<1x1xf32>
  %0 = "tosa.cast"(%arg0) : (tensor<1x2xi8>) -> tensor<1x2xf32>
  %1 = "tosa.sub"(%0, %cst) : (tensor<1x2xf32>, tensor<1x1xf32>) -> tensor<1x2xf32>
  %2 = "tosa.mul"(%1, %cst_0) <{shift = 0 : i32}> : (tensor<1x2xf32>, tensor<1x1xf32>) -> tensor<1x2xf32>
  %3 = "tosa.reduce_max"(%2) <{axis = 1 : i64}> : (tensor<1x2xf32>) -> tensor<1x1xf32>
  %4 = "tosa.sub"(%2, %3) : (tensor<1x2xf32>, tensor<1x1xf32>) -> tensor<1x2xf32>
  %5 = "tosa.exp"(%4) : (tensor<1x2xf32>) -> tensor<1x2xf32>
  %6 = "tosa.reduce_sum"(%5) <{axis = 1 : i64}> : (tensor<1x2xf32>) -> tensor<1x1xf32>
  %7 = "tosa.reciprocal"(%6) : (tensor<1x1xf32>) -> tensor<1x1xf32>
  %8 = "tosa.mul"(%5, %7) <{shift = 0 : i32}> : (tensor<1x2xf32>, tensor<1x1xf32>) -> tensor<1x2xf32>
  %9 = "tosa.mul"(%8, %cst_1) <{shift = 0 : i32}> : (tensor<1x2xf32>, tensor<1x1xf32>) -> tensor<1x2xf32>
  %10 = "tosa.add"(%9, %cst_2) : (tensor<1x2xf32>, tensor<1x1xf32>) -> tensor<1x2xf32>
  %11 = "tosa.cast"(%10) : (tensor<1x2xf32>) -> tensor<1x2xi8>
  return %11 : tensor<1x2xi8>
}

// -----// IR Dump After TosaInferShapes (tosa-infer-shapes) //----- //
func.func @main(%arg0: tensor<1x2xi8> {ml_program.identifier = "MobilenetV1/Logits/SpatialSqueeze"}) -> (tensor<1x2xi8> {ml_program.identifier = "MobilenetV1/Predictions/Reshape_1"}) {
  %cst = arith.constant dense<-1.000000e+00> : tensor<1x1xf32>
  %cst_0 = arith.constant dense<0.0125187514> : tensor<1x1xf32>
  %cst_1 = arith.constant dense<2.560000e+02> : tensor<1x1xf32>
  %cst_2 = arith.constant dense<-1.280000e+02> : tensor<1x1xf32>
  %0 = "tosa.cast"(%arg0) : (tensor<1x2xi8>) -> tensor<1x2xf32>
  %1 = "tosa.sub"(%0, %cst) : (tensor<1x2xf32>, tensor<1x1xf32>) -> tensor<1x2xf32>
  %2 = "tosa.mul"(%1, %cst_0) <{shift = 0 : i32}> : (tensor<1x2xf32>, tensor<1x1xf32>) -> tensor<1x2xf32>
  %3 = "tosa.reduce_max"(%2) <{axis = 1 : i64}> : (tensor<1x2xf32>) -> tensor<1x1xf32>
  %4 = "tosa.sub"(%2, %3) : (tensor<1x2xf32>, tensor<1x1xf32>) -> tensor<1x2xf32>
  %5 = "tosa.exp"(%4) : (tensor<1x2xf32>) -> tensor<1x2xf32>
  %6 = "tosa.reduce_sum"(%5) <{axis = 1 : i64}> : (tensor<1x2xf32>) -> tensor<1x1xf32>
  %7 = "tosa.reciprocal"(%6) : (tensor<1x1xf32>) -> tensor<1x1xf32>
  %8 = "tosa.mul"(%5, %7) <{shift = 0 : i32}> : (tensor<1x2xf32>, tensor<1x1xf32>) -> tensor<1x2xf32>
  %9 = "tosa.mul"(%8, %cst_1) <{shift = 0 : i32}> : (tensor<1x2xf32>, tensor<1x1xf32>) -> tensor<1x2xf32>
  %10 = "tosa.add"(%9, %cst_2) : (tensor<1x2xf32>, tensor<1x1xf32>) -> tensor<1x2xf32>
  %11 = "tosa.cast"(%10) : (tensor<1x2xf32>) -> tensor<1x2xi8>
  return %11 : tensor<1x2xi8>
}

// -----// IR Dump After TosaMakeBroadcastable (tosa-make-broadcastable) //----- //
func.func @main(%arg0: tensor<1x2xi8> {ml_program.identifier = "MobilenetV1/Logits/SpatialSqueeze"}) -> (tensor<1x2xi8> {ml_program.identifier = "MobilenetV1/Predictions/Reshape_1"}) {
  %cst = arith.constant dense<-1.000000e+00> : tensor<1x1xf32>
  %cst_0 = arith.constant dense<0.0125187514> : tensor<1x1xf32>
  %cst_1 = arith.constant dense<2.560000e+02> : tensor<1x1xf32>
  %cst_2 = arith.constant dense<-1.280000e+02> : tensor<1x1xf32>
  %0 = "tosa.cast"(%arg0) : (tensor<1x2xi8>) -> tensor<1x2xf32>
  %1 = "tosa.sub"(%0, %cst) : (tensor<1x2xf32>, tensor<1x1xf32>) -> tensor<1x2xf32>
  %2 = "tosa.mul"(%1, %cst_0) <{shift = 0 : i32}> : (tensor<1x2xf32>, tensor<1x1xf32>) -> tensor<1x2xf32>
  %3 = "tosa.reduce_max"(%2) <{axis = 1 : i64}> : (tensor<1x2xf32>) -> tensor<1x1xf32>
  %4 = "tosa.sub"(%2, %3) : (tensor<1x2xf32>, tensor<1x1xf32>) -> tensor<1x2xf32>
  %5 = "tosa.exp"(%4) : (tensor<1x2xf32>) -> tensor<1x2xf32>
  %6 = "tosa.reduce_sum"(%5) <{axis = 1 : i64}> : (tensor<1x2xf32>) -> tensor<1x1xf32>
  %7 = "tosa.reciprocal"(%6) : (tensor<1x1xf32>) -> tensor<1x1xf32>
  %8 = "tosa.mul"(%5, %7) <{shift = 0 : i32}> : (tensor<1x2xf32>, tensor<1x1xf32>) -> tensor<1x2xf32>
  %9 = "tosa.mul"(%8, %cst_1) <{shift = 0 : i32}> : (tensor<1x2xf32>, tensor<1x1xf32>) -> tensor<1x2xf32>
  %10 = "tosa.add"(%9, %cst_2) : (tensor<1x2xf32>, tensor<1x1xf32>) -> tensor<1x2xf32>
  %11 = "tosa.cast"(%10) : (tensor<1x2xf32>) -> tensor<1x2xi8>
  return %11 : tensor<1x2xi8>
}

// -----// IR Dump After TosaToLinalgNamed (tosa-to-linalg-named) //----- //
func.func @main(%arg0: tensor<1x2xi8> {ml_program.identifier = "MobilenetV1/Logits/SpatialSqueeze"}) -> (tensor<1x2xi8> {ml_program.identifier = "MobilenetV1/Predictions/Reshape_1"}) {
  %cst = arith.constant dense<-1.000000e+00> : tensor<1x1xf32>
  %cst_0 = arith.constant dense<0.0125187514> : tensor<1x1xf32>
  %cst_1 = arith.constant dense<2.560000e+02> : tensor<1x1xf32>
  %cst_2 = arith.constant dense<-1.280000e+02> : tensor<1x1xf32>
  %0 = "tosa.cast"(%arg0) : (tensor<1x2xi8>) -> tensor<1x2xf32>
  %1 = "tosa.sub"(%0, %cst) : (tensor<1x2xf32>, tensor<1x1xf32>) -> tensor<1x2xf32>
  %2 = "tosa.mul"(%1, %cst_0) <{shift = 0 : i32}> : (tensor<1x2xf32>, tensor<1x1xf32>) -> tensor<1x2xf32>
  %3 = "tosa.reduce_max"(%2) <{axis = 1 : i64}> : (tensor<1x2xf32>) -> tensor<1x1xf32>
  %4 = "tosa.sub"(%2, %3) : (tensor<1x2xf32>, tensor<1x1xf32>) -> tensor<1x2xf32>
  %5 = "tosa.exp"(%4) : (tensor<1x2xf32>) -> tensor<1x2xf32>
  %6 = "tosa.reduce_sum"(%5) <{axis = 1 : i64}> : (tensor<1x2xf32>) -> tensor<1x1xf32>
  %7 = "tosa.reciprocal"(%6) : (tensor<1x1xf32>) -> tensor<1x1xf32>
  %8 = "tosa.mul"(%5, %7) <{shift = 0 : i32}> : (tensor<1x2xf32>, tensor<1x1xf32>) -> tensor<1x2xf32>
  %9 = "tosa.mul"(%8, %cst_1) <{shift = 0 : i32}> : (tensor<1x2xf32>, tensor<1x1xf32>) -> tensor<1x2xf32>
  %10 = "tosa.add"(%9, %cst_2) : (tensor<1x2xf32>, tensor<1x1xf32>) -> tensor<1x2xf32>
  %11 = "tosa.cast"(%10) : (tensor<1x2xf32>) -> tensor<1x2xi8>
  return %11 : tensor<1x2xi8>
}

// -----// IR Dump After Canonicalizer (canonicalize) //----- //
func.func @main(%arg0: tensor<1x2xi8> {ml_program.identifier = "MobilenetV1/Logits/SpatialSqueeze"}) -> (tensor<1x2xi8> {ml_program.identifier = "MobilenetV1/Predictions/Reshape_1"}) {
  %cst = arith.constant dense<-1.000000e+00> : tensor<1x1xf32>
  %cst_0 = arith.constant dense<0.0125187514> : tensor<1x1xf32>
  %cst_1 = arith.constant dense<2.560000e+02> : tensor<1x1xf32>
  %cst_2 = arith.constant dense<-1.280000e+02> : tensor<1x1xf32>
  %0 = "tosa.cast"(%arg0) : (tensor<1x2xi8>) -> tensor<1x2xf32>
  %1 = "tosa.sub"(%0, %cst) : (tensor<1x2xf32>, tensor<1x1xf32>) -> tensor<1x2xf32>
  %2 = "tosa.mul"(%1, %cst_0) <{shift = 0 : i32}> : (tensor<1x2xf32>, tensor<1x1xf32>) -> tensor<1x2xf32>
  %3 = "tosa.reduce_max"(%2) <{axis = 1 : i64}> : (tensor<1x2xf32>) -> tensor<1x1xf32>
  %4 = "tosa.sub"(%2, %3) : (tensor<1x2xf32>, tensor<1x1xf32>) -> tensor<1x2xf32>
  %5 = "tosa.exp"(%4) : (tensor<1x2xf32>) -> tensor<1x2xf32>
  %6 = "tosa.reduce_sum"(%5) <{axis = 1 : i64}> : (tensor<1x2xf32>) -> tensor<1x1xf32>
  %7 = "tosa.reciprocal"(%6) : (tensor<1x1xf32>) -> tensor<1x1xf32>
  %8 = "tosa.mul"(%5, %7) <{shift = 0 : i32}> : (tensor<1x2xf32>, tensor<1x1xf32>) -> tensor<1x2xf32>
  %9 = "tosa.mul"(%8, %cst_1) <{shift = 0 : i32}> : (tensor<1x2xf32>, tensor<1x1xf32>) -> tensor<1x2xf32>
  %10 = "tosa.add"(%9, %cst_2) : (tensor<1x2xf32>, tensor<1x1xf32>) -> tensor<1x2xf32>
  %11 = "tosa.cast"(%10) : (tensor<1x2xf32>) -> tensor<1x2xi8>
  return %11 : tensor<1x2xi8>
}

// -----// IR Dump After TosaLayerwiseConstantFoldPass (tosa-layerwise-constant-fold) //----- //
func.func @main(%arg0: tensor<1x2xi8> {ml_program.identifier = "MobilenetV1/Logits/SpatialSqueeze"}) -> (tensor<1x2xi8> {ml_program.identifier = "MobilenetV1/Predictions/Reshape_1"}) {
  %cst = arith.constant dense<-1.000000e+00> : tensor<1x1xf32>
  %cst_0 = arith.constant dense<0.0125187514> : tensor<1x1xf32>
  %cst_1 = arith.constant dense<2.560000e+02> : tensor<1x1xf32>
  %cst_2 = arith.constant dense<-1.280000e+02> : tensor<1x1xf32>
  %0 = "tosa.cast"(%arg0) : (tensor<1x2xi8>) -> tensor<1x2xf32>
  %1 = "tosa.sub"(%0, %cst) : (tensor<1x2xf32>, tensor<1x1xf32>) -> tensor<1x2xf32>
  %2 = "tosa.mul"(%1, %cst_0) <{shift = 0 : i32}> : (tensor<1x2xf32>, tensor<1x1xf32>) -> tensor<1x2xf32>
  %3 = "tosa.reduce_max"(%2) <{axis = 1 : i64}> : (tensor<1x2xf32>) -> tensor<1x1xf32>
  %4 = "tosa.sub"(%2, %3) : (tensor<1x2xf32>, tensor<1x1xf32>) -> tensor<1x2xf32>
  %5 = "tosa.exp"(%4) : (tensor<1x2xf32>) -> tensor<1x2xf32>
  %6 = "tosa.reduce_sum"(%5) <{axis = 1 : i64}> : (tensor<1x2xf32>) -> tensor<1x1xf32>
  %7 = "tosa.reciprocal"(%6) : (tensor<1x1xf32>) -> tensor<1x1xf32>
  %8 = "tosa.mul"(%5, %7) <{shift = 0 : i32}> : (tensor<1x2xf32>, tensor<1x1xf32>) -> tensor<1x2xf32>
  %9 = "tosa.mul"(%8, %cst_1) <{shift = 0 : i32}> : (tensor<1x2xf32>, tensor<1x1xf32>) -> tensor<1x2xf32>
  %10 = "tosa.add"(%9, %cst_2) : (tensor<1x2xf32>, tensor<1x1xf32>) -> tensor<1x2xf32>
  %11 = "tosa.cast"(%10) : (tensor<1x2xf32>) -> tensor<1x2xi8>
  return %11 : tensor<1x2xi8>
}

// -----// IR Dump After TosaMakeBroadcastable (tosa-make-broadcastable) //----- //
func.func @main(%arg0: tensor<1x2xi8> {ml_program.identifier = "MobilenetV1/Logits/SpatialSqueeze"}) -> (tensor<1x2xi8> {ml_program.identifier = "MobilenetV1/Predictions/Reshape_1"}) {
  %cst = arith.constant dense<-1.000000e+00> : tensor<1x1xf32>
  %cst_0 = arith.constant dense<0.0125187514> : tensor<1x1xf32>
  %cst_1 = arith.constant dense<2.560000e+02> : tensor<1x1xf32>
  %cst_2 = arith.constant dense<-1.280000e+02> : tensor<1x1xf32>
  %0 = "tosa.cast"(%arg0) : (tensor<1x2xi8>) -> tensor<1x2xf32>
  %1 = "tosa.sub"(%0, %cst) : (tensor<1x2xf32>, tensor<1x1xf32>) -> tensor<1x2xf32>
  %2 = "tosa.mul"(%1, %cst_0) <{shift = 0 : i32}> : (tensor<1x2xf32>, tensor<1x1xf32>) -> tensor<1x2xf32>
  %3 = "tosa.reduce_max"(%2) <{axis = 1 : i64}> : (tensor<1x2xf32>) -> tensor<1x1xf32>
  %4 = "tosa.sub"(%2, %3) : (tensor<1x2xf32>, tensor<1x1xf32>) -> tensor<1x2xf32>
  %5 = "tosa.exp"(%4) : (tensor<1x2xf32>) -> tensor<1x2xf32>
  %6 = "tosa.reduce_sum"(%5) <{axis = 1 : i64}> : (tensor<1x2xf32>) -> tensor<1x1xf32>
  %7 = "tosa.reciprocal"(%6) : (tensor<1x1xf32>) -> tensor<1x1xf32>
  %8 = "tosa.mul"(%5, %7) <{shift = 0 : i32}> : (tensor<1x2xf32>, tensor<1x1xf32>) -> tensor<1x2xf32>
  %9 = "tosa.mul"(%8, %cst_1) <{shift = 0 : i32}> : (tensor<1x2xf32>, tensor<1x1xf32>) -> tensor<1x2xf32>
  %10 = "tosa.add"(%9, %cst_2) : (tensor<1x2xf32>, tensor<1x1xf32>) -> tensor<1x2xf32>
  %11 = "tosa.cast"(%10) : (tensor<1x2xf32>) -> tensor<1x2xi8>
  return %11 : tensor<1x2xi8>
}

// -----// IR Dump After TosaValidation (tosa-validate) //----- //
func.func @main(%arg0: tensor<1x2xi8> {ml_program.identifier = "MobilenetV1/Logits/SpatialSqueeze"}) -> (tensor<1x2xi8> {ml_program.identifier = "MobilenetV1/Predictions/Reshape_1"}) {
  %cst = arith.constant dense<-1.000000e+00> : tensor<1x1xf32>
  %cst_0 = arith.constant dense<0.0125187514> : tensor<1x1xf32>
  %cst_1 = arith.constant dense<2.560000e+02> : tensor<1x1xf32>
  %cst_2 = arith.constant dense<-1.280000e+02> : tensor<1x1xf32>
  %0 = "tosa.cast"(%arg0) : (tensor<1x2xi8>) -> tensor<1x2xf32>
  %1 = "tosa.sub"(%0, %cst) : (tensor<1x2xf32>, tensor<1x1xf32>) -> tensor<1x2xf32>
  %2 = "tosa.mul"(%1, %cst_0) <{shift = 0 : i32}> : (tensor<1x2xf32>, tensor<1x1xf32>) -> tensor<1x2xf32>
  %3 = "tosa.reduce_max"(%2) <{axis = 1 : i64}> : (tensor<1x2xf32>) -> tensor<1x1xf32>
  %4 = "tosa.sub"(%2, %3) : (tensor<1x2xf32>, tensor<1x1xf32>) -> tensor<1x2xf32>
  %5 = "tosa.exp"(%4) : (tensor<1x2xf32>) -> tensor<1x2xf32>
  %6 = "tosa.reduce_sum"(%5) <{axis = 1 : i64}> : (tensor<1x2xf32>) -> tensor<1x1xf32>
  %7 = "tosa.reciprocal"(%6) : (tensor<1x1xf32>) -> tensor<1x1xf32>
  %8 = "tosa.mul"(%5, %7) <{shift = 0 : i32}> : (tensor<1x2xf32>, tensor<1x1xf32>) -> tensor<1x2xf32>
  %9 = "tosa.mul"(%8, %cst_1) <{shift = 0 : i32}> : (tensor<1x2xf32>, tensor<1x1xf32>) -> tensor<1x2xf32>
  %10 = "tosa.add"(%9, %cst_2) : (tensor<1x2xf32>, tensor<1x1xf32>) -> tensor<1x2xf32>
  %11 = "tosa.cast"(%10) : (tensor<1x2xf32>) -> tensor<1x2xi8>
  return %11 : tensor<1x2xi8>
}

// -----// IR Dump After TosaToLinalg (tosa-to-linalg) //----- //
func.func @main(%arg0: tensor<1x2xi8> {ml_program.identifier = "MobilenetV1/Logits/SpatialSqueeze"}) -> (tensor<1x2xi8> {ml_program.identifier = "MobilenetV1/Predictions/Reshape_1"}) {
  %cst = arith.constant dense<-1.000000e+00> : tensor<1x1xf32>
  %cst_0 = arith.constant dense<0.0125187514> : tensor<1x1xf32>
  %cst_1 = arith.constant dense<2.560000e+02> : tensor<1x1xf32>
  %cst_2 = arith.constant dense<-1.280000e+02> : tensor<1x1xf32>
  %0 = tensor.empty() : tensor<1x2xf32>
  %1 = linalg.generic {indexing_maps = [affine_map<(d0, d1) -> (d0, d1)>, affine_map<(d0, d1) -> (d0, d1)>], iterator_types = ["parallel", "parallel"]} ins(%arg0 : tensor<1x2xi8>) outs(%0 : tensor<1x2xf32>) {
  ^bb0(%in: i8, %out: f32):
    %32 = arith.sitofp %in : i8 to f32
    linalg.yield %32 : f32
  } -> tensor<1x2xf32>
  %2 = tensor.empty() : tensor<1x2xf32>
  %3 = "tosa.reshape"(%cst) <{new_shape = array<i64: 1>}> : (tensor<1x1xf32>) -> tensor<1xf32>
  %4 = linalg.generic {indexing_maps = [affine_map<(d0, d1) -> (d0, d1)>, affine_map<(d0, d1) -> (d0)>, affine_map<(d0, d1) -> (d0, d1)>], iterator_types = ["parallel", "parallel"]} ins(%1, %3 : tensor<1x2xf32>, tensor<1xf32>) outs(%2 : tensor<1x2xf32>) {
  ^bb0(%in: f32, %in_6: f32, %out: f32):
    %32 = arith.subf %in, %in_6 : f32
    linalg.yield %32 : f32
  } -> tensor<1x2xf32>
  %5 = tensor.empty() : tensor<1x2xf32>
  %6 = "tosa.reshape"(%cst_0) <{new_shape = array<i64: 1>}> : (tensor<1x1xf32>) -> tensor<1xf32>
  %7 = linalg.generic {indexing_maps = [affine_map<(d0, d1) -> (d0, d1)>, affine_map<(d0, d1) -> (d0)>, affine_map<(d0, d1) -> (d0, d1)>], iterator_types = ["parallel", "parallel"]} ins(%4, %6 : tensor<1x2xf32>, tensor<1xf32>) outs(%5 : tensor<1x2xf32>) {
  ^bb0(%in: f32, %in_6: f32, %out: f32):
    %32 = arith.mulf %in, %in_6 : f32
    linalg.yield %32 : f32
  } -> tensor<1x2xf32>
  %8 = tensor.empty() : tensor<1xf32>
  %cst_3 = arith.constant -3.40282347E+38 : f32
  %9 = linalg.fill ins(%cst_3 : f32) outs(%8 : tensor<1xf32>) -> tensor<1xf32>
  %10 = linalg.generic {indexing_maps = [affine_map<(d0, d1) -> (d0, d1)>, affine_map<(d0, d1) -> (d0)>], iterator_types = ["parallel", "reduction"]} ins(%7 : tensor<1x2xf32>) outs(%9 : tensor<1xf32>) {
  ^bb0(%in: f32, %out: f32):
    %32 = arith.maxf %in, %out : f32
    linalg.yield %32 : f32
  } -> tensor<1xf32>
  %expanded = tensor.expand_shape %10 [[0, 1]] : tensor<1xf32> into tensor<1x1xf32>
  %11 = tensor.empty() : tensor<1x2xf32>
  %12 = "tosa.reshape"(%expanded) <{new_shape = array<i64: 1>}> : (tensor<1x1xf32>) -> tensor<1xf32>
  %13 = linalg.generic {indexing_maps = [affine_map<(d0, d1) -> (d0, d1)>, affine_map<(d0, d1) -> (d0)>, affine_map<(d0, d1) -> (d0, d1)>], iterator_types = ["parallel", "parallel"]} ins(%7, %12 : tensor<1x2xf32>, tensor<1xf32>) outs(%11 : tensor<1x2xf32>) {
  ^bb0(%in: f32, %in_6: f32, %out: f32):
    %32 = arith.subf %in, %in_6 : f32
    linalg.yield %32 : f32
  } -> tensor<1x2xf32>
  %14 = tensor.empty() : tensor<1x2xf32>
  %15 = linalg.generic {indexing_maps = [affine_map<(d0, d1) -> (d0, d1)>, affine_map<(d0, d1) -> (d0, d1)>], iterator_types = ["parallel", "parallel"]} ins(%13 : tensor<1x2xf32>) outs(%14 : tensor<1x2xf32>) {
  ^bb0(%in: f32, %out: f32):
    %32 = math.exp %in : f32
    linalg.yield %32 : f32
  } -> tensor<1x2xf32>
  %16 = tensor.empty() : tensor<1xf32>
  %cst_4 = arith.constant 0.000000e+00 : f32
  %17 = linalg.fill ins(%cst_4 : f32) outs(%16 : tensor<1xf32>) -> tensor<1xf32>
  %18 = linalg.generic {indexing_maps = [affine_map<(d0, d1) -> (d0, d1)>, affine_map<(d0, d1) -> (d0)>], iterator_types = ["parallel", "reduction"]} ins(%15 : tensor<1x2xf32>) outs(%17 : tensor<1xf32>) {
  ^bb0(%in: f32, %out: f32):
    %32 = arith.addf %in, %out : f32
    linalg.yield %32 : f32
  } -> tensor<1xf32>
  %expanded_5 = tensor.expand_shape %18 [[0, 1]] : tensor<1xf32> into tensor<1x1xf32>
  %19 = tensor.empty() : tensor<1x1xf32>
  %20 = linalg.generic {indexing_maps = [affine_map<(d0, d1) -> (d0, d1)>, affine_map<(d0, d1) -> (d0, d1)>], iterator_types = ["parallel", "parallel"]} ins(%expanded_5 : tensor<1x1xf32>) outs(%19 : tensor<1x1xf32>) {
  ^bb0(%in: f32, %out: f32):
    %cst_6 = arith.constant 1.000000e+00 : f32
    %32 = arith.divf %cst_6, %in : f32
    linalg.yield %32 : f32
  } -> tensor<1x1xf32>
  %21 = tensor.empty() : tensor<1x2xf32>
  %22 = "tosa.reshape"(%20) <{new_shape = array<i64: 1>}> : (tensor<1x1xf32>) -> tensor<1xf32>
  %23 = linalg.generic {indexing_maps = [affine_map<(d0, d1) -> (d0, d1)>, affine_map<(d0, d1) -> (d0)>, affine_map<(d0, d1) -> (d0, d1)>], iterator_types = ["parallel", "parallel"]} ins(%15, %22 : tensor<1x2xf32>, tensor<1xf32>) outs(%21 : tensor<1x2xf32>) {
  ^bb0(%in: f32, %in_6: f32, %out: f32):
    %32 = arith.mulf %in, %in_6 : f32
    linalg.yield %32 : f32
  } -> tensor<1x2xf32>
  %24 = tensor.empty() : tensor<1x2xf32>
  %25 = "tosa.reshape"(%cst_1) <{new_shape = array<i64: 1>}> : (tensor<1x1xf32>) -> tensor<1xf32>
  %26 = linalg.generic {indexing_maps = [affine_map<(d0, d1) -> (d0, d1)>, affine_map<(d0, d1) -> (d0)>, affine_map<(d0, d1) -> (d0, d1)>], iterator_types = ["parallel", "parallel"]} ins(%23, %25 : tensor<1x2xf32>, tensor<1xf32>) outs(%24 : tensor<1x2xf32>) {
  ^bb0(%in: f32, %in_6: f32, %out: f32):
    %32 = arith.mulf %in, %in_6 : f32
    linalg.yield %32 : f32
  } -> tensor<1x2xf32>
  %27 = tensor.empty() : tensor<1x2xf32>
  %28 = "tosa.reshape"(%cst_2) <{new_shape = array<i64: 1>}> : (tensor<1x1xf32>) -> tensor<1xf32>
  %29 = linalg.generic {indexing_maps = [affine_map<(d0, d1) -> (d0, d1)>, affine_map<(d0, d1) -> (d0)>, affine_map<(d0, d1) -> (d0, d1)>], iterator_types = ["parallel", "parallel"]} ins(%26, %28 : tensor<1x2xf32>, tensor<1xf32>) outs(%27 : tensor<1x2xf32>) {
  ^bb0(%in: f32, %in_6: f32, %out: f32):
    %32 = arith.addf %in, %in_6 : f32
    linalg.yield %32 : f32
  } -> tensor<1x2xf32>
  %30 = tensor.empty() : tensor<1x2xi8>
  %31 = linalg.generic {indexing_maps = [affine_map<(d0, d1) -> (d0, d1)>, affine_map<(d0, d1) -> (d0, d1)>], iterator_types = ["parallel", "parallel"]} ins(%29 : tensor<1x2xf32>) outs(%30 : tensor<1x2xi8>) {
  ^bb0(%in: f32, %out: i8):
    %cst_6 = arith.constant -1.280000e+02 : f32
    %cst_7 = arith.constant 1.270000e+02 : f32
    %32 = math.roundeven %in : f32
    %33 = arith.minf %32, %cst_7 : f32
    %34 = arith.maxf %33, %cst_6 : f32
    %35 = arith.fptosi %34 : f32 to i8
    linalg.yield %35 : i8
  } -> tensor<1x2xi8>
  return %31 : tensor<1x2xi8>
}

// -----// IR Dump After TosaToArith (tosa-to-arith) //----- //
func.func @main(%arg0: tensor<1x2xi8> {ml_program.identifier = "MobilenetV1/Logits/SpatialSqueeze"}) -> (tensor<1x2xi8> {ml_program.identifier = "MobilenetV1/Predictions/Reshape_1"}) {
  %cst = arith.constant dense<-1.000000e+00> : tensor<1x1xf32>
  %cst_0 = arith.constant dense<0.0125187514> : tensor<1x1xf32>
  %cst_1 = arith.constant dense<2.560000e+02> : tensor<1x1xf32>
  %cst_2 = arith.constant dense<-1.280000e+02> : tensor<1x1xf32>
  %0 = tensor.empty() : tensor<1x2xf32>
  %1 = linalg.generic {indexing_maps = [affine_map<(d0, d1) -> (d0, d1)>, affine_map<(d0, d1) -> (d0, d1)>], iterator_types = ["parallel", "parallel"]} ins(%arg0 : tensor<1x2xi8>) outs(%0 : tensor<1x2xf32>) {
  ^bb0(%in: i8, %out: f32):
    %28 = arith.sitofp %in : i8 to f32
    linalg.yield %28 : f32
  } -> tensor<1x2xf32>
  %2 = tensor.empty() : tensor<1x2xf32>
  %cst_3 = arith.constant dense<-1.000000e+00> : tensor<1xf32>
  %3 = linalg.generic {indexing_maps = [affine_map<(d0, d1) -> (d0, d1)>, affine_map<(d0, d1) -> (d0)>, affine_map<(d0, d1) -> (d0, d1)>], iterator_types = ["parallel", "parallel"]} ins(%1, %cst_3 : tensor<1x2xf32>, tensor<1xf32>) outs(%2 : tensor<1x2xf32>) {
  ^bb0(%in: f32, %in_10: f32, %out: f32):
    %28 = arith.subf %in, %in_10 : f32
    linalg.yield %28 : f32
  } -> tensor<1x2xf32>
  %4 = tensor.empty() : tensor<1x2xf32>
  %cst_4 = arith.constant dense<0.0125187514> : tensor<1xf32>
  %5 = linalg.generic {indexing_maps = [affine_map<(d0, d1) -> (d0, d1)>, affine_map<(d0, d1) -> (d0)>, affine_map<(d0, d1) -> (d0, d1)>], iterator_types = ["parallel", "parallel"]} ins(%3, %cst_4 : tensor<1x2xf32>, tensor<1xf32>) outs(%4 : tensor<1x2xf32>) {
  ^bb0(%in: f32, %in_10: f32, %out: f32):
    %28 = arith.mulf %in, %in_10 : f32
    linalg.yield %28 : f32
  } -> tensor<1x2xf32>
  %6 = tensor.empty() : tensor<1xf32>
  %cst_5 = arith.constant -3.40282347E+38 : f32
  %7 = linalg.fill ins(%cst_5 : f32) outs(%6 : tensor<1xf32>) -> tensor<1xf32>
  %8 = linalg.generic {indexing_maps = [affine_map<(d0, d1) -> (d0, d1)>, affine_map<(d0, d1) -> (d0)>], iterator_types = ["parallel", "reduction"]} ins(%5 : tensor<1x2xf32>) outs(%7 : tensor<1xf32>) {
  ^bb0(%in: f32, %out: f32):
    %28 = arith.maxf %in, %out : f32
    linalg.yield %28 : f32
  } -> tensor<1xf32>
  %expanded = tensor.expand_shape %8 [[0, 1]] : tensor<1xf32> into tensor<1x1xf32>
  %9 = tensor.empty() : tensor<1x2xf32>
  %10 = "tosa.reshape"(%expanded) <{new_shape = array<i64: 1>}> : (tensor<1x1xf32>) -> tensor<1xf32>
  %11 = linalg.generic {indexing_maps = [affine_map<(d0, d1) -> (d0, d1)>, affine_map<(d0, d1) -> (d0)>, affine_map<(d0, d1) -> (d0, d1)>], iterator_types = ["parallel", "parallel"]} ins(%5, %10 : tensor<1x2xf32>, tensor<1xf32>) outs(%9 : tensor<1x2xf32>) {
  ^bb0(%in: f32, %in_10: f32, %out: f32):
    %28 = arith.subf %in, %in_10 : f32
    linalg.yield %28 : f32
  } -> tensor<1x2xf32>
  %12 = tensor.empty() : tensor<1x2xf32>
  %13 = linalg.generic {indexing_maps = [affine_map<(d0, d1) -> (d0, d1)>, affine_map<(d0, d1) -> (d0, d1)>], iterator_types = ["parallel", "parallel"]} ins(%11 : tensor<1x2xf32>) outs(%12 : tensor<1x2xf32>) {
  ^bb0(%in: f32, %out: f32):
    %28 = math.exp %in : f32
    linalg.yield %28 : f32
  } -> tensor<1x2xf32>
  %14 = tensor.empty() : tensor<1xf32>
  %cst_6 = arith.constant 0.000000e+00 : f32
  %15 = linalg.fill ins(%cst_6 : f32) outs(%14 : tensor<1xf32>) -> tensor<1xf32>
  %16 = linalg.generic {indexing_maps = [affine_map<(d0, d1) -> (d0, d1)>, affine_map<(d0, d1) -> (d0)>], iterator_types = ["parallel", "reduction"]} ins(%13 : tensor<1x2xf32>) outs(%15 : tensor<1xf32>) {
  ^bb0(%in: f32, %out: f32):
    %28 = arith.addf %in, %out : f32
    linalg.yield %28 : f32
  } -> tensor<1xf32>
  %expanded_7 = tensor.expand_shape %16 [[0, 1]] : tensor<1xf32> into tensor<1x1xf32>
  %17 = tensor.empty() : tensor<1x1xf32>
  %18 = linalg.generic {indexing_maps = [affine_map<(d0, d1) -> (d0, d1)>, affine_map<(d0, d1) -> (d0, d1)>], iterator_types = ["parallel", "parallel"]} ins(%expanded_7 : tensor<1x1xf32>) outs(%17 : tensor<1x1xf32>) {
  ^bb0(%in: f32, %out: f32):
    %cst_10 = arith.constant 1.000000e+00 : f32
    %28 = arith.divf %cst_10, %in : f32
    linalg.yield %28 : f32
  } -> tensor<1x1xf32>
  %19 = tensor.empty() : tensor<1x2xf32>
  %20 = "tosa.reshape"(%18) <{new_shape = array<i64: 1>}> : (tensor<1x1xf32>) -> tensor<1xf32>
  %21 = linalg.generic {indexing_maps = [affine_map<(d0, d1) -> (d0, d1)>, affine_map<(d0, d1) -> (d0)>, affine_map<(d0, d1) -> (d0, d1)>], iterator_types = ["parallel", "parallel"]} ins(%13, %20 : tensor<1x2xf32>, tensor<1xf32>) outs(%19 : tensor<1x2xf32>) {
  ^bb0(%in: f32, %in_10: f32, %out: f32):
    %28 = arith.mulf %in, %in_10 : f32
    linalg.yield %28 : f32
  } -> tensor<1x2xf32>
  %22 = tensor.empty() : tensor<1x2xf32>
  %cst_8 = arith.constant dense<2.560000e+02> : tensor<1xf32>
  %23 = linalg.generic {indexing_maps = [affine_map<(d0, d1) -> (d0, d1)>, affine_map<(d0, d1) -> (d0)>, affine_map<(d0, d1) -> (d0, d1)>], iterator_types = ["parallel", "parallel"]} ins(%21, %cst_8 : tensor<1x2xf32>, tensor<1xf32>) outs(%22 : tensor<1x2xf32>) {
  ^bb0(%in: f32, %in_10: f32, %out: f32):
    %28 = arith.mulf %in, %in_10 : f32
    linalg.yield %28 : f32
  } -> tensor<1x2xf32>
  %24 = tensor.empty() : tensor<1x2xf32>
  %cst_9 = arith.constant dense<-1.280000e+02> : tensor<1xf32>
  %25 = linalg.generic {indexing_maps = [affine_map<(d0, d1) -> (d0, d1)>, affine_map<(d0, d1) -> (d0)>, affine_map<(d0, d1) -> (d0, d1)>], iterator_types = ["parallel", "parallel"]} ins(%23, %cst_9 : tensor<1x2xf32>, tensor<1xf32>) outs(%24 : tensor<1x2xf32>) {
  ^bb0(%in: f32, %in_10: f32, %out: f32):
    %28 = arith.addf %in, %in_10 : f32
    linalg.yield %28 : f32
  } -> tensor<1x2xf32>
  %26 = tensor.empty() : tensor<1x2xi8>
  %27 = linalg.generic {indexing_maps = [affine_map<(d0, d1) -> (d0, d1)>, affine_map<(d0, d1) -> (d0, d1)>], iterator_types = ["parallel", "parallel"]} ins(%25 : tensor<1x2xf32>) outs(%26 : tensor<1x2xi8>) {
  ^bb0(%in: f32, %out: i8):
    %cst_10 = arith.constant -1.280000e+02 : f32
    %cst_11 = arith.constant 1.270000e+02 : f32
    %28 = math.roundeven %in : f32
    %29 = arith.minf %28, %cst_11 : f32
    %30 = arith.maxf %29, %cst_10 : f32
    %31 = arith.fptosi %30 : f32 to i8
    linalg.yield %31 : i8
  } -> tensor<1x2xi8>
  return %27 : tensor<1x2xi8>
}

// -----// IR Dump After TosaToTensor (tosa-to-tensor) //----- //
func.func @main(%arg0: tensor<1x2xi8> {ml_program.identifier = "MobilenetV1/Logits/SpatialSqueeze"}) -> (tensor<1x2xi8> {ml_program.identifier = "MobilenetV1/Predictions/Reshape_1"}) {
  %cst = arith.constant dense<-1.000000e+00> : tensor<1x1xf32>
  %cst_0 = arith.constant dense<0.0125187514> : tensor<1x1xf32>
  %cst_1 = arith.constant dense<2.560000e+02> : tensor<1x1xf32>
  %cst_2 = arith.constant dense<-1.280000e+02> : tensor<1x1xf32>
  %0 = tensor.empty() : tensor<1x2xf32>
  %1 = linalg.generic {indexing_maps = [affine_map<(d0, d1) -> (d0, d1)>, affine_map<(d0, d1) -> (d0, d1)>], iterator_types = ["parallel", "parallel"]} ins(%arg0 : tensor<1x2xi8>) outs(%0 : tensor<1x2xf32>) {
  ^bb0(%in: i8, %out: f32):
    %26 = arith.sitofp %in : i8 to f32
    linalg.yield %26 : f32
  } -> tensor<1x2xf32>
  %2 = tensor.empty() : tensor<1x2xf32>
  %cst_3 = arith.constant dense<-1.000000e+00> : tensor<1xf32>
  %3 = linalg.generic {indexing_maps = [affine_map<(d0, d1) -> (d0, d1)>, affine_map<(d0, d1) -> (d0)>, affine_map<(d0, d1) -> (d0, d1)>], iterator_types = ["parallel", "parallel"]} ins(%1, %cst_3 : tensor<1x2xf32>, tensor<1xf32>) outs(%2 : tensor<1x2xf32>) {
  ^bb0(%in: f32, %in_11: f32, %out: f32):
    %26 = arith.subf %in, %in_11 : f32
    linalg.yield %26 : f32
  } -> tensor<1x2xf32>
  %4 = tensor.empty() : tensor<1x2xf32>
  %cst_4 = arith.constant dense<0.0125187514> : tensor<1xf32>
  %5 = linalg.generic {indexing_maps = [affine_map<(d0, d1) -> (d0, d1)>, affine_map<(d0, d1) -> (d0)>, affine_map<(d0, d1) -> (d0, d1)>], iterator_types = ["parallel", "parallel"]} ins(%3, %cst_4 : tensor<1x2xf32>, tensor<1xf32>) outs(%4 : tensor<1x2xf32>) {
  ^bb0(%in: f32, %in_11: f32, %out: f32):
    %26 = arith.mulf %in, %in_11 : f32
    linalg.yield %26 : f32
  } -> tensor<1x2xf32>
  %6 = tensor.empty() : tensor<1xf32>
  %cst_5 = arith.constant -3.40282347E+38 : f32
  %7 = linalg.fill ins(%cst_5 : f32) outs(%6 : tensor<1xf32>) -> tensor<1xf32>
  %8 = linalg.generic {indexing_maps = [affine_map<(d0, d1) -> (d0, d1)>, affine_map<(d0, d1) -> (d0)>], iterator_types = ["parallel", "reduction"]} ins(%5 : tensor<1x2xf32>) outs(%7 : tensor<1xf32>) {
  ^bb0(%in: f32, %out: f32):
    %26 = arith.maxf %in, %out : f32
    linalg.yield %26 : f32
  } -> tensor<1xf32>
  %expanded = tensor.expand_shape %8 [[0, 1]] : tensor<1xf32> into tensor<1x1xf32>
  %9 = tensor.empty() : tensor<1x2xf32>
  %collapsed = tensor.collapse_shape %expanded [[0, 1]] : tensor<1x1xf32> into tensor<1xf32>
  %10 = linalg.generic {indexing_maps = [affine_map<(d0, d1) -> (d0, d1)>, affine_map<(d0, d1) -> (d0)>, affine_map<(d0, d1) -> (d0, d1)>], iterator_types = ["parallel", "parallel"]} ins(%5, %collapsed : tensor<1x2xf32>, tensor<1xf32>) outs(%9 : tensor<1x2xf32>) {
  ^bb0(%in: f32, %in_11: f32, %out: f32):
    %26 = arith.subf %in, %in_11 : f32
    linalg.yield %26 : f32
  } -> tensor<1x2xf32>
  %11 = tensor.empty() : tensor<1x2xf32>
  %12 = linalg.generic {indexing_maps = [affine_map<(d0, d1) -> (d0, d1)>, affine_map<(d0, d1) -> (d0, d1)>], iterator_types = ["parallel", "parallel"]} ins(%10 : tensor<1x2xf32>) outs(%11 : tensor<1x2xf32>) {
  ^bb0(%in: f32, %out: f32):
    %26 = math.exp %in : f32
    linalg.yield %26 : f32
  } -> tensor<1x2xf32>
  %13 = tensor.empty() : tensor<1xf32>
  %cst_6 = arith.constant 0.000000e+00 : f32
  %14 = linalg.fill ins(%cst_6 : f32) outs(%13 : tensor<1xf32>) -> tensor<1xf32>
  %15 = linalg.generic {indexing_maps = [affine_map<(d0, d1) -> (d0, d1)>, affine_map<(d0, d1) -> (d0)>], iterator_types = ["parallel", "reduction"]} ins(%12 : tensor<1x2xf32>) outs(%14 : tensor<1xf32>) {
  ^bb0(%in: f32, %out: f32):
    %26 = arith.addf %in, %out : f32
    linalg.yield %26 : f32
  } -> tensor<1xf32>
  %expanded_7 = tensor.expand_shape %15 [[0, 1]] : tensor<1xf32> into tensor<1x1xf32>
  %16 = tensor.empty() : tensor<1x1xf32>
  %17 = linalg.generic {indexing_maps = [affine_map<(d0, d1) -> (d0, d1)>, affine_map<(d0, d1) -> (d0, d1)>], iterator_types = ["parallel", "parallel"]} ins(%expanded_7 : tensor<1x1xf32>) outs(%16 : tensor<1x1xf32>) {
  ^bb0(%in: f32, %out: f32):
    %cst_11 = arith.constant 1.000000e+00 : f32
    %26 = arith.divf %cst_11, %in : f32
    linalg.yield %26 : f32
  } -> tensor<1x1xf32>
  %18 = tensor.empty() : tensor<1x2xf32>
  %collapsed_8 = tensor.collapse_shape %17 [[0, 1]] : tensor<1x1xf32> into tensor<1xf32>
  %19 = linalg.generic {indexing_maps = [affine_map<(d0, d1) -> (d0, d1)>, affine_map<(d0, d1) -> (d0)>, affine_map<(d0, d1) -> (d0, d1)>], iterator_types = ["parallel", "parallel"]} ins(%12, %collapsed_8 : tensor<1x2xf32>, tensor<1xf32>) outs(%18 : tensor<1x2xf32>) {
  ^bb0(%in: f32, %in_11: f32, %out: f32):
    %26 = arith.mulf %in, %in_11 : f32
    linalg.yield %26 : f32
  } -> tensor<1x2xf32>
  %20 = tensor.empty() : tensor<1x2xf32>
  %cst_9 = arith.constant dense<2.560000e+02> : tensor<1xf32>
  %21 = linalg.generic {indexing_maps = [affine_map<(d0, d1) -> (d0, d1)>, affine_map<(d0, d1) -> (d0)>, affine_map<(d0, d1) -> (d0, d1)>], iterator_types = ["parallel", "parallel"]} ins(%19, %cst_9 : tensor<1x2xf32>, tensor<1xf32>) outs(%20 : tensor<1x2xf32>) {
  ^bb0(%in: f32, %in_11: f32, %out: f32):
    %26 = arith.mulf %in, %in_11 : f32
    linalg.yield %26 : f32
  } -> tensor<1x2xf32>
  %22 = tensor.empty() : tensor<1x2xf32>
  %cst_10 = arith.constant dense<-1.280000e+02> : tensor<1xf32>
  %23 = linalg.generic {indexing_maps = [affine_map<(d0, d1) -> (d0, d1)>, affine_map<(d0, d1) -> (d0)>, affine_map<(d0, d1) -> (d0, d1)>], iterator_types = ["parallel", "parallel"]} ins(%21, %cst_10 : tensor<1x2xf32>, tensor<1xf32>) outs(%22 : tensor<1x2xf32>) {
  ^bb0(%in: f32, %in_11: f32, %out: f32):
    %26 = arith.addf %in, %in_11 : f32
    linalg.yield %26 : f32
  } -> tensor<1x2xf32>
  %24 = tensor.empty() : tensor<1x2xi8>
  %25 = linalg.generic {indexing_maps = [affine_map<(d0, d1) -> (d0, d1)>, affine_map<(d0, d1) -> (d0, d1)>], iterator_types = ["parallel", "parallel"]} ins(%23 : tensor<1x2xf32>) outs(%24 : tensor<1x2xi8>) {
  ^bb0(%in: f32, %out: i8):
    %cst_11 = arith.constant -1.280000e+02 : f32
    %cst_12 = arith.constant 1.270000e+02 : f32
    %26 = math.roundeven %in : f32
    %27 = arith.minf %26, %cst_12 : f32
    %28 = arith.maxf %27, %cst_11 : f32
    %29 = arith.fptosi %28 : f32 to i8
    linalg.yield %29 : i8
  } -> tensor<1x2xi8>
  return %25 : tensor<1x2xi8>
}

// -----// IR Dump After StripSignedness (iree-flow-strip-signedness) //----- //
func.func @main(%arg0: tensor<1x2xi8> {ml_program.identifier = "MobilenetV1/Logits/SpatialSqueeze"}) -> (tensor<1x2xi8> {ml_program.identifier = "MobilenetV1/Predictions/Reshape_1"}) {
  %cst = arith.constant dense<-1.000000e+00> : tensor<1x1xf32>
  %cst_0 = arith.constant dense<0.0125187514> : tensor<1x1xf32>
  %cst_1 = arith.constant dense<2.560000e+02> : tensor<1x1xf32>
  %cst_2 = arith.constant dense<-1.280000e+02> : tensor<1x1xf32>
  %0 = tensor.empty() : tensor<1x2xf32>
  %1 = linalg.generic {indexing_maps = [affine_map<(d0, d1) -> (d0, d1)>, affine_map<(d0, d1) -> (d0, d1)>], iterator_types = ["parallel", "parallel"]} ins(%arg0 : tensor<1x2xi8>) outs(%0 : tensor<1x2xf32>) {
  ^bb0(%in: i8, %out: f32):
    %26 = arith.sitofp %in : i8 to f32
    linalg.yield %26 : f32
  } -> tensor<1x2xf32>
  %2 = tensor.empty() : tensor<1x2xf32>
  %cst_3 = arith.constant dense<-1.000000e+00> : tensor<1xf32>
  %3 = linalg.generic {indexing_maps = [affine_map<(d0, d1) -> (d0, d1)>, affine_map<(d0, d1) -> (d0)>, affine_map<(d0, d1) -> (d0, d1)>], iterator_types = ["parallel", "parallel"]} ins(%1, %cst_3 : tensor<1x2xf32>, tensor<1xf32>) outs(%2 : tensor<1x2xf32>) {
  ^bb0(%in: f32, %in_11: f32, %out: f32):
    %26 = arith.subf %in, %in_11 : f32
    linalg.yield %26 : f32
  } -> tensor<1x2xf32>
  %4 = tensor.empty() : tensor<1x2xf32>
  %cst_4 = arith.constant dense<0.0125187514> : tensor<1xf32>
  %5 = linalg.generic {indexing_maps = [affine_map<(d0, d1) -> (d0, d1)>, affine_map<(d0, d1) -> (d0)>, affine_map<(d0, d1) -> (d0, d1)>], iterator_types = ["parallel", "parallel"]} ins(%3, %cst_4 : tensor<1x2xf32>, tensor<1xf32>) outs(%4 : tensor<1x2xf32>) {
  ^bb0(%in: f32, %in_11: f32, %out: f32):
    %26 = arith.mulf %in, %in_11 : f32
    linalg.yield %26 : f32
  } -> tensor<1x2xf32>
  %6 = tensor.empty() : tensor<1xf32>
  %cst_5 = arith.constant -3.40282347E+38 : f32
  %7 = linalg.fill ins(%cst_5 : f32) outs(%6 : tensor<1xf32>) -> tensor<1xf32>
  %8 = linalg.generic {indexing_maps = [affine_map<(d0, d1) -> (d0, d1)>, affine_map<(d0, d1) -> (d0)>], iterator_types = ["parallel", "reduction"]} ins(%5 : tensor<1x2xf32>) outs(%7 : tensor<1xf32>) {
  ^bb0(%in: f32, %out: f32):
    %26 = arith.maxf %in, %out : f32
    linalg.yield %26 : f32
  } -> tensor<1xf32>
  %expanded = tensor.expand_shape %8 [[0, 1]] : tensor<1xf32> into tensor<1x1xf32>
  %9 = tensor.empty() : tensor<1x2xf32>
  %collapsed = tensor.collapse_shape %expanded [[0, 1]] : tensor<1x1xf32> into tensor<1xf32>
  %10 = linalg.generic {indexing_maps = [affine_map<(d0, d1) -> (d0, d1)>, affine_map<(d0, d1) -> (d0)>, affine_map<(d0, d1) -> (d0, d1)>], iterator_types = ["parallel", "parallel"]} ins(%5, %collapsed : tensor<1x2xf32>, tensor<1xf32>) outs(%9 : tensor<1x2xf32>) {
  ^bb0(%in: f32, %in_11: f32, %out: f32):
    %26 = arith.subf %in, %in_11 : f32
    linalg.yield %26 : f32
  } -> tensor<1x2xf32>
  %11 = tensor.empty() : tensor<1x2xf32>
  %12 = linalg.generic {indexing_maps = [affine_map<(d0, d1) -> (d0, d1)>, affine_map<(d0, d1) -> (d0, d1)>], iterator_types = ["parallel", "parallel"]} ins(%10 : tensor<1x2xf32>) outs(%11 : tensor<1x2xf32>) {
  ^bb0(%in: f32, %out: f32):
    %26 = math.exp %in : f32
    linalg.yield %26 : f32
  } -> tensor<1x2xf32>
  %13 = tensor.empty() : tensor<1xf32>
  %cst_6 = arith.constant 0.000000e+00 : f32
  %14 = linalg.fill ins(%cst_6 : f32) outs(%13 : tensor<1xf32>) -> tensor<1xf32>
  %15 = linalg.generic {indexing_maps = [affine_map<(d0, d1) -> (d0, d1)>, affine_map<(d0, d1) -> (d0)>], iterator_types = ["parallel", "reduction"]} ins(%12 : tensor<1x2xf32>) outs(%14 : tensor<1xf32>) {
  ^bb0(%in: f32, %out: f32):
    %26 = arith.addf %in, %out : f32
    linalg.yield %26 : f32
  } -> tensor<1xf32>
  %expanded_7 = tensor.expand_shape %15 [[0, 1]] : tensor<1xf32> into tensor<1x1xf32>
  %16 = tensor.empty() : tensor<1x1xf32>
  %17 = linalg.generic {indexing_maps = [affine_map<(d0, d1) -> (d0, d1)>, affine_map<(d0, d1) -> (d0, d1)>], iterator_types = ["parallel", "parallel"]} ins(%expanded_7 : tensor<1x1xf32>) outs(%16 : tensor<1x1xf32>) {
  ^bb0(%in: f32, %out: f32):
    %cst_11 = arith.constant 1.000000e+00 : f32
    %26 = arith.divf %cst_11, %in : f32
    linalg.yield %26 : f32
  } -> tensor<1x1xf32>
  %18 = tensor.empty() : tensor<1x2xf32>
  %collapsed_8 = tensor.collapse_shape %17 [[0, 1]] : tensor<1x1xf32> into tensor<1xf32>
  %19 = linalg.generic {indexing_maps = [affine_map<(d0, d1) -> (d0, d1)>, affine_map<(d0, d1) -> (d0)>, affine_map<(d0, d1) -> (d0, d1)>], iterator_types = ["parallel", "parallel"]} ins(%12, %collapsed_8 : tensor<1x2xf32>, tensor<1xf32>) outs(%18 : tensor<1x2xf32>) {
  ^bb0(%in: f32, %in_11: f32, %out: f32):
    %26 = arith.mulf %in, %in_11 : f32
    linalg.yield %26 : f32
  } -> tensor<1x2xf32>
  %20 = tensor.empty() : tensor<1x2xf32>
  %cst_9 = arith.constant dense<2.560000e+02> : tensor<1xf32>
  %21 = linalg.generic {indexing_maps = [affine_map<(d0, d1) -> (d0, d1)>, affine_map<(d0, d1) -> (d0)>, affine_map<(d0, d1) -> (d0, d1)>], iterator_types = ["parallel", "parallel"]} ins(%19, %cst_9 : tensor<1x2xf32>, tensor<1xf32>) outs(%20 : tensor<1x2xf32>) {
  ^bb0(%in: f32, %in_11: f32, %out: f32):
    %26 = arith.mulf %in, %in_11 : f32
    linalg.yield %26 : f32
  } -> tensor<1x2xf32>
  %22 = tensor.empty() : tensor<1x2xf32>
  %cst_10 = arith.constant dense<-1.280000e+02> : tensor<1xf32>
  %23 = linalg.generic {indexing_maps = [affine_map<(d0, d1) -> (d0, d1)>, affine_map<(d0, d1) -> (d0)>, affine_map<(d0, d1) -> (d0, d1)>], iterator_types = ["parallel", "parallel"]} ins(%21, %cst_10 : tensor<1x2xf32>, tensor<1xf32>) outs(%22 : tensor<1x2xf32>) {
  ^bb0(%in: f32, %in_11: f32, %out: f32):
    %26 = arith.addf %in, %in_11 : f32
    linalg.yield %26 : f32
  } -> tensor<1x2xf32>
  %24 = tensor.empty() : tensor<1x2xi8>
  %25 = linalg.generic {indexing_maps = [affine_map<(d0, d1) -> (d0, d1)>, affine_map<(d0, d1) -> (d0, d1)>], iterator_types = ["parallel", "parallel"]} ins(%23 : tensor<1x2xf32>) outs(%24 : tensor<1x2xi8>) {
  ^bb0(%in: f32, %out: i8):
    %cst_11 = arith.constant -1.280000e+02 : f32
    %cst_12 = arith.constant 1.270000e+02 : f32
    %26 = math.roundeven %in : f32
    %27 = arith.minf %26, %cst_12 : f32
    %28 = arith.maxf %27, %cst_11 : f32
    %29 = arith.fptosi %28 : f32 to i8
    linalg.yield %29 : i8
  } -> tensor<1x2xi8>
  return %25 : tensor<1x2xi8>
}

// -----// IR Dump After Canonicalizer (canonicalize) //----- //
func.func @main(%arg0: tensor<1x2xi8> {ml_program.identifier = "MobilenetV1/Logits/SpatialSqueeze"}) -> (tensor<1x2xi8> {ml_program.identifier = "MobilenetV1/Predictions/Reshape_1"}) {
  %cst = arith.constant 1.270000e+02 : f32
  %cst_0 = arith.constant -1.280000e+02 : f32
  %cst_1 = arith.constant dense<-1.280000e+02> : tensor<1xf32>
  %cst_2 = arith.constant dense<2.560000e+02> : tensor<1xf32>
  %cst_3 = arith.constant 1.000000e+00 : f32
  %cst_4 = arith.constant 0.000000e+00 : f32
  %cst_5 = arith.constant -3.40282347E+38 : f32
  %cst_6 = arith.constant dense<0.0125187514> : tensor<1xf32>
  %cst_7 = arith.constant dense<-1.000000e+00> : tensor<1xf32>
  %0 = tensor.empty() : tensor<1x2xf32>
  %1 = linalg.generic {indexing_maps = [affine_map<(d0, d1) -> (d0, d1)>, affine_map<(d0, d1) -> (d0, d1)>], iterator_types = ["parallel", "parallel"]} ins(%arg0 : tensor<1x2xi8>) outs(%0 : tensor<1x2xf32>) {
  ^bb0(%in: i8, %out: f32):
    %26 = arith.sitofp %in : i8 to f32
    linalg.yield %26 : f32
  } -> tensor<1x2xf32>
  %2 = tensor.empty() : tensor<1x2xf32>
  %3 = linalg.generic {indexing_maps = [affine_map<(d0, d1) -> (d0, d1)>, affine_map<(d0, d1) -> (d0)>, affine_map<(d0, d1) -> (d0, d1)>], iterator_types = ["parallel", "parallel"]} ins(%1, %cst_7 : tensor<1x2xf32>, tensor<1xf32>) outs(%2 : tensor<1x2xf32>) {
  ^bb0(%in: f32, %in_8: f32, %out: f32):
    %26 = arith.subf %in, %in_8 : f32
    linalg.yield %26 : f32
  } -> tensor<1x2xf32>
  %4 = tensor.empty() : tensor<1x2xf32>
  %5 = linalg.generic {indexing_maps = [affine_map<(d0, d1) -> (d0, d1)>, affine_map<(d0, d1) -> (d0)>, affine_map<(d0, d1) -> (d0, d1)>], iterator_types = ["parallel", "parallel"]} ins(%3, %cst_6 : tensor<1x2xf32>, tensor<1xf32>) outs(%4 : tensor<1x2xf32>) {
  ^bb0(%in: f32, %in_8: f32, %out: f32):
    %26 = arith.mulf %in, %in_8 : f32
    linalg.yield %26 : f32
  } -> tensor<1x2xf32>
  %6 = tensor.empty() : tensor<1xf32>
  %7 = linalg.fill ins(%cst_5 : f32) outs(%6 : tensor<1xf32>) -> tensor<1xf32>
  %8 = linalg.generic {indexing_maps = [affine_map<(d0, d1) -> (d0, d1)>, affine_map<(d0, d1) -> (d0)>], iterator_types = ["parallel", "reduction"]} ins(%5 : tensor<1x2xf32>) outs(%7 : tensor<1xf32>) {
  ^bb0(%in: f32, %out: f32):
    %26 = arith.maxf %in, %out : f32
    linalg.yield %26 : f32
  } -> tensor<1xf32>
  %9 = tensor.empty() : tensor<1x2xf32>
  %10 = linalg.generic {indexing_maps = [affine_map<(d0, d1) -> (d0, d1)>, affine_map<(d0, d1) -> (d0)>, affine_map<(d0, d1) -> (d0, d1)>], iterator_types = ["parallel", "parallel"]} ins(%5, %8 : tensor<1x2xf32>, tensor<1xf32>) outs(%9 : tensor<1x2xf32>) {
  ^bb0(%in: f32, %in_8: f32, %out: f32):
    %26 = arith.subf %in, %in_8 : f32
    linalg.yield %26 : f32
  } -> tensor<1x2xf32>
  %11 = tensor.empty() : tensor<1x2xf32>
  %12 = linalg.generic {indexing_maps = [affine_map<(d0, d1) -> (d0, d1)>, affine_map<(d0, d1) -> (d0, d1)>], iterator_types = ["parallel", "parallel"]} ins(%10 : tensor<1x2xf32>) outs(%11 : tensor<1x2xf32>) {
  ^bb0(%in: f32, %out: f32):
    %26 = math.exp %in : f32
    linalg.yield %26 : f32
  } -> tensor<1x2xf32>
  %13 = tensor.empty() : tensor<1xf32>
  %14 = linalg.fill ins(%cst_4 : f32) outs(%13 : tensor<1xf32>) -> tensor<1xf32>
  %15 = linalg.generic {indexing_maps = [affine_map<(d0, d1) -> (d0, d1)>, affine_map<(d0, d1) -> (d0)>], iterator_types = ["parallel", "reduction"]} ins(%12 : tensor<1x2xf32>) outs(%14 : tensor<1xf32>) {
  ^bb0(%in: f32, %out: f32):
    %26 = arith.addf %in, %out : f32
    linalg.yield %26 : f32
  } -> tensor<1xf32>
  %expanded = tensor.expand_shape %15 [[0, 1]] : tensor<1xf32> into tensor<1x1xf32>
  %16 = tensor.empty() : tensor<1x1xf32>
  %17 = linalg.generic {indexing_maps = [affine_map<(d0, d1) -> (d0, d1)>, affine_map<(d0, d1) -> (d0, d1)>], iterator_types = ["parallel", "parallel"]} ins(%expanded : tensor<1x1xf32>) outs(%16 : tensor<1x1xf32>) {
  ^bb0(%in: f32, %out: f32):
    %26 = arith.divf %cst_3, %in : f32
    linalg.yield %26 : f32
  } -> tensor<1x1xf32>
  %18 = tensor.empty() : tensor<1x2xf32>
  %collapsed = tensor.collapse_shape %17 [[0, 1]] : tensor<1x1xf32> into tensor<1xf32>
  %19 = linalg.generic {indexing_maps = [affine_map<(d0, d1) -> (d0, d1)>, affine_map<(d0, d1) -> (d0)>, affine_map<(d0, d1) -> (d0, d1)>], iterator_types = ["parallel", "parallel"]} ins(%12, %collapsed : tensor<1x2xf32>, tensor<1xf32>) outs(%18 : tensor<1x2xf32>) {
  ^bb0(%in: f32, %in_8: f32, %out: f32):
    %26 = arith.mulf %in, %in_8 : f32
    linalg.yield %26 : f32
  } -> tensor<1x2xf32>
  %20 = tensor.empty() : tensor<1x2xf32>
  %21 = linalg.generic {indexing_maps = [affine_map<(d0, d1) -> (d0, d1)>, affine_map<(d0, d1) -> (d0)>, affine_map<(d0, d1) -> (d0, d1)>], iterator_types = ["parallel", "parallel"]} ins(%19, %cst_2 : tensor<1x2xf32>, tensor<1xf32>) outs(%20 : tensor<1x2xf32>) {
  ^bb0(%in: f32, %in_8: f32, %out: f32):
    %26 = arith.mulf %in, %in_8 : f32
    linalg.yield %26 : f32
  } -> tensor<1x2xf32>
  %22 = tensor.empty() : tensor<1x2xf32>
  %23 = linalg.generic {indexing_maps = [affine_map<(d0, d1) -> (d0, d1)>, affine_map<(d0, d1) -> (d0)>, affine_map<(d0, d1) -> (d0, d1)>], iterator_types = ["parallel", "parallel"]} ins(%21, %cst_1 : tensor<1x2xf32>, tensor<1xf32>) outs(%22 : tensor<1x2xf32>) {
  ^bb0(%in: f32, %in_8: f32, %out: f32):
    %26 = arith.addf %in, %in_8 : f32
    linalg.yield %26 : f32
  } -> tensor<1x2xf32>
  %24 = tensor.empty() : tensor<1x2xi8>
  %25 = linalg.generic {indexing_maps = [affine_map<(d0, d1) -> (d0, d1)>, affine_map<(d0, d1) -> (d0, d1)>], iterator_types = ["parallel", "parallel"]} ins(%23 : tensor<1x2xf32>) outs(%24 : tensor<1x2xi8>) {
  ^bb0(%in: f32, %out: i8):
    %26 = math.roundeven %in : f32
    %27 = arith.minf %26, %cst : f32
    %28 = arith.maxf %27, %cst_0 : f32
    %29 = arith.fptosi %28 : f32 to i8
    linalg.yield %29 : i8
  } -> tensor<1x2xi8>
  return %25 : tensor<1x2xi8>
}

// -----// IR Dump After LinalgQuantizedMatmulToMatmulPass (iree-linalg-quantized-matmul-to-matmul) //----- //
func.func @main(%arg0: tensor<1x2xi8> {ml_program.identifier = "MobilenetV1/Logits/SpatialSqueeze"}) -> (tensor<1x2xi8> {ml_program.identifier = "MobilenetV1/Predictions/Reshape_1"}) {
  %cst = arith.constant 1.270000e+02 : f32
  %cst_0 = arith.constant -1.280000e+02 : f32
  %cst_1 = arith.constant dense<-1.280000e+02> : tensor<1xf32>
  %cst_2 = arith.constant dense<2.560000e+02> : tensor<1xf32>
  %cst_3 = arith.constant 1.000000e+00 : f32
  %cst_4 = arith.constant 0.000000e+00 : f32
  %cst_5 = arith.constant -3.40282347E+38 : f32
  %cst_6 = arith.constant dense<0.0125187514> : tensor<1xf32>
  %cst_7 = arith.constant dense<-1.000000e+00> : tensor<1xf32>
  %0 = tensor.empty() : tensor<1x2xf32>
  %1 = linalg.generic {indexing_maps = [affine_map<(d0, d1) -> (d0, d1)>, affine_map<(d0, d1) -> (d0, d1)>], iterator_types = ["parallel", "parallel"]} ins(%arg0 : tensor<1x2xi8>) outs(%0 : tensor<1x2xf32>) {
  ^bb0(%in: i8, %out: f32):
    %26 = arith.sitofp %in : i8 to f32
    linalg.yield %26 : f32
  } -> tensor<1x2xf32>
  %2 = tensor.empty() : tensor<1x2xf32>
  %3 = linalg.generic {indexing_maps = [affine_map<(d0, d1) -> (d0, d1)>, affine_map<(d0, d1) -> (d0)>, affine_map<(d0, d1) -> (d0, d1)>], iterator_types = ["parallel", "parallel"]} ins(%1, %cst_7 : tensor<1x2xf32>, tensor<1xf32>) outs(%2 : tensor<1x2xf32>) {
  ^bb0(%in: f32, %in_8: f32, %out: f32):
    %26 = arith.subf %in, %in_8 : f32
    linalg.yield %26 : f32
  } -> tensor<1x2xf32>
  %4 = tensor.empty() : tensor<1x2xf32>
  %5 = linalg.generic {indexing_maps = [affine_map<(d0, d1) -> (d0, d1)>, affine_map<(d0, d1) -> (d0)>, affine_map<(d0, d1) -> (d0, d1)>], iterator_types = ["parallel", "parallel"]} ins(%3, %cst_6 : tensor<1x2xf32>, tensor<1xf32>) outs(%4 : tensor<1x2xf32>) {
  ^bb0(%in: f32, %in_8: f32, %out: f32):
    %26 = arith.mulf %in, %in_8 : f32
    linalg.yield %26 : f32
  } -> tensor<1x2xf32>
  %6 = tensor.empty() : tensor<1xf32>
  %7 = linalg.fill ins(%cst_5 : f32) outs(%6 : tensor<1xf32>) -> tensor<1xf32>
  %8 = linalg.generic {indexing_maps = [affine_map<(d0, d1) -> (d0, d1)>, affine_map<(d0, d1) -> (d0)>], iterator_types = ["parallel", "reduction"]} ins(%5 : tensor<1x2xf32>) outs(%7 : tensor<1xf32>) {
  ^bb0(%in: f32, %out: f32):
    %26 = arith.maxf %in, %out : f32
    linalg.yield %26 : f32
  } -> tensor<1xf32>
  %9 = tensor.empty() : tensor<1x2xf32>
  %10 = linalg.generic {indexing_maps = [affine_map<(d0, d1) -> (d0, d1)>, affine_map<(d0, d1) -> (d0)>, affine_map<(d0, d1) -> (d0, d1)>], iterator_types = ["parallel", "parallel"]} ins(%5, %8 : tensor<1x2xf32>, tensor<1xf32>) outs(%9 : tensor<1x2xf32>) {
  ^bb0(%in: f32, %in_8: f32, %out: f32):
    %26 = arith.subf %in, %in_8 : f32
    linalg.yield %26 : f32
  } -> tensor<1x2xf32>
  %11 = tensor.empty() : tensor<1x2xf32>
  %12 = linalg.generic {indexing_maps = [affine_map<(d0, d1) -> (d0, d1)>, affine_map<(d0, d1) -> (d0, d1)>], iterator_types = ["parallel", "parallel"]} ins(%10 : tensor<1x2xf32>) outs(%11 : tensor<1x2xf32>) {
  ^bb0(%in: f32, %out: f32):
    %26 = math.exp %in : f32
    linalg.yield %26 : f32
  } -> tensor<1x2xf32>
  %13 = tensor.empty() : tensor<1xf32>
  %14 = linalg.fill ins(%cst_4 : f32) outs(%13 : tensor<1xf32>) -> tensor<1xf32>
  %15 = linalg.generic {indexing_maps = [affine_map<(d0, d1) -> (d0, d1)>, affine_map<(d0, d1) -> (d0)>], iterator_types = ["parallel", "reduction"]} ins(%12 : tensor<1x2xf32>) outs(%14 : tensor<1xf32>) {
  ^bb0(%in: f32, %out: f32):
    %26 = arith.addf %in, %out : f32
    linalg.yield %26 : f32
  } -> tensor<1xf32>
  %expanded = tensor.expand_shape %15 [[0, 1]] : tensor<1xf32> into tensor<1x1xf32>
  %16 = tensor.empty() : tensor<1x1xf32>
  %17 = linalg.generic {indexing_maps = [affine_map<(d0, d1) -> (d0, d1)>, affine_map<(d0, d1) -> (d0, d1)>], iterator_types = ["parallel", "parallel"]} ins(%expanded : tensor<1x1xf32>) outs(%16 : tensor<1x1xf32>) {
  ^bb0(%in: f32, %out: f32):
    %26 = arith.divf %cst_3, %in : f32
    linalg.yield %26 : f32
  } -> tensor<1x1xf32>
  %18 = tensor.empty() : tensor<1x2xf32>
  %collapsed = tensor.collapse_shape %17 [[0, 1]] : tensor<1x1xf32> into tensor<1xf32>
  %19 = linalg.generic {indexing_maps = [affine_map<(d0, d1) -> (d0, d1)>, affine_map<(d0, d1) -> (d0)>, affine_map<(d0, d1) -> (d0, d1)>], iterator_types = ["parallel", "parallel"]} ins(%12, %collapsed : tensor<1x2xf32>, tensor<1xf32>) outs(%18 : tensor<1x2xf32>) {
  ^bb0(%in: f32, %in_8: f32, %out: f32):
    %26 = arith.mulf %in, %in_8 : f32
    linalg.yield %26 : f32
  } -> tensor<1x2xf32>
  %20 = tensor.empty() : tensor<1x2xf32>
  %21 = linalg.generic {indexing_maps = [affine_map<(d0, d1) -> (d0, d1)>, affine_map<(d0, d1) -> (d0)>, affine_map<(d0, d1) -> (d0, d1)>], iterator_types = ["parallel", "parallel"]} ins(%19, %cst_2 : tensor<1x2xf32>, tensor<1xf32>) outs(%20 : tensor<1x2xf32>) {
  ^bb0(%in: f32, %in_8: f32, %out: f32):
    %26 = arith.mulf %in, %in_8 : f32
    linalg.yield %26 : f32
  } -> tensor<1x2xf32>
  %22 = tensor.empty() : tensor<1x2xf32>
  %23 = linalg.generic {indexing_maps = [affine_map<(d0, d1) -> (d0, d1)>, affine_map<(d0, d1) -> (d0)>, affine_map<(d0, d1) -> (d0, d1)>], iterator_types = ["parallel", "parallel"]} ins(%21, %cst_1 : tensor<1x2xf32>, tensor<1xf32>) outs(%22 : tensor<1x2xf32>) {
  ^bb0(%in: f32, %in_8: f32, %out: f32):
    %26 = arith.addf %in, %in_8 : f32
    linalg.yield %26 : f32
  } -> tensor<1x2xf32>
  %24 = tensor.empty() : tensor<1x2xi8>
  %25 = linalg.generic {indexing_maps = [affine_map<(d0, d1) -> (d0, d1)>, affine_map<(d0, d1) -> (d0, d1)>], iterator_types = ["parallel", "parallel"]} ins(%23 : tensor<1x2xf32>) outs(%24 : tensor<1x2xi8>) {
  ^bb0(%in: f32, %out: i8):
    %26 = math.roundeven %in : f32
    %27 = arith.minf %26, %cst : f32
    %28 = arith.maxf %27, %cst_0 : f32
    %29 = arith.fptosi %28 : f32 to i8
    linalg.yield %29 : i8
  } -> tensor<1x2xi8>
  return %25 : tensor<1x2xi8>
}

// -----// IR Dump After LinalgQuantizedConvToConvPass (iree-linalg-quantized-conv-to-conv) //----- //
func.func @main(%arg0: tensor<1x2xi8> {ml_program.identifier = "MobilenetV1/Logits/SpatialSqueeze"}) -> (tensor<1x2xi8> {ml_program.identifier = "MobilenetV1/Predictions/Reshape_1"}) {
  %cst = arith.constant 1.270000e+02 : f32
  %cst_0 = arith.constant -1.280000e+02 : f32
  %cst_1 = arith.constant dense<-1.280000e+02> : tensor<1xf32>
  %cst_2 = arith.constant dense<2.560000e+02> : tensor<1xf32>
  %cst_3 = arith.constant 1.000000e+00 : f32
  %cst_4 = arith.constant 0.000000e+00 : f32
  %cst_5 = arith.constant -3.40282347E+38 : f32
  %cst_6 = arith.constant dense<0.0125187514> : tensor<1xf32>
  %cst_7 = arith.constant dense<-1.000000e+00> : tensor<1xf32>
  %0 = tensor.empty() : tensor<1x2xf32>
  %1 = linalg.generic {indexing_maps = [affine_map<(d0, d1) -> (d0, d1)>, affine_map<(d0, d1) -> (d0, d1)>], iterator_types = ["parallel", "parallel"]} ins(%arg0 : tensor<1x2xi8>) outs(%0 : tensor<1x2xf32>) {
  ^bb0(%in: i8, %out: f32):
    %26 = arith.sitofp %in : i8 to f32
    linalg.yield %26 : f32
  } -> tensor<1x2xf32>
  %2 = tensor.empty() : tensor<1x2xf32>
  %3 = linalg.generic {indexing_maps = [affine_map<(d0, d1) -> (d0, d1)>, affine_map<(d0, d1) -> (d0)>, affine_map<(d0, d1) -> (d0, d1)>], iterator_types = ["parallel", "parallel"]} ins(%1, %cst_7 : tensor<1x2xf32>, tensor<1xf32>) outs(%2 : tensor<1x2xf32>) {
  ^bb0(%in: f32, %in_8: f32, %out: f32):
    %26 = arith.subf %in, %in_8 : f32
    linalg.yield %26 : f32
  } -> tensor<1x2xf32>
  %4 = tensor.empty() : tensor<1x2xf32>
  %5 = linalg.generic {indexing_maps = [affine_map<(d0, d1) -> (d0, d1)>, affine_map<(d0, d1) -> (d0)>, affine_map<(d0, d1) -> (d0, d1)>], iterator_types = ["parallel", "parallel"]} ins(%3, %cst_6 : tensor<1x2xf32>, tensor<1xf32>) outs(%4 : tensor<1x2xf32>) {
  ^bb0(%in: f32, %in_8: f32, %out: f32):
    %26 = arith.mulf %in, %in_8 : f32
    linalg.yield %26 : f32
  } -> tensor<1x2xf32>
  %6 = tensor.empty() : tensor<1xf32>
  %7 = linalg.fill ins(%cst_5 : f32) outs(%6 : tensor<1xf32>) -> tensor<1xf32>
  %8 = linalg.generic {indexing_maps = [affine_map<(d0, d1) -> (d0, d1)>, affine_map<(d0, d1) -> (d0)>], iterator_types = ["parallel", "reduction"]} ins(%5 : tensor<1x2xf32>) outs(%7 : tensor<1xf32>) {
  ^bb0(%in: f32, %out: f32):
    %26 = arith.maxf %in, %out : f32
    linalg.yield %26 : f32
  } -> tensor<1xf32>
  %9 = tensor.empty() : tensor<1x2xf32>
  %10 = linalg.generic {indexing_maps = [affine_map<(d0, d1) -> (d0, d1)>, affine_map<(d0, d1) -> (d0)>, affine_map<(d0, d1) -> (d0, d1)>], iterator_types = ["parallel", "parallel"]} ins(%5, %8 : tensor<1x2xf32>, tensor<1xf32>) outs(%9 : tensor<1x2xf32>) {
  ^bb0(%in: f32, %in_8: f32, %out: f32):
    %26 = arith.subf %in, %in_8 : f32
    linalg.yield %26 : f32
  } -> tensor<1x2xf32>
  %11 = tensor.empty() : tensor<1x2xf32>
  %12 = linalg.generic {indexing_maps = [affine_map<(d0, d1) -> (d0, d1)>, affine_map<(d0, d1) -> (d0, d1)>], iterator_types = ["parallel", "parallel"]} ins(%10 : tensor<1x2xf32>) outs(%11 : tensor<1x2xf32>) {
  ^bb0(%in: f32, %out: f32):
    %26 = math.exp %in : f32
    linalg.yield %26 : f32
  } -> tensor<1x2xf32>
  %13 = tensor.empty() : tensor<1xf32>
  %14 = linalg.fill ins(%cst_4 : f32) outs(%13 : tensor<1xf32>) -> tensor<1xf32>
  %15 = linalg.generic {indexing_maps = [affine_map<(d0, d1) -> (d0, d1)>, affine_map<(d0, d1) -> (d0)>], iterator_types = ["parallel", "reduction"]} ins(%12 : tensor<1x2xf32>) outs(%14 : tensor<1xf32>) {
  ^bb0(%in: f32, %out: f32):
    %26 = arith.addf %in, %out : f32
    linalg.yield %26 : f32
  } -> tensor<1xf32>
  %expanded = tensor.expand_shape %15 [[0, 1]] : tensor<1xf32> into tensor<1x1xf32>
  %16 = tensor.empty() : tensor<1x1xf32>
  %17 = linalg.generic {indexing_maps = [affine_map<(d0, d1) -> (d0, d1)>, affine_map<(d0, d1) -> (d0, d1)>], iterator_types = ["parallel", "parallel"]} ins(%expanded : tensor<1x1xf32>) outs(%16 : tensor<1x1xf32>) {
  ^bb0(%in: f32, %out: f32):
    %26 = arith.divf %cst_3, %in : f32
    linalg.yield %26 : f32
  } -> tensor<1x1xf32>
  %18 = tensor.empty() : tensor<1x2xf32>
  %collapsed = tensor.collapse_shape %17 [[0, 1]] : tensor<1x1xf32> into tensor<1xf32>
  %19 = linalg.generic {indexing_maps = [affine_map<(d0, d1) -> (d0, d1)>, affine_map<(d0, d1) -> (d0)>, affine_map<(d0, d1) -> (d0, d1)>], iterator_types = ["parallel", "parallel"]} ins(%12, %collapsed : tensor<1x2xf32>, tensor<1xf32>) outs(%18 : tensor<1x2xf32>) {
  ^bb0(%in: f32, %in_8: f32, %out: f32):
    %26 = arith.mulf %in, %in_8 : f32
    linalg.yield %26 : f32
  } -> tensor<1x2xf32>
  %20 = tensor.empty() : tensor<1x2xf32>
  %21 = linalg.generic {indexing_maps = [affine_map<(d0, d1) -> (d0, d1)>, affine_map<(d0, d1) -> (d0)>, affine_map<(d0, d1) -> (d0, d1)>], iterator_types = ["parallel", "parallel"]} ins(%19, %cst_2 : tensor<1x2xf32>, tensor<1xf32>) outs(%20 : tensor<1x2xf32>) {
  ^bb0(%in: f32, %in_8: f32, %out: f32):
    %26 = arith.mulf %in, %in_8 : f32
    linalg.yield %26 : f32
  } -> tensor<1x2xf32>
  %22 = tensor.empty() : tensor<1x2xf32>
  %23 = linalg.generic {indexing_maps = [affine_map<(d0, d1) -> (d0, d1)>, affine_map<(d0, d1) -> (d0)>, affine_map<(d0, d1) -> (d0, d1)>], iterator_types = ["parallel", "parallel"]} ins(%21, %cst_1 : tensor<1x2xf32>, tensor<1xf32>) outs(%22 : tensor<1x2xf32>) {
  ^bb0(%in: f32, %in_8: f32, %out: f32):
    %26 = arith.addf %in, %in_8 : f32
    linalg.yield %26 : f32
  } -> tensor<1x2xf32>
  %24 = tensor.empty() : tensor<1x2xi8>
  %25 = linalg.generic {indexing_maps = [affine_map<(d0, d1) -> (d0, d1)>, affine_map<(d0, d1) -> (d0, d1)>], iterator_types = ["parallel", "parallel"]} ins(%23 : tensor<1x2xf32>) outs(%24 : tensor<1x2xi8>) {
  ^bb0(%in: f32, %out: i8):
    %26 = math.roundeven %in : f32
    %27 = arith.minf %26, %cst : f32
    %28 = arith.maxf %27, %cst_0 : f32
    %29 = arith.fptosi %28 : f32 to i8
    linalg.yield %29 : i8
  } -> tensor<1x2xi8>
  return %25 : tensor<1x2xi8>
}

// -----// IR Dump After Canonicalizer (canonicalize) //----- //
func.func @main(%arg0: tensor<1x2xi8> {ml_program.identifier = "MobilenetV1/Logits/SpatialSqueeze"}) -> (tensor<1x2xi8> {ml_program.identifier = "MobilenetV1/Predictions/Reshape_1"}) {
  %cst = arith.constant 1.270000e+02 : f32
  %cst_0 = arith.constant -1.280000e+02 : f32
  %cst_1 = arith.constant dense<-1.280000e+02> : tensor<1xf32>
  %cst_2 = arith.constant dense<2.560000e+02> : tensor<1xf32>
  %cst_3 = arith.constant 1.000000e+00 : f32
  %cst_4 = arith.constant 0.000000e+00 : f32
  %cst_5 = arith.constant -3.40282347E+38 : f32
  %cst_6 = arith.constant dense<0.0125187514> : tensor<1xf32>
  %cst_7 = arith.constant dense<-1.000000e+00> : tensor<1xf32>
  %0 = tensor.empty() : tensor<1x2xf32>
  %1 = linalg.generic {indexing_maps = [affine_map<(d0, d1) -> (d0, d1)>, affine_map<(d0, d1) -> (d0, d1)>], iterator_types = ["parallel", "parallel"]} ins(%arg0 : tensor<1x2xi8>) outs(%0 : tensor<1x2xf32>) {
  ^bb0(%in: i8, %out: f32):
    %26 = arith.sitofp %in : i8 to f32
    linalg.yield %26 : f32
  } -> tensor<1x2xf32>
  %2 = tensor.empty() : tensor<1x2xf32>
  %3 = linalg.generic {indexing_maps = [affine_map<(d0, d1) -> (d0, d1)>, affine_map<(d0, d1) -> (d0)>, affine_map<(d0, d1) -> (d0, d1)>], iterator_types = ["parallel", "parallel"]} ins(%1, %cst_7 : tensor<1x2xf32>, tensor<1xf32>) outs(%2 : tensor<1x2xf32>) {
  ^bb0(%in: f32, %in_8: f32, %out: f32):
    %26 = arith.subf %in, %in_8 : f32
    linalg.yield %26 : f32
  } -> tensor<1x2xf32>
  %4 = tensor.empty() : tensor<1x2xf32>
  %5 = linalg.generic {indexing_maps = [affine_map<(d0, d1) -> (d0, d1)>, affine_map<(d0, d1) -> (d0)>, affine_map<(d0, d1) -> (d0, d1)>], iterator_types = ["parallel", "parallel"]} ins(%3, %cst_6 : tensor<1x2xf32>, tensor<1xf32>) outs(%4 : tensor<1x2xf32>) {
  ^bb0(%in: f32, %in_8: f32, %out: f32):
    %26 = arith.mulf %in, %in_8 : f32
    linalg.yield %26 : f32
  } -> tensor<1x2xf32>
  %6 = tensor.empty() : tensor<1xf32>
  %7 = linalg.fill ins(%cst_5 : f32) outs(%6 : tensor<1xf32>) -> tensor<1xf32>
  %8 = linalg.generic {indexing_maps = [affine_map<(d0, d1) -> (d0, d1)>, affine_map<(d0, d1) -> (d0)>], iterator_types = ["parallel", "reduction"]} ins(%5 : tensor<1x2xf32>) outs(%7 : tensor<1xf32>) {
  ^bb0(%in: f32, %out: f32):
    %26 = arith.maxf %in, %out : f32
    linalg.yield %26 : f32
  } -> tensor<1xf32>
  %9 = tensor.empty() : tensor<1x2xf32>
  %10 = linalg.generic {indexing_maps = [affine_map<(d0, d1) -> (d0, d1)>, affine_map<(d0, d1) -> (d0)>, affine_map<(d0, d1) -> (d0, d1)>], iterator_types = ["parallel", "parallel"]} ins(%5, %8 : tensor<1x2xf32>, tensor<1xf32>) outs(%9 : tensor<1x2xf32>) {
  ^bb0(%in: f32, %in_8: f32, %out: f32):
    %26 = arith.subf %in, %in_8 : f32
    linalg.yield %26 : f32
  } -> tensor<1x2xf32>
  %11 = tensor.empty() : tensor<1x2xf32>
  %12 = linalg.generic {indexing_maps = [affine_map<(d0, d1) -> (d0, d1)>, affine_map<(d0, d1) -> (d0, d1)>], iterator_types = ["parallel", "parallel"]} ins(%10 : tensor<1x2xf32>) outs(%11 : tensor<1x2xf32>) {
  ^bb0(%in: f32, %out: f32):
    %26 = math.exp %in : f32
    linalg.yield %26 : f32
  } -> tensor<1x2xf32>
  %13 = tensor.empty() : tensor<1xf32>
  %14 = linalg.fill ins(%cst_4 : f32) outs(%13 : tensor<1xf32>) -> tensor<1xf32>
  %15 = linalg.generic {indexing_maps = [affine_map<(d0, d1) -> (d0, d1)>, affine_map<(d0, d1) -> (d0)>], iterator_types = ["parallel", "reduction"]} ins(%12 : tensor<1x2xf32>) outs(%14 : tensor<1xf32>) {
  ^bb0(%in: f32, %out: f32):
    %26 = arith.addf %in, %out : f32
    linalg.yield %26 : f32
  } -> tensor<1xf32>
  %expanded = tensor.expand_shape %15 [[0, 1]] : tensor<1xf32> into tensor<1x1xf32>
  %16 = tensor.empty() : tensor<1x1xf32>
  %17 = linalg.generic {indexing_maps = [affine_map<(d0, d1) -> (d0, d1)>, affine_map<(d0, d1) -> (d0, d1)>], iterator_types = ["parallel", "parallel"]} ins(%expanded : tensor<1x1xf32>) outs(%16 : tensor<1x1xf32>) {
  ^bb0(%in: f32, %out: f32):
    %26 = arith.divf %cst_3, %in : f32
    linalg.yield %26 : f32
  } -> tensor<1x1xf32>
  %18 = tensor.empty() : tensor<1x2xf32>
  %collapsed = tensor.collapse_shape %17 [[0, 1]] : tensor<1x1xf32> into tensor<1xf32>
  %19 = linalg.generic {indexing_maps = [affine_map<(d0, d1) -> (d0, d1)>, affine_map<(d0, d1) -> (d0)>, affine_map<(d0, d1) -> (d0, d1)>], iterator_types = ["parallel", "parallel"]} ins(%12, %collapsed : tensor<1x2xf32>, tensor<1xf32>) outs(%18 : tensor<1x2xf32>) {
  ^bb0(%in: f32, %in_8: f32, %out: f32):
    %26 = arith.mulf %in, %in_8 : f32
    linalg.yield %26 : f32
  } -> tensor<1x2xf32>
  %20 = tensor.empty() : tensor<1x2xf32>
  %21 = linalg.generic {indexing_maps = [affine_map<(d0, d1) -> (d0, d1)>, affine_map<(d0, d1) -> (d0)>, affine_map<(d0, d1) -> (d0, d1)>], iterator_types = ["parallel", "parallel"]} ins(%19, %cst_2 : tensor<1x2xf32>, tensor<1xf32>) outs(%20 : tensor<1x2xf32>) {
  ^bb0(%in: f32, %in_8: f32, %out: f32):
    %26 = arith.mulf %in, %in_8 : f32
    linalg.yield %26 : f32
  } -> tensor<1x2xf32>
  %22 = tensor.empty() : tensor<1x2xf32>
  %23 = linalg.generic {indexing_maps = [affine_map<(d0, d1) -> (d0, d1)>, affine_map<(d0, d1) -> (d0)>, affine_map<(d0, d1) -> (d0, d1)>], iterator_types = ["parallel", "parallel"]} ins(%21, %cst_1 : tensor<1x2xf32>, tensor<1xf32>) outs(%22 : tensor<1x2xf32>) {
  ^bb0(%in: f32, %in_8: f32, %out: f32):
    %26 = arith.addf %in, %in_8 : f32
    linalg.yield %26 : f32
  } -> tensor<1x2xf32>
  %24 = tensor.empty() : tensor<1x2xi8>
  %25 = linalg.generic {indexing_maps = [affine_map<(d0, d1) -> (d0, d1)>, affine_map<(d0, d1) -> (d0, d1)>], iterator_types = ["parallel", "parallel"]} ins(%23 : tensor<1x2xf32>) outs(%24 : tensor<1x2xi8>) {
  ^bb0(%in: f32, %out: i8):
    %26 = math.roundeven %in : f32
    %27 = arith.minf %26, %cst : f32
    %28 = arith.maxf %27, %cst_0 : f32
    %29 = arith.fptosi %28 : f32 to i8
    linalg.yield %29 : i8
  } -> tensor<1x2xi8>
  return %25 : tensor<1x2xi8>
}

// -----// IR Dump After VerifyCompilerTOSAInputLegality (iree-tosa-verify-compiler-input-legality) //----- //
#executable_target_static = #hal.executable.target<"llvm-cpu", "static", {cpu = "generic-rv32", cpu_features = "+m", data_layout = "e-m:e-p:32:32-i64:64-n32-S128", native_vector_size = 16 : index, target_triple = "riscv32-pc-linux-elf", ukernels = false}>
#map = affine_map<(d0, d1) -> (d0, d1)>
#map1 = affine_map<(d0, d1) -> (d0)>
#device_target_llvm_cpu = #hal.device.target<"llvm-cpu", {executable_targets = [#executable_target_static]}>
module attributes {hal.device.targets = [#device_target_llvm_cpu]} {
  func.func @main(%arg0: tensor<1x2xi8> {ml_program.identifier = "MobilenetV1/Logits/SpatialSqueeze"}) -> (tensor<1x2xi8> {ml_program.identifier = "MobilenetV1/Predictions/Reshape_1"}) {
    %cst = arith.constant 1.270000e+02 : f32
    %cst_0 = arith.constant -1.280000e+02 : f32
    %cst_1 = arith.constant dense<-1.280000e+02> : tensor<1xf32>
    %cst_2 = arith.constant dense<2.560000e+02> : tensor<1xf32>
    %cst_3 = arith.constant 1.000000e+00 : f32
    %cst_4 = arith.constant 0.000000e+00 : f32
    %cst_5 = arith.constant -3.40282347E+38 : f32
    %cst_6 = arith.constant dense<0.0125187514> : tensor<1xf32>
    %cst_7 = arith.constant dense<-1.000000e+00> : tensor<1xf32>
    %0 = tensor.empty() : tensor<1x2xf32>
    %1 = linalg.generic {indexing_maps = [#map, #map], iterator_types = ["parallel", "parallel"]} ins(%arg0 : tensor<1x2xi8>) outs(%0 : tensor<1x2xf32>) {
    ^bb0(%in: i8, %out: f32):
      %26 = arith.sitofp %in : i8 to f32
      linalg.yield %26 : f32
    } -> tensor<1x2xf32>
    %2 = tensor.empty() : tensor<1x2xf32>
    %3 = linalg.generic {indexing_maps = [#map, #map1, #map], iterator_types = ["parallel", "parallel"]} ins(%1, %cst_7 : tensor<1x2xf32>, tensor<1xf32>) outs(%2 : tensor<1x2xf32>) {
    ^bb0(%in: f32, %in_8: f32, %out: f32):
      %26 = arith.subf %in, %in_8 : f32
      linalg.yield %26 : f32
    } -> tensor<1x2xf32>
    %4 = tensor.empty() : tensor<1x2xf32>
    %5 = linalg.generic {indexing_maps = [#map, #map1, #map], iterator_types = ["parallel", "parallel"]} ins(%3, %cst_6 : tensor<1x2xf32>, tensor<1xf32>) outs(%4 : tensor<1x2xf32>) {
    ^bb0(%in: f32, %in_8: f32, %out: f32):
      %26 = arith.mulf %in, %in_8 : f32
      linalg.yield %26 : f32
    } -> tensor<1x2xf32>
    %6 = tensor.empty() : tensor<1xf32>
    %7 = linalg.fill ins(%cst_5 : f32) outs(%6 : tensor<1xf32>) -> tensor<1xf32>
    %8 = linalg.generic {indexing_maps = [#map, #map1], iterator_types = ["parallel", "reduction"]} ins(%5 : tensor<1x2xf32>) outs(%7 : tensor<1xf32>) {
    ^bb0(%in: f32, %out: f32):
      %26 = arith.maxf %in, %out : f32
      linalg.yield %26 : f32
    } -> tensor<1xf32>
    %9 = tensor.empty() : tensor<1x2xf32>
    %10 = linalg.generic {indexing_maps = [#map, #map1, #map], iterator_types = ["parallel", "parallel"]} ins(%5, %8 : tensor<1x2xf32>, tensor<1xf32>) outs(%9 : tensor<1x2xf32>) {
    ^bb0(%in: f32, %in_8: f32, %out: f32):
      %26 = arith.subf %in, %in_8 : f32
      linalg.yield %26 : f32
    } -> tensor<1x2xf32>
    %11 = tensor.empty() : tensor<1x2xf32>
    %12 = linalg.generic {indexing_maps = [#map, #map], iterator_types = ["parallel", "parallel"]} ins(%10 : tensor<1x2xf32>) outs(%11 : tensor<1x2xf32>) {
    ^bb0(%in: f32, %out: f32):
      %26 = math.exp %in : f32
      linalg.yield %26 : f32
    } -> tensor<1x2xf32>
    %13 = tensor.empty() : tensor<1xf32>
    %14 = linalg.fill ins(%cst_4 : f32) outs(%13 : tensor<1xf32>) -> tensor<1xf32>
    %15 = linalg.generic {indexing_maps = [#map, #map1], iterator_types = ["parallel", "reduction"]} ins(%12 : tensor<1x2xf32>) outs(%14 : tensor<1xf32>) {
    ^bb0(%in: f32, %out: f32):
      %26 = arith.addf %in, %out : f32
      linalg.yield %26 : f32
    } -> tensor<1xf32>
    %expanded = tensor.expand_shape %15 [[0, 1]] : tensor<1xf32> into tensor<1x1xf32>
    %16 = tensor.empty() : tensor<1x1xf32>
    %17 = linalg.generic {indexing_maps = [#map, #map], iterator_types = ["parallel", "parallel"]} ins(%expanded : tensor<1x1xf32>) outs(%16 : tensor<1x1xf32>) {
    ^bb0(%in: f32, %out: f32):
      %26 = arith.divf %cst_3, %in : f32
      linalg.yield %26 : f32
    } -> tensor<1x1xf32>
    %18 = tensor.empty() : tensor<1x2xf32>
    %collapsed = tensor.collapse_shape %17 [[0, 1]] : tensor<1x1xf32> into tensor<1xf32>
    %19 = linalg.generic {indexing_maps = [#map, #map1, #map], iterator_types = ["parallel", "parallel"]} ins(%12, %collapsed : tensor<1x2xf32>, tensor<1xf32>) outs(%18 : tensor<1x2xf32>) {
    ^bb0(%in: f32, %in_8: f32, %out: f32):
      %26 = arith.mulf %in, %in_8 : f32
      linalg.yield %26 : f32
    } -> tensor<1x2xf32>
    %20 = tensor.empty() : tensor<1x2xf32>
    %21 = linalg.generic {indexing_maps = [#map, #map1, #map], iterator_types = ["parallel", "parallel"]} ins(%19, %cst_2 : tensor<1x2xf32>, tensor<1xf32>) outs(%20 : tensor<1x2xf32>) {
    ^bb0(%in: f32, %in_8: f32, %out: f32):
      %26 = arith.mulf %in, %in_8 : f32
      linalg.yield %26 : f32
    } -> tensor<1x2xf32>
    %22 = tensor.empty() : tensor<1x2xf32>
    %23 = linalg.generic {indexing_maps = [#map, #map1, #map], iterator_types = ["parallel", "parallel"]} ins(%21, %cst_1 : tensor<1x2xf32>, tensor<1xf32>) outs(%22 : tensor<1x2xf32>) {
    ^bb0(%in: f32, %in_8: f32, %out: f32):
      %26 = arith.addf %in, %in_8 : f32
      linalg.yield %26 : f32
    } -> tensor<1x2xf32>
    %24 = tensor.empty() : tensor<1x2xi8>
    %25 = linalg.generic {indexing_maps = [#map, #map], iterator_types = ["parallel", "parallel"]} ins(%23 : tensor<1x2xf32>) outs(%24 : tensor<1x2xi8>) {
    ^bb0(%in: f32, %out: i8):
      %26 = math.roundeven %in : f32
      %27 = arith.minf %26, %cst : f32
      %28 = arith.maxf %27, %cst_0 : f32
      %29 = arith.fptosi %28 : f32 to i8
      linalg.yield %29 : i8
    } -> tensor<1x2xi8>
    return %25 : tensor<1x2xi8>
  }
}


// -----// IR Dump After AutoInputConversionPipeline (iree-auto-input-conversion) //----- //
#executable_target_static = #hal.executable.target<"llvm-cpu", "static", {cpu = "generic-rv32", cpu_features = "+m", data_layout = "e-m:e-p:32:32-i64:64-n32-S128", native_vector_size = 16 : index, target_triple = "riscv32-pc-linux-elf", ukernels = false}>
#map = affine_map<(d0, d1) -> (d0, d1)>
#map1 = affine_map<(d0, d1) -> (d0)>
#device_target_llvm_cpu = #hal.device.target<"llvm-cpu", {executable_targets = [#executable_target_static]}>
module attributes {hal.device.targets = [#device_target_llvm_cpu]} {
  func.func @main(%arg0: tensor<1x2xi8> {ml_program.identifier = "MobilenetV1/Logits/SpatialSqueeze"}) -> (tensor<1x2xi8> {ml_program.identifier = "MobilenetV1/Predictions/Reshape_1"}) {
    %cst = arith.constant 1.270000e+02 : f32
    %cst_0 = arith.constant -1.280000e+02 : f32
    %cst_1 = arith.constant dense<-1.280000e+02> : tensor<1xf32>
    %cst_2 = arith.constant dense<2.560000e+02> : tensor<1xf32>
    %cst_3 = arith.constant 1.000000e+00 : f32
    %cst_4 = arith.constant 0.000000e+00 : f32
    %cst_5 = arith.constant -3.40282347E+38 : f32
    %cst_6 = arith.constant dense<0.0125187514> : tensor<1xf32>
    %cst_7 = arith.constant dense<-1.000000e+00> : tensor<1xf32>
    %0 = tensor.empty() : tensor<1x2xf32>
    %1 = linalg.generic {indexing_maps = [#map, #map], iterator_types = ["parallel", "parallel"]} ins(%arg0 : tensor<1x2xi8>) outs(%0 : tensor<1x2xf32>) {
    ^bb0(%in: i8, %out: f32):
      %26 = arith.sitofp %in : i8 to f32
      linalg.yield %26 : f32
    } -> tensor<1x2xf32>
    %2 = tensor.empty() : tensor<1x2xf32>
    %3 = linalg.generic {indexing_maps = [#map, #map1, #map], iterator_types = ["parallel", "parallel"]} ins(%1, %cst_7 : tensor<1x2xf32>, tensor<1xf32>) outs(%2 : tensor<1x2xf32>) {
    ^bb0(%in: f32, %in_8: f32, %out: f32):
      %26 = arith.subf %in, %in_8 : f32
      linalg.yield %26 : f32
    } -> tensor<1x2xf32>
    %4 = tensor.empty() : tensor<1x2xf32>
    %5 = linalg.generic {indexing_maps = [#map, #map1, #map], iterator_types = ["parallel", "parallel"]} ins(%3, %cst_6 : tensor<1x2xf32>, tensor<1xf32>) outs(%4 : tensor<1x2xf32>) {
    ^bb0(%in: f32, %in_8: f32, %out: f32):
      %26 = arith.mulf %in, %in_8 : f32
      linalg.yield %26 : f32
    } -> tensor<1x2xf32>
    %6 = tensor.empty() : tensor<1xf32>
    %7 = linalg.fill ins(%cst_5 : f32) outs(%6 : tensor<1xf32>) -> tensor<1xf32>
    %8 = linalg.generic {indexing_maps = [#map, #map1], iterator_types = ["parallel", "reduction"]} ins(%5 : tensor<1x2xf32>) outs(%7 : tensor<1xf32>) {
    ^bb0(%in: f32, %out: f32):
      %26 = arith.maxf %in, %out : f32
      linalg.yield %26 : f32
    } -> tensor<1xf32>
    %9 = tensor.empty() : tensor<1x2xf32>
    %10 = linalg.generic {indexing_maps = [#map, #map1, #map], iterator_types = ["parallel", "parallel"]} ins(%5, %8 : tensor<1x2xf32>, tensor<1xf32>) outs(%9 : tensor<1x2xf32>) {
    ^bb0(%in: f32, %in_8: f32, %out: f32):
      %26 = arith.subf %in, %in_8 : f32
      linalg.yield %26 : f32
    } -> tensor<1x2xf32>
    %11 = tensor.empty() : tensor<1x2xf32>
    %12 = linalg.generic {indexing_maps = [#map, #map], iterator_types = ["parallel", "parallel"]} ins(%10 : tensor<1x2xf32>) outs(%11 : tensor<1x2xf32>) {
    ^bb0(%in: f32, %out: f32):
      %26 = math.exp %in : f32
      linalg.yield %26 : f32
    } -> tensor<1x2xf32>
    %13 = tensor.empty() : tensor<1xf32>
    %14 = linalg.fill ins(%cst_4 : f32) outs(%13 : tensor<1xf32>) -> tensor<1xf32>
    %15 = linalg.generic {indexing_maps = [#map, #map1], iterator_types = ["parallel", "reduction"]} ins(%12 : tensor<1x2xf32>) outs(%14 : tensor<1xf32>) {
    ^bb0(%in: f32, %out: f32):
      %26 = arith.addf %in, %out : f32
      linalg.yield %26 : f32
    } -> tensor<1xf32>
    %expanded = tensor.expand_shape %15 [[0, 1]] : tensor<1xf32> into tensor<1x1xf32>
    %16 = tensor.empty() : tensor<1x1xf32>
    %17 = linalg.generic {indexing_maps = [#map, #map], iterator_types = ["parallel", "parallel"]} ins(%expanded : tensor<1x1xf32>) outs(%16 : tensor<1x1xf32>) {
    ^bb0(%in: f32, %out: f32):
      %26 = arith.divf %cst_3, %in : f32
      linalg.yield %26 : f32
    } -> tensor<1x1xf32>
    %18 = tensor.empty() : tensor<1x2xf32>
    %collapsed = tensor.collapse_shape %17 [[0, 1]] : tensor<1x1xf32> into tensor<1xf32>
    %19 = linalg.generic {indexing_maps = [#map, #map1, #map], iterator_types = ["parallel", "parallel"]} ins(%12, %collapsed : tensor<1x2xf32>, tensor<1xf32>) outs(%18 : tensor<1x2xf32>) {
    ^bb0(%in: f32, %in_8: f32, %out: f32):
      %26 = arith.mulf %in, %in_8 : f32
      linalg.yield %26 : f32
    } -> tensor<1x2xf32>
    %20 = tensor.empty() : tensor<1x2xf32>
    %21 = linalg.generic {indexing_maps = [#map, #map1, #map], iterator_types = ["parallel", "parallel"]} ins(%19, %cst_2 : tensor<1x2xf32>, tensor<1xf32>) outs(%20 : tensor<1x2xf32>) {
    ^bb0(%in: f32, %in_8: f32, %out: f32):
      %26 = arith.mulf %in, %in_8 : f32
      linalg.yield %26 : f32
    } -> tensor<1x2xf32>
    %22 = tensor.empty() : tensor<1x2xf32>
    %23 = linalg.generic {indexing_maps = [#map, #map1, #map], iterator_types = ["parallel", "parallel"]} ins(%21, %cst_1 : tensor<1x2xf32>, tensor<1xf32>) outs(%22 : tensor<1x2xf32>) {
    ^bb0(%in: f32, %in_8: f32, %out: f32):
      %26 = arith.addf %in, %in_8 : f32
      linalg.yield %26 : f32
    } -> tensor<1x2xf32>
    %24 = tensor.empty() : tensor<1x2xi8>
    %25 = linalg.generic {indexing_maps = [#map, #map], iterator_types = ["parallel", "parallel"]} ins(%23 : tensor<1x2xf32>) outs(%24 : tensor<1x2xi8>) {
    ^bb0(%in: f32, %out: i8):
      %26 = math.roundeven %in : f32
      %27 = arith.minf %26, %cst : f32
      %28 = arith.maxf %27, %cst_0 : f32
      %29 = arith.fptosi %28 : f32 to i8
      linalg.yield %29 : i8
    } -> tensor<1x2xi8>
    return %25 : tensor<1x2xi8>
  }
}


// -----// IR Dump After IREEImportPublic (iree-import-public) //----- //
#executable_target_static = #hal.executable.target<"llvm-cpu", "static", {cpu = "generic-rv32", cpu_features = "+m", data_layout = "e-m:e-p:32:32-i64:64-n32-S128", native_vector_size = 16 : index, target_triple = "riscv32-pc-linux-elf", ukernels = false}>
#map = affine_map<(d0, d1) -> (d0, d1)>
#map1 = affine_map<(d0, d1) -> (d0)>
#device_target_llvm_cpu = #hal.device.target<"llvm-cpu", {executable_targets = [#executable_target_static]}>
module attributes {hal.device.targets = [#device_target_llvm_cpu]} {
  func.func @main(%arg0: tensor<1x2xi8> {ml_program.identifier = "MobilenetV1/Logits/SpatialSqueeze"}) -> (tensor<1x2xi8> {ml_program.identifier = "MobilenetV1/Predictions/Reshape_1"}) {
    %cst = arith.constant 1.270000e+02 : f32
    %cst_0 = arith.constant -1.280000e+02 : f32
    %cst_1 = arith.constant dense<-1.280000e+02> : tensor<1xf32>
    %cst_2 = arith.constant dense<2.560000e+02> : tensor<1xf32>
    %cst_3 = arith.constant 1.000000e+00 : f32
    %cst_4 = arith.constant 0.000000e+00 : f32
    %cst_5 = arith.constant -3.40282347E+38 : f32
    %cst_6 = arith.constant dense<0.0125187514> : tensor<1xf32>
    %cst_7 = arith.constant dense<-1.000000e+00> : tensor<1xf32>
    %0 = tensor.empty() : tensor<1x2xf32>
    %1 = linalg.generic {indexing_maps = [#map, #map], iterator_types = ["parallel", "parallel"]} ins(%arg0 : tensor<1x2xi8>) outs(%0 : tensor<1x2xf32>) {
    ^bb0(%in: i8, %out: f32):
      %26 = arith.sitofp %in : i8 to f32
      linalg.yield %26 : f32
    } -> tensor<1x2xf32>
    %2 = tensor.empty() : tensor<1x2xf32>
    %3 = linalg.generic {indexing_maps = [#map, #map1, #map], iterator_types = ["parallel", "parallel"]} ins(%1, %cst_7 : tensor<1x2xf32>, tensor<1xf32>) outs(%2 : tensor<1x2xf32>) {
    ^bb0(%in: f32, %in_8: f32, %out: f32):
      %26 = arith.subf %in, %in_8 : f32
      linalg.yield %26 : f32
    } -> tensor<1x2xf32>
    %4 = tensor.empty() : tensor<1x2xf32>
    %5 = linalg.generic {indexing_maps = [#map, #map1, #map], iterator_types = ["parallel", "parallel"]} ins(%3, %cst_6 : tensor<1x2xf32>, tensor<1xf32>) outs(%4 : tensor<1x2xf32>) {
    ^bb0(%in: f32, %in_8: f32, %out: f32):
      %26 = arith.mulf %in, %in_8 : f32
      linalg.yield %26 : f32
    } -> tensor<1x2xf32>
    %6 = tensor.empty() : tensor<1xf32>
    %7 = linalg.fill ins(%cst_5 : f32) outs(%6 : tensor<1xf32>) -> tensor<1xf32>
    %8 = linalg.generic {indexing_maps = [#map, #map1], iterator_types = ["parallel", "reduction"]} ins(%5 : tensor<1x2xf32>) outs(%7 : tensor<1xf32>) {
    ^bb0(%in: f32, %out: f32):
      %26 = arith.maxf %in, %out : f32
      linalg.yield %26 : f32
    } -> tensor<1xf32>
    %9 = tensor.empty() : tensor<1x2xf32>
    %10 = linalg.generic {indexing_maps = [#map, #map1, #map], iterator_types = ["parallel", "parallel"]} ins(%5, %8 : tensor<1x2xf32>, tensor<1xf32>) outs(%9 : tensor<1x2xf32>) {
    ^bb0(%in: f32, %in_8: f32, %out: f32):
      %26 = arith.subf %in, %in_8 : f32
      linalg.yield %26 : f32
    } -> tensor<1x2xf32>
    %11 = tensor.empty() : tensor<1x2xf32>
    %12 = linalg.generic {indexing_maps = [#map, #map], iterator_types = ["parallel", "parallel"]} ins(%10 : tensor<1x2xf32>) outs(%11 : tensor<1x2xf32>) {
    ^bb0(%in: f32, %out: f32):
      %26 = math.exp %in : f32
      linalg.yield %26 : f32
    } -> tensor<1x2xf32>
    %13 = tensor.empty() : tensor<1xf32>
    %14 = linalg.fill ins(%cst_4 : f32) outs(%13 : tensor<1xf32>) -> tensor<1xf32>
    %15 = linalg.generic {indexing_maps = [#map, #map1], iterator_types = ["parallel", "reduction"]} ins(%12 : tensor<1x2xf32>) outs(%14 : tensor<1xf32>) {
    ^bb0(%in: f32, %out: f32):
      %26 = arith.addf %in, %out : f32
      linalg.yield %26 : f32
    } -> tensor<1xf32>
    %expanded = tensor.expand_shape %15 [[0, 1]] : tensor<1xf32> into tensor<1x1xf32>
    %16 = tensor.empty() : tensor<1x1xf32>
    %17 = linalg.generic {indexing_maps = [#map, #map], iterator_types = ["parallel", "parallel"]} ins(%expanded : tensor<1x1xf32>) outs(%16 : tensor<1x1xf32>) {
    ^bb0(%in: f32, %out: f32):
      %26 = arith.divf %cst_3, %in : f32
      linalg.yield %26 : f32
    } -> tensor<1x1xf32>
    %18 = tensor.empty() : tensor<1x2xf32>
    %collapsed = tensor.collapse_shape %17 [[0, 1]] : tensor<1x1xf32> into tensor<1xf32>
    %19 = linalg.generic {indexing_maps = [#map, #map1, #map], iterator_types = ["parallel", "parallel"]} ins(%12, %collapsed : tensor<1x2xf32>, tensor<1xf32>) outs(%18 : tensor<1x2xf32>) {
    ^bb0(%in: f32, %in_8: f32, %out: f32):
      %26 = arith.mulf %in, %in_8 : f32
      linalg.yield %26 : f32
    } -> tensor<1x2xf32>
    %20 = tensor.empty() : tensor<1x2xf32>
    %21 = linalg.generic {indexing_maps = [#map, #map1, #map], iterator_types = ["parallel", "parallel"]} ins(%19, %cst_2 : tensor<1x2xf32>, tensor<1xf32>) outs(%20 : tensor<1x2xf32>) {
    ^bb0(%in: f32, %in_8: f32, %out: f32):
      %26 = arith.mulf %in, %in_8 : f32
      linalg.yield %26 : f32
    } -> tensor<1x2xf32>
    %22 = tensor.empty() : tensor<1x2xf32>
    %23 = linalg.generic {indexing_maps = [#map, #map1, #map], iterator_types = ["parallel", "parallel"]} ins(%21, %cst_1 : tensor<1x2xf32>, tensor<1xf32>) outs(%22 : tensor<1x2xf32>) {
    ^bb0(%in: f32, %in_8: f32, %out: f32):
      %26 = arith.addf %in, %in_8 : f32
      linalg.yield %26 : f32
    } -> tensor<1x2xf32>
    %24 = tensor.empty() : tensor<1x2xi8>
    %25 = linalg.generic {indexing_maps = [#map, #map], iterator_types = ["parallel", "parallel"]} ins(%23 : tensor<1x2xf32>) outs(%24 : tensor<1x2xi8>) {
    ^bb0(%in: f32, %out: i8):
      %26 = math.roundeven %in : f32
      %27 = arith.minf %26, %cst : f32
      %28 = arith.maxf %27, %cst_0 : f32
      %29 = arith.fptosi %28 : f32 to i8
      linalg.yield %29 : i8
    } -> tensor<1x2xi8>
    return %25 : tensor<1x2xi8>
  }
}


// -----// IR Dump After ImportMLProgram (iree-import-ml-program) //----- //
#executable_target_static = #hal.executable.target<"llvm-cpu", "static", {cpu = "generic-rv32", cpu_features = "+m", data_layout = "e-m:e-p:32:32-i64:64-n32-S128", native_vector_size = 16 : index, target_triple = "riscv32-pc-linux-elf", ukernels = false}>
#map = affine_map<(d0, d1) -> (d0, d1)>
#map1 = affine_map<(d0, d1) -> (d0)>
#device_target_llvm_cpu = #hal.device.target<"llvm-cpu", {executable_targets = [#executable_target_static]}>
module attributes {hal.device.targets = [#device_target_llvm_cpu]} {
  func.func @main(%arg0: tensor<1x2xi8> {ml_program.identifier = "MobilenetV1/Logits/SpatialSqueeze"}) -> (tensor<1x2xi8> {ml_program.identifier = "MobilenetV1/Predictions/Reshape_1"}) {
    %cst = arith.constant 1.270000e+02 : f32
    %cst_0 = arith.constant -1.280000e+02 : f32
    %cst_1 = arith.constant dense<-1.280000e+02> : tensor<1xf32>
    %cst_2 = arith.constant dense<2.560000e+02> : tensor<1xf32>
    %cst_3 = arith.constant 1.000000e+00 : f32
    %cst_4 = arith.constant 0.000000e+00 : f32
    %cst_5 = arith.constant -3.40282347E+38 : f32
    %cst_6 = arith.constant dense<0.0125187514> : tensor<1xf32>
    %cst_7 = arith.constant dense<-1.000000e+00> : tensor<1xf32>
    %0 = tensor.empty() : tensor<1x2xf32>
    %1 = linalg.generic {indexing_maps = [#map, #map], iterator_types = ["parallel", "parallel"]} ins(%arg0 : tensor<1x2xi8>) outs(%0 : tensor<1x2xf32>) {
    ^bb0(%in: i8, %out: f32):
      %26 = arith.sitofp %in : i8 to f32
      linalg.yield %26 : f32
    } -> tensor<1x2xf32>
    %2 = tensor.empty() : tensor<1x2xf32>
    %3 = linalg.generic {indexing_maps = [#map, #map1, #map], iterator_types = ["parallel", "parallel"]} ins(%1, %cst_7 : tensor<1x2xf32>, tensor<1xf32>) outs(%2 : tensor<1x2xf32>) {
    ^bb0(%in: f32, %in_8: f32, %out: f32):
      %26 = arith.subf %in, %in_8 : f32
      linalg.yield %26 : f32
    } -> tensor<1x2xf32>
    %4 = tensor.empty() : tensor<1x2xf32>
    %5 = linalg.generic {indexing_maps = [#map, #map1, #map], iterator_types = ["parallel", "parallel"]} ins(%3, %cst_6 : tensor<1x2xf32>, tensor<1xf32>) outs(%4 : tensor<1x2xf32>) {
    ^bb0(%in: f32, %in_8: f32, %out: f32):
      %26 = arith.mulf %in, %in_8 : f32
      linalg.yield %26 : f32
    } -> tensor<1x2xf32>
    %6 = tensor.empty() : tensor<1xf32>
    %7 = linalg.fill ins(%cst_5 : f32) outs(%6 : tensor<1xf32>) -> tensor<1xf32>
    %8 = linalg.generic {indexing_maps = [#map, #map1], iterator_types = ["parallel", "reduction"]} ins(%5 : tensor<1x2xf32>) outs(%7 : tensor<1xf32>) {
    ^bb0(%in: f32, %out: f32):
      %26 = arith.maxf %in, %out : f32
      linalg.yield %26 : f32
    } -> tensor<1xf32>
    %9 = tensor.empty() : tensor<1x2xf32>
    %10 = linalg.generic {indexing_maps = [#map, #map1, #map], iterator_types = ["parallel", "parallel"]} ins(%5, %8 : tensor<1x2xf32>, tensor<1xf32>) outs(%9 : tensor<1x2xf32>) {
    ^bb0(%in: f32, %in_8: f32, %out: f32):
      %26 = arith.subf %in, %in_8 : f32
      linalg.yield %26 : f32
    } -> tensor<1x2xf32>
    %11 = tensor.empty() : tensor<1x2xf32>
    %12 = linalg.generic {indexing_maps = [#map, #map], iterator_types = ["parallel", "parallel"]} ins(%10 : tensor<1x2xf32>) outs(%11 : tensor<1x2xf32>) {
    ^bb0(%in: f32, %out: f32):
      %26 = math.exp %in : f32
      linalg.yield %26 : f32
    } -> tensor<1x2xf32>
    %13 = tensor.empty() : tensor<1xf32>
    %14 = linalg.fill ins(%cst_4 : f32) outs(%13 : tensor<1xf32>) -> tensor<1xf32>
    %15 = linalg.generic {indexing_maps = [#map, #map1], iterator_types = ["parallel", "reduction"]} ins(%12 : tensor<1x2xf32>) outs(%14 : tensor<1xf32>) {
    ^bb0(%in: f32, %out: f32):
      %26 = arith.addf %in, %out : f32
      linalg.yield %26 : f32
    } -> tensor<1xf32>
    %expanded = tensor.expand_shape %15 [[0, 1]] : tensor<1xf32> into tensor<1x1xf32>
    %16 = tensor.empty() : tensor<1x1xf32>
    %17 = linalg.generic {indexing_maps = [#map, #map], iterator_types = ["parallel", "parallel"]} ins(%expanded : tensor<1x1xf32>) outs(%16 : tensor<1x1xf32>) {
    ^bb0(%in: f32, %out: f32):
      %26 = arith.divf %cst_3, %in : f32
      linalg.yield %26 : f32
    } -> tensor<1x1xf32>
    %18 = tensor.empty() : tensor<1x2xf32>
    %collapsed = tensor.collapse_shape %17 [[0, 1]] : tensor<1x1xf32> into tensor<1xf32>
    %19 = linalg.generic {indexing_maps = [#map, #map1, #map], iterator_types = ["parallel", "parallel"]} ins(%12, %collapsed : tensor<1x2xf32>, tensor<1xf32>) outs(%18 : tensor<1x2xf32>) {
    ^bb0(%in: f32, %in_8: f32, %out: f32):
      %26 = arith.mulf %in, %in_8 : f32
      linalg.yield %26 : f32
    } -> tensor<1x2xf32>
    %20 = tensor.empty() : tensor<1x2xf32>
    %21 = linalg.generic {indexing_maps = [#map, #map1, #map], iterator_types = ["parallel", "parallel"]} ins(%19, %cst_2 : tensor<1x2xf32>, tensor<1xf32>) outs(%20 : tensor<1x2xf32>) {
    ^bb0(%in: f32, %in_8: f32, %out: f32):
      %26 = arith.mulf %in, %in_8 : f32
      linalg.yield %26 : f32
    } -> tensor<1x2xf32>
    %22 = tensor.empty() : tensor<1x2xf32>
    %23 = linalg.generic {indexing_maps = [#map, #map1, #map], iterator_types = ["parallel", "parallel"]} ins(%21, %cst_1 : tensor<1x2xf32>, tensor<1xf32>) outs(%22 : tensor<1x2xf32>) {
    ^bb0(%in: f32, %in_8: f32, %out: f32):
      %26 = arith.addf %in, %in_8 : f32
      linalg.yield %26 : f32
    } -> tensor<1x2xf32>
    %24 = tensor.empty() : tensor<1x2xi8>
    %25 = linalg.generic {indexing_maps = [#map, #map], iterator_types = ["parallel", "parallel"]} ins(%23 : tensor<1x2xf32>) outs(%24 : tensor<1x2xi8>) {
    ^bb0(%in: f32, %out: i8):
      %26 = math.roundeven %in : f32
      %27 = arith.minf %26, %cst : f32
      %28 = arith.maxf %27, %cst_0 : f32
      %29 = arith.fptosi %28 : f32 to i8
      linalg.yield %29 : i8
    } -> tensor<1x2xi8>
    return %25 : tensor<1x2xi8>
  }
}


// -----// IR Dump After SanitizeModuleNames (iree-sanitize-module-names) //----- //
#executable_target_static = #hal.executable.target<"llvm-cpu", "static", {cpu = "generic-rv32", cpu_features = "+m", data_layout = "e-m:e-p:32:32-i64:64-n32-S128", native_vector_size = 16 : index, target_triple = "riscv32-pc-linux-elf", ukernels = false}>
#map = affine_map<(d0, d1) -> (d0, d1)>
#map1 = affine_map<(d0, d1) -> (d0)>
#device_target_llvm_cpu = #hal.device.target<"llvm-cpu", {executable_targets = [#executable_target_static]}>
module attributes {hal.device.targets = [#device_target_llvm_cpu]} {
  func.func @main(%arg0: tensor<1x2xi8> {ml_program.identifier = "MobilenetV1/Logits/SpatialSqueeze"}) -> (tensor<1x2xi8> {ml_program.identifier = "MobilenetV1/Predictions/Reshape_1"}) {
    %cst = arith.constant 1.270000e+02 : f32
    %cst_0 = arith.constant -1.280000e+02 : f32
    %cst_1 = arith.constant dense<-1.280000e+02> : tensor<1xf32>
    %cst_2 = arith.constant dense<2.560000e+02> : tensor<1xf32>
    %cst_3 = arith.constant 1.000000e+00 : f32
    %cst_4 = arith.constant 0.000000e+00 : f32
    %cst_5 = arith.constant -3.40282347E+38 : f32
    %cst_6 = arith.constant dense<0.0125187514> : tensor<1xf32>
    %cst_7 = arith.constant dense<-1.000000e+00> : tensor<1xf32>
    %0 = tensor.empty() : tensor<1x2xf32>
    %1 = linalg.generic {indexing_maps = [#map, #map], iterator_types = ["parallel", "parallel"]} ins(%arg0 : tensor<1x2xi8>) outs(%0 : tensor<1x2xf32>) {
    ^bb0(%in: i8, %out: f32):
      %26 = arith.sitofp %in : i8 to f32
      linalg.yield %26 : f32
    } -> tensor<1x2xf32>
    %2 = tensor.empty() : tensor<1x2xf32>
    %3 = linalg.generic {indexing_maps = [#map, #map1, #map], iterator_types = ["parallel", "parallel"]} ins(%1, %cst_7 : tensor<1x2xf32>, tensor<1xf32>) outs(%2 : tensor<1x2xf32>) {
    ^bb0(%in: f32, %in_8: f32, %out: f32):
      %26 = arith.subf %in, %in_8 : f32
      linalg.yield %26 : f32
    } -> tensor<1x2xf32>
    %4 = tensor.empty() : tensor<1x2xf32>
    %5 = linalg.generic {indexing_maps = [#map, #map1, #map], iterator_types = ["parallel", "parallel"]} ins(%3, %cst_6 : tensor<1x2xf32>, tensor<1xf32>) outs(%4 : tensor<1x2xf32>) {
    ^bb0(%in: f32, %in_8: f32, %out: f32):
      %26 = arith.mulf %in, %in_8 : f32
      linalg.yield %26 : f32
    } -> tensor<1x2xf32>
    %6 = tensor.empty() : tensor<1xf32>
    %7 = linalg.fill ins(%cst_5 : f32) outs(%6 : tensor<1xf32>) -> tensor<1xf32>
    %8 = linalg.generic {indexing_maps = [#map, #map1], iterator_types = ["parallel", "reduction"]} ins(%5 : tensor<1x2xf32>) outs(%7 : tensor<1xf32>) {
    ^bb0(%in: f32, %out: f32):
      %26 = arith.maxf %in, %out : f32
      linalg.yield %26 : f32
    } -> tensor<1xf32>
    %9 = tensor.empty() : tensor<1x2xf32>
    %10 = linalg.generic {indexing_maps = [#map, #map1, #map], iterator_types = ["parallel", "parallel"]} ins(%5, %8 : tensor<1x2xf32>, tensor<1xf32>) outs(%9 : tensor<1x2xf32>) {
    ^bb0(%in: f32, %in_8: f32, %out: f32):
      %26 = arith.subf %in, %in_8 : f32
      linalg.yield %26 : f32
    } -> tensor<1x2xf32>
    %11 = tensor.empty() : tensor<1x2xf32>
    %12 = linalg.generic {indexing_maps = [#map, #map], iterator_types = ["parallel", "parallel"]} ins(%10 : tensor<1x2xf32>) outs(%11 : tensor<1x2xf32>) {
    ^bb0(%in: f32, %out: f32):
      %26 = math.exp %in : f32
      linalg.yield %26 : f32
    } -> tensor<1x2xf32>
    %13 = tensor.empty() : tensor<1xf32>
    %14 = linalg.fill ins(%cst_4 : f32) outs(%13 : tensor<1xf32>) -> tensor<1xf32>
    %15 = linalg.generic {indexing_maps = [#map, #map1], iterator_types = ["parallel", "reduction"]} ins(%12 : tensor<1x2xf32>) outs(%14 : tensor<1xf32>) {
    ^bb0(%in: f32, %out: f32):
      %26 = arith.addf %in, %out : f32
      linalg.yield %26 : f32
    } -> tensor<1xf32>
    %expanded = tensor.expand_shape %15 [[0, 1]] : tensor<1xf32> into tensor<1x1xf32>
    %16 = tensor.empty() : tensor<1x1xf32>
    %17 = linalg.generic {indexing_maps = [#map, #map], iterator_types = ["parallel", "parallel"]} ins(%expanded : tensor<1x1xf32>) outs(%16 : tensor<1x1xf32>) {
    ^bb0(%in: f32, %out: f32):
      %26 = arith.divf %cst_3, %in : f32
      linalg.yield %26 : f32
    } -> tensor<1x1xf32>
    %18 = tensor.empty() : tensor<1x2xf32>
    %collapsed = tensor.collapse_shape %17 [[0, 1]] : tensor<1x1xf32> into tensor<1xf32>
    %19 = linalg.generic {indexing_maps = [#map, #map1, #map], iterator_types = ["parallel", "parallel"]} ins(%12, %collapsed : tensor<1x2xf32>, tensor<1xf32>) outs(%18 : tensor<1x2xf32>) {
    ^bb0(%in: f32, %in_8: f32, %out: f32):
      %26 = arith.mulf %in, %in_8 : f32
      linalg.yield %26 : f32
    } -> tensor<1x2xf32>
    %20 = tensor.empty() : tensor<1x2xf32>
    %21 = linalg.generic {indexing_maps = [#map, #map1, #map], iterator_types = ["parallel", "parallel"]} ins(%19, %cst_2 : tensor<1x2xf32>, tensor<1xf32>) outs(%20 : tensor<1x2xf32>) {
    ^bb0(%in: f32, %in_8: f32, %out: f32):
      %26 = arith.mulf %in, %in_8 : f32
      linalg.yield %26 : f32
    } -> tensor<1x2xf32>
    %22 = tensor.empty() : tensor<1x2xf32>
    %23 = linalg.generic {indexing_maps = [#map, #map1, #map], iterator_types = ["parallel", "parallel"]} ins(%21, %cst_1 : tensor<1x2xf32>, tensor<1xf32>) outs(%22 : tensor<1x2xf32>) {
    ^bb0(%in: f32, %in_8: f32, %out: f32):
      %26 = arith.addf %in, %in_8 : f32
      linalg.yield %26 : f32
    } -> tensor<1x2xf32>
    %24 = tensor.empty() : tensor<1x2xi8>
    %25 = linalg.generic {indexing_maps = [#map, #map], iterator_types = ["parallel", "parallel"]} ins(%23 : tensor<1x2xf32>) outs(%24 : tensor<1x2xi8>) {
    ^bb0(%in: f32, %out: i8):
      %26 = math.roundeven %in : f32
      %27 = arith.minf %26, %cst : f32
      %28 = arith.maxf %27, %cst_0 : f32
      %29 = arith.fptosi %28 : f32 to i8
      linalg.yield %29 : i8
    } -> tensor<1x2xi8>
    return %25 : tensor<1x2xi8>
  }
}


// -----// IR Dump After mlir::iree_compiler::IREE::ABI::ConvertStreamableOpsPass (iree-abi-convert-streamable-ops) //----- //
#executable_target_static = #hal.executable.target<"llvm-cpu", "static", {cpu = "generic-rv32", cpu_features = "+m", data_layout = "e-m:e-p:32:32-i64:64-n32-S128", native_vector_size = 16 : index, target_triple = "riscv32-pc-linux-elf", ukernels = false}>
#map = affine_map<(d0, d1) -> (d0, d1)>
#map1 = affine_map<(d0, d1) -> (d0)>
#device_target_llvm_cpu = #hal.device.target<"llvm-cpu", {executable_targets = [#executable_target_static]}>
module attributes {hal.device.targets = [#device_target_llvm_cpu]} {
  func.func @main(%arg0: tensor<1x2xi8> {ml_program.identifier = "MobilenetV1/Logits/SpatialSqueeze"}) -> (tensor<1x2xi8> {ml_program.identifier = "MobilenetV1/Predictions/Reshape_1"}) {
    %cst = arith.constant 1.270000e+02 : f32
    %cst_0 = arith.constant -1.280000e+02 : f32
    %cst_1 = arith.constant dense<-1.280000e+02> : tensor<1xf32>
    %cst_2 = arith.constant dense<2.560000e+02> : tensor<1xf32>
    %cst_3 = arith.constant 1.000000e+00 : f32
    %cst_4 = arith.constant 0.000000e+00 : f32
    %cst_5 = arith.constant -3.40282347E+38 : f32
    %cst_6 = arith.constant dense<0.0125187514> : tensor<1xf32>
    %cst_7 = arith.constant dense<-1.000000e+00> : tensor<1xf32>
    %0 = tensor.empty() : tensor<1x2xf32>
    %1 = linalg.generic {indexing_maps = [#map, #map], iterator_types = ["parallel", "parallel"]} ins(%arg0 : tensor<1x2xi8>) outs(%0 : tensor<1x2xf32>) {
    ^bb0(%in: i8, %out: f32):
      %26 = arith.sitofp %in : i8 to f32
      linalg.yield %26 : f32
    } -> tensor<1x2xf32>
    %2 = tensor.empty() : tensor<1x2xf32>
    %3 = linalg.generic {indexing_maps = [#map, #map1, #map], iterator_types = ["parallel", "parallel"]} ins(%1, %cst_7 : tensor<1x2xf32>, tensor<1xf32>) outs(%2 : tensor<1x2xf32>) {
    ^bb0(%in: f32, %in_8: f32, %out: f32):
      %26 = arith.subf %in, %in_8 : f32
      linalg.yield %26 : f32
    } -> tensor<1x2xf32>
    %4 = tensor.empty() : tensor<1x2xf32>
    %5 = linalg.generic {indexing_maps = [#map, #map1, #map], iterator_types = ["parallel", "parallel"]} ins(%3, %cst_6 : tensor<1x2xf32>, tensor<1xf32>) outs(%4 : tensor<1x2xf32>) {
    ^bb0(%in: f32, %in_8: f32, %out: f32):
      %26 = arith.mulf %in, %in_8 : f32
      linalg.yield %26 : f32
    } -> tensor<1x2xf32>
    %6 = tensor.empty() : tensor<1xf32>
    %7 = linalg.fill ins(%cst_5 : f32) outs(%6 : tensor<1xf32>) -> tensor<1xf32>
    %8 = linalg.generic {indexing_maps = [#map, #map1], iterator_types = ["parallel", "reduction"]} ins(%5 : tensor<1x2xf32>) outs(%7 : tensor<1xf32>) {
    ^bb0(%in: f32, %out: f32):
      %26 = arith.maxf %in, %out : f32
      linalg.yield %26 : f32
    } -> tensor<1xf32>
    %9 = tensor.empty() : tensor<1x2xf32>
    %10 = linalg.generic {indexing_maps = [#map, #map1, #map], iterator_types = ["parallel", "parallel"]} ins(%5, %8 : tensor<1x2xf32>, tensor<1xf32>) outs(%9 : tensor<1x2xf32>) {
    ^bb0(%in: f32, %in_8: f32, %out: f32):
      %26 = arith.subf %in, %in_8 : f32
      linalg.yield %26 : f32
    } -> tensor<1x2xf32>
    %11 = tensor.empty() : tensor<1x2xf32>
    %12 = linalg.generic {indexing_maps = [#map, #map], iterator_types = ["parallel", "parallel"]} ins(%10 : tensor<1x2xf32>) outs(%11 : tensor<1x2xf32>) {
    ^bb0(%in: f32, %out: f32):
      %26 = math.exp %in : f32
      linalg.yield %26 : f32
    } -> tensor<1x2xf32>
    %13 = tensor.empty() : tensor<1xf32>
    %14 = linalg.fill ins(%cst_4 : f32) outs(%13 : tensor<1xf32>) -> tensor<1xf32>
    %15 = linalg.generic {indexing_maps = [#map, #map1], iterator_types = ["parallel", "reduction"]} ins(%12 : tensor<1x2xf32>) outs(%14 : tensor<1xf32>) {
    ^bb0(%in: f32, %out: f32):
      %26 = arith.addf %in, %out : f32
      linalg.yield %26 : f32
    } -> tensor<1xf32>
    %expanded = tensor.expand_shape %15 [[0, 1]] : tensor<1xf32> into tensor<1x1xf32>
    %16 = tensor.empty() : tensor<1x1xf32>
    %17 = linalg.generic {indexing_maps = [#map, #map], iterator_types = ["parallel", "parallel"]} ins(%expanded : tensor<1x1xf32>) outs(%16 : tensor<1x1xf32>) {
    ^bb0(%in: f32, %out: f32):
      %26 = arith.divf %cst_3, %in : f32
      linalg.yield %26 : f32
    } -> tensor<1x1xf32>
    %18 = tensor.empty() : tensor<1x2xf32>
    %collapsed = tensor.collapse_shape %17 [[0, 1]] : tensor<1x1xf32> into tensor<1xf32>
    %19 = linalg.generic {indexing_maps = [#map, #map1, #map], iterator_types = ["parallel", "parallel"]} ins(%12, %collapsed : tensor<1x2xf32>, tensor<1xf32>) outs(%18 : tensor<1x2xf32>) {
    ^bb0(%in: f32, %in_8: f32, %out: f32):
      %26 = arith.mulf %in, %in_8 : f32
      linalg.yield %26 : f32
    } -> tensor<1x2xf32>
    %20 = tensor.empty() : tensor<1x2xf32>
    %21 = linalg.generic {indexing_maps = [#map, #map1, #map], iterator_types = ["parallel", "parallel"]} ins(%19, %cst_2 : tensor<1x2xf32>, tensor<1xf32>) outs(%20 : tensor<1x2xf32>) {
    ^bb0(%in: f32, %in_8: f32, %out: f32):
      %26 = arith.mulf %in, %in_8 : f32
      linalg.yield %26 : f32
    } -> tensor<1x2xf32>
    %22 = tensor.empty() : tensor<1x2xf32>
    %23 = linalg.generic {indexing_maps = [#map, #map1, #map], iterator_types = ["parallel", "parallel"]} ins(%21, %cst_1 : tensor<1x2xf32>, tensor<1xf32>) outs(%22 : tensor<1x2xf32>) {
    ^bb0(%in: f32, %in_8: f32, %out: f32):
      %26 = arith.addf %in, %in_8 : f32
      linalg.yield %26 : f32
    } -> tensor<1x2xf32>
    %24 = tensor.empty() : tensor<1x2xi8>
    %25 = linalg.generic {indexing_maps = [#map, #map], iterator_types = ["parallel", "parallel"]} ins(%23 : tensor<1x2xf32>) outs(%24 : tensor<1x2xi8>) {
    ^bb0(%in: f32, %out: i8):
      %26 = math.roundeven %in : f32
      %27 = arith.minf %26, %cst : f32
      %28 = arith.maxf %27, %cst_0 : f32
      %29 = arith.fptosi %28 : f32 to i8
      linalg.yield %29 : i8
    } -> tensor<1x2xi8>
    return %25 : tensor<1x2xi8>
  }
}


// -----// IR Dump After mlir::iree_compiler::IREE::ABI::WrapEntryPointsPass (iree-abi-wrap-entry-points) //----- //
#executable_target_static = #hal.executable.target<"llvm-cpu", "static", {cpu = "generic-rv32", cpu_features = "+m", data_layout = "e-m:e-p:32:32-i64:64-n32-S128", native_vector_size = 16 : index, target_triple = "riscv32-pc-linux-elf", ukernels = false}>
#map = affine_map<(d0, d1) -> (d0, d1)>
#map1 = affine_map<(d0, d1) -> (d0)>
#device_target_llvm_cpu = #hal.device.target<"llvm-cpu", {executable_targets = [#executable_target_static]}>
module attributes {hal.device.targets = [#device_target_llvm_cpu]} {
  func.func @main(%arg0: !hal.buffer_view {ml_program.identifier = "MobilenetV1/Logits/SpatialSqueeze"}) -> (!hal.buffer_view {ml_program.identifier = "MobilenetV1/Predictions/Reshape_1"}) attributes {iree.abi.stub} {
    %0 = hal.tensor.import %arg0 "input 0" : !hal.buffer_view -> tensor<1x2xi8>
    %1 = call @_main(%0) : (tensor<1x2xi8>) -> tensor<1x2xi8>
    %2 = hal.tensor.export %1 "output 0" : tensor<1x2xi8> -> !hal.buffer_view
    return %2 : !hal.buffer_view
  }
  func.func private @_main(%arg0: tensor<1x2xi8> {ml_program.identifier = "MobilenetV1/Logits/SpatialSqueeze"}) -> (tensor<1x2xi8> {ml_program.identifier = "MobilenetV1/Predictions/Reshape_1"}) {
    %cst = arith.constant 1.270000e+02 : f32
    %cst_0 = arith.constant -1.280000e+02 : f32
    %cst_1 = arith.constant dense<-1.280000e+02> : tensor<1xf32>
    %cst_2 = arith.constant dense<2.560000e+02> : tensor<1xf32>
    %cst_3 = arith.constant 1.000000e+00 : f32
    %cst_4 = arith.constant 0.000000e+00 : f32
    %cst_5 = arith.constant -3.40282347E+38 : f32
    %cst_6 = arith.constant dense<0.0125187514> : tensor<1xf32>
    %cst_7 = arith.constant dense<-1.000000e+00> : tensor<1xf32>
    %0 = tensor.empty() : tensor<1x2xf32>
    %1 = linalg.generic {indexing_maps = [#map, #map], iterator_types = ["parallel", "parallel"]} ins(%arg0 : tensor<1x2xi8>) outs(%0 : tensor<1x2xf32>) {
    ^bb0(%in: i8, %out: f32):
      %26 = arith.sitofp %in : i8 to f32
      linalg.yield %26 : f32
    } -> tensor<1x2xf32>
    %2 = tensor.empty() : tensor<1x2xf32>
    %3 = linalg.generic {indexing_maps = [#map, #map1, #map], iterator_types = ["parallel", "parallel"]} ins(%1, %cst_7 : tensor<1x2xf32>, tensor<1xf32>) outs(%2 : tensor<1x2xf32>) {
    ^bb0(%in: f32, %in_8: f32, %out: f32):
      %26 = arith.subf %in, %in_8 : f32
      linalg.yield %26 : f32
    } -> tensor<1x2xf32>
    %4 = tensor.empty() : tensor<1x2xf32>
    %5 = linalg.generic {indexing_maps = [#map, #map1, #map], iterator_types = ["parallel", "parallel"]} ins(%3, %cst_6 : tensor<1x2xf32>, tensor<1xf32>) outs(%4 : tensor<1x2xf32>) {
    ^bb0(%in: f32, %in_8: f32, %out: f32):
      %26 = arith.mulf %in, %in_8 : f32
      linalg.yield %26 : f32
    } -> tensor<1x2xf32>
    %6 = tensor.empty() : tensor<1xf32>
    %7 = linalg.fill ins(%cst_5 : f32) outs(%6 : tensor<1xf32>) -> tensor<1xf32>
    %8 = linalg.generic {indexing_maps = [#map, #map1], iterator_types = ["parallel", "reduction"]} ins(%5 : tensor<1x2xf32>) outs(%7 : tensor<1xf32>) {
    ^bb0(%in: f32, %out: f32):
      %26 = arith.maxf %in, %out : f32
      linalg.yield %26 : f32
    } -> tensor<1xf32>
    %9 = tensor.empty() : tensor<1x2xf32>
    %10 = linalg.generic {indexing_maps = [#map, #map1, #map], iterator_types = ["parallel", "parallel"]} ins(%5, %8 : tensor<1x2xf32>, tensor<1xf32>) outs(%9 : tensor<1x2xf32>) {
    ^bb0(%in: f32, %in_8: f32, %out: f32):
      %26 = arith.subf %in, %in_8 : f32
      linalg.yield %26 : f32
    } -> tensor<1x2xf32>
    %11 = tensor.empty() : tensor<1x2xf32>
    %12 = linalg.generic {indexing_maps = [#map, #map], iterator_types = ["parallel", "parallel"]} ins(%10 : tensor<1x2xf32>) outs(%11 : tensor<1x2xf32>) {
    ^bb0(%in: f32, %out: f32):
      %26 = math.exp %in : f32
      linalg.yield %26 : f32
    } -> tensor<1x2xf32>
    %13 = tensor.empty() : tensor<1xf32>
    %14 = linalg.fill ins(%cst_4 : f32) outs(%13 : tensor<1xf32>) -> tensor<1xf32>
    %15 = linalg.generic {indexing_maps = [#map, #map1], iterator_types = ["parallel", "reduction"]} ins(%12 : tensor<1x2xf32>) outs(%14 : tensor<1xf32>) {
    ^bb0(%in: f32, %out: f32):
      %26 = arith.addf %in, %out : f32
      linalg.yield %26 : f32
    } -> tensor<1xf32>
    %expanded = tensor.expand_shape %15 [[0, 1]] : tensor<1xf32> into tensor<1x1xf32>
    %16 = tensor.empty() : tensor<1x1xf32>
    %17 = linalg.generic {indexing_maps = [#map, #map], iterator_types = ["parallel", "parallel"]} ins(%expanded : tensor<1x1xf32>) outs(%16 : tensor<1x1xf32>) {
    ^bb0(%in: f32, %out: f32):
      %26 = arith.divf %cst_3, %in : f32
      linalg.yield %26 : f32
    } -> tensor<1x1xf32>
    %18 = tensor.empty() : tensor<1x2xf32>
    %collapsed = tensor.collapse_shape %17 [[0, 1]] : tensor<1x1xf32> into tensor<1xf32>
    %19 = linalg.generic {indexing_maps = [#map, #map1, #map], iterator_types = ["parallel", "parallel"]} ins(%12, %collapsed : tensor<1x2xf32>, tensor<1xf32>) outs(%18 : tensor<1x2xf32>) {
    ^bb0(%in: f32, %in_8: f32, %out: f32):
      %26 = arith.mulf %in, %in_8 : f32
      linalg.yield %26 : f32
    } -> tensor<1x2xf32>
    %20 = tensor.empty() : tensor<1x2xf32>
    %21 = linalg.generic {indexing_maps = [#map, #map1, #map], iterator_types = ["parallel", "parallel"]} ins(%19, %cst_2 : tensor<1x2xf32>, tensor<1xf32>) outs(%20 : tensor<1x2xf32>) {
    ^bb0(%in: f32, %in_8: f32, %out: f32):
      %26 = arith.mulf %in, %in_8 : f32
      linalg.yield %26 : f32
    } -> tensor<1x2xf32>
    %22 = tensor.empty() : tensor<1x2xf32>
    %23 = linalg.generic {indexing_maps = [#map, #map1, #map], iterator_types = ["parallel", "parallel"]} ins(%21, %cst_1 : tensor<1x2xf32>, tensor<1xf32>) outs(%22 : tensor<1x2xf32>) {
    ^bb0(%in: f32, %in_8: f32, %out: f32):
      %26 = arith.addf %in, %in_8 : f32
      linalg.yield %26 : f32
    } -> tensor<1x2xf32>
    %24 = tensor.empty() : tensor<1x2xi8>
    %25 = linalg.generic {indexing_maps = [#map, #map], iterator_types = ["parallel", "parallel"]} ins(%23 : tensor<1x2xf32>) outs(%24 : tensor<1x2xi8>) {
    ^bb0(%in: f32, %out: i8):
      %26 = math.roundeven %in : f32
      %27 = arith.minf %26, %cst : f32
      %28 = arith.maxf %27, %cst_0 : f32
      %29 = arith.fptosi %28 : f32 to i8
      linalg.yield %29 : i8
    } -> tensor<1x2xi8>
    return %25 : tensor<1x2xi8>
  }
}


// -----// IR Dump After Canonicalizer (canonicalize) //----- //
func.func private @_main(%arg0: tensor<1x2xi8> {ml_program.identifier = "MobilenetV1/Logits/SpatialSqueeze"}) -> (tensor<1x2xi8> {ml_program.identifier = "MobilenetV1/Predictions/Reshape_1"}) {
  %cst = arith.constant 1.270000e+02 : f32
  %cst_0 = arith.constant -1.280000e+02 : f32
  %cst_1 = arith.constant dense<-1.280000e+02> : tensor<1xf32>
  %cst_2 = arith.constant dense<2.560000e+02> : tensor<1xf32>
  %cst_3 = arith.constant 1.000000e+00 : f32
  %cst_4 = arith.constant 0.000000e+00 : f32
  %cst_5 = arith.constant -3.40282347E+38 : f32
  %cst_6 = arith.constant dense<0.0125187514> : tensor<1xf32>
  %cst_7 = arith.constant dense<-1.000000e+00> : tensor<1xf32>
  %0 = tensor.empty() : tensor<1x2xf32>
  %1 = linalg.generic {indexing_maps = [affine_map<(d0, d1) -> (d0, d1)>, affine_map<(d0, d1) -> (d0, d1)>], iterator_types = ["parallel", "parallel"]} ins(%arg0 : tensor<1x2xi8>) outs(%0 : tensor<1x2xf32>) {
  ^bb0(%in: i8, %out: f32):
    %26 = arith.sitofp %in : i8 to f32
    linalg.yield %26 : f32
  } -> tensor<1x2xf32>
  %2 = tensor.empty() : tensor<1x2xf32>
  %3 = linalg.generic {indexing_maps = [affine_map<(d0, d1) -> (d0, d1)>, affine_map<(d0, d1) -> (d0)>, affine_map<(d0, d1) -> (d0, d1)>], iterator_types = ["parallel", "parallel"]} ins(%1, %cst_7 : tensor<1x2xf32>, tensor<1xf32>) outs(%2 : tensor<1x2xf32>) {
  ^bb0(%in: f32, %in_8: f32, %out: f32):
    %26 = arith.subf %in, %in_8 : f32
    linalg.yield %26 : f32
  } -> tensor<1x2xf32>
  %4 = tensor.empty() : tensor<1x2xf32>
  %5 = linalg.generic {indexing_maps = [affine_map<(d0, d1) -> (d0, d1)>, affine_map<(d0, d1) -> (d0)>, affine_map<(d0, d1) -> (d0, d1)>], iterator_types = ["parallel", "parallel"]} ins(%3, %cst_6 : tensor<1x2xf32>, tensor<1xf32>) outs(%4 : tensor<1x2xf32>) {
  ^bb0(%in: f32, %in_8: f32, %out: f32):
    %26 = arith.mulf %in, %in_8 : f32
    linalg.yield %26 : f32
  } -> tensor<1x2xf32>
  %6 = tensor.empty() : tensor<1xf32>
  %7 = linalg.fill ins(%cst_5 : f32) outs(%6 : tensor<1xf32>) -> tensor<1xf32>
  %8 = linalg.generic {indexing_maps = [affine_map<(d0, d1) -> (d0, d1)>, affine_map<(d0, d1) -> (d0)>], iterator_types = ["parallel", "reduction"]} ins(%5 : tensor<1x2xf32>) outs(%7 : tensor<1xf32>) {
  ^bb0(%in: f32, %out: f32):
    %26 = arith.maxf %in, %out : f32
    linalg.yield %26 : f32
  } -> tensor<1xf32>
  %9 = tensor.empty() : tensor<1x2xf32>
  %10 = linalg.generic {indexing_maps = [affine_map<(d0, d1) -> (d0, d1)>, affine_map<(d0, d1) -> (d0)>, affine_map<(d0, d1) -> (d0, d1)>], iterator_types = ["parallel", "parallel"]} ins(%5, %8 : tensor<1x2xf32>, tensor<1xf32>) outs(%9 : tensor<1x2xf32>) {
  ^bb0(%in: f32, %in_8: f32, %out: f32):
    %26 = arith.subf %in, %in_8 : f32
    linalg.yield %26 : f32
  } -> tensor<1x2xf32>
  %11 = tensor.empty() : tensor<1x2xf32>
  %12 = linalg.generic {indexing_maps = [affine_map<(d0, d1) -> (d0, d1)>, affine_map<(d0, d1) -> (d0, d1)>], iterator_types = ["parallel", "parallel"]} ins(%10 : tensor<1x2xf32>) outs(%11 : tensor<1x2xf32>) {
  ^bb0(%in: f32, %out: f32):
    %26 = math.exp %in : f32
    linalg.yield %26 : f32
  } -> tensor<1x2xf32>
  %13 = tensor.empty() : tensor<1xf32>
  %14 = linalg.fill ins(%cst_4 : f32) outs(%13 : tensor<1xf32>) -> tensor<1xf32>
  %15 = linalg.generic {indexing_maps = [affine_map<(d0, d1) -> (d0, d1)>, affine_map<(d0, d1) -> (d0)>], iterator_types = ["parallel", "reduction"]} ins(%12 : tensor<1x2xf32>) outs(%14 : tensor<1xf32>) {
  ^bb0(%in: f32, %out: f32):
    %26 = arith.addf %in, %out : f32
    linalg.yield %26 : f32
  } -> tensor<1xf32>
  %expanded = tensor.expand_shape %15 [[0, 1]] : tensor<1xf32> into tensor<1x1xf32>
  %16 = tensor.empty() : tensor<1x1xf32>
  %17 = linalg.generic {indexing_maps = [affine_map<(d0, d1) -> (d0, d1)>, affine_map<(d0, d1) -> (d0, d1)>], iterator_types = ["parallel", "parallel"]} ins(%expanded : tensor<1x1xf32>) outs(%16 : tensor<1x1xf32>) {
  ^bb0(%in: f32, %out: f32):
    %26 = arith.divf %cst_3, %in : f32
    linalg.yield %26 : f32
  } -> tensor<1x1xf32>
  %18 = tensor.empty() : tensor<1x2xf32>
  %collapsed = tensor.collapse_shape %17 [[0, 1]] : tensor<1x1xf32> into tensor<1xf32>
  %19 = linalg.generic {indexing_maps = [affine_map<(d0, d1) -> (d0, d1)>, affine_map<(d0, d1) -> (d0)>, affine_map<(d0, d1) -> (d0, d1)>], iterator_types = ["parallel", "parallel"]} ins(%12, %collapsed : tensor<1x2xf32>, tensor<1xf32>) outs(%18 : tensor<1x2xf32>) {
  ^bb0(%in: f32, %in_8: f32, %out: f32):
    %26 = arith.mulf %in, %in_8 : f32
    linalg.yield %26 : f32
  } -> tensor<1x2xf32>
  %20 = tensor.empty() : tensor<1x2xf32>
  %21 = linalg.generic {indexing_maps = [affine_map<(d0, d1) -> (d0, d1)>, affine_map<(d0, d1) -> (d0)>, affine_map<(d0, d1) -> (d0, d1)>], iterator_types = ["parallel", "parallel"]} ins(%19, %cst_2 : tensor<1x2xf32>, tensor<1xf32>) outs(%20 : tensor<1x2xf32>) {
  ^bb0(%in: f32, %in_8: f32, %out: f32):
    %26 = arith.mulf %in, %in_8 : f32
    linalg.yield %26 : f32
  } -> tensor<1x2xf32>
  %22 = tensor.empty() : tensor<1x2xf32>
  %23 = linalg.generic {indexing_maps = [affine_map<(d0, d1) -> (d0, d1)>, affine_map<(d0, d1) -> (d0)>, affine_map<(d0, d1) -> (d0, d1)>], iterator_types = ["parallel", "parallel"]} ins(%21, %cst_1 : tensor<1x2xf32>, tensor<1xf32>) outs(%22 : tensor<1x2xf32>) {
  ^bb0(%in: f32, %in_8: f32, %out: f32):
    %26 = arith.addf %in, %in_8 : f32
    linalg.yield %26 : f32
  } -> tensor<1x2xf32>
  %24 = tensor.empty() : tensor<1x2xi8>
  %25 = linalg.generic {indexing_maps = [affine_map<(d0, d1) -> (d0, d1)>, affine_map<(d0, d1) -> (d0, d1)>], iterator_types = ["parallel", "parallel"]} ins(%23 : tensor<1x2xf32>) outs(%24 : tensor<1x2xi8>) {
  ^bb0(%in: f32, %out: i8):
    %26 = math.roundeven %in : f32
    %27 = arith.minf %26, %cst : f32
    %28 = arith.maxf %27, %cst_0 : f32
    %29 = arith.fptosi %28 : f32 to i8
    linalg.yield %29 : i8
  } -> tensor<1x2xi8>
  return %25 : tensor<1x2xi8>
}

// -----// IR Dump After Canonicalizer (canonicalize) //----- //
func.func @main(%arg0: !hal.buffer_view {ml_program.identifier = "MobilenetV1/Logits/SpatialSqueeze"}) -> (!hal.buffer_view {ml_program.identifier = "MobilenetV1/Predictions/Reshape_1"}) attributes {iree.abi.stub} {
  %0 = hal.tensor.import %arg0 "input 0" : !hal.buffer_view -> tensor<1x2xi8>
  %1 = call @_main(%0) : (tensor<1x2xi8>) -> tensor<1x2xi8>
  %2 = hal.tensor.export %1 "output 0" : tensor<1x2xi8> -> !hal.buffer_view
  return %2 : !hal.buffer_view
}

// -----// IR Dump After Canonicalizer (canonicalize) //----- //
func.func @main(%arg0: !hal.buffer_view {ml_program.identifier = "MobilenetV1/Logits/SpatialSqueeze"}) -> (!hal.buffer_view {ml_program.identifier = "MobilenetV1/Predictions/Reshape_1"}) attributes {iree.abi.stub} {
  %cst = arith.constant dense<-1.000000e+00> : tensor<1xf32>
  %cst_0 = arith.constant dense<0.0125187514> : tensor<1xf32>
  %cst_1 = arith.constant -3.40282347E+38 : f32
  %cst_2 = arith.constant 0.000000e+00 : f32
  %cst_3 = arith.constant 1.000000e+00 : f32
  %cst_4 = arith.constant dense<2.560000e+02> : tensor<1xf32>
  %cst_5 = arith.constant dense<-1.280000e+02> : tensor<1xf32>
  %cst_6 = arith.constant -1.280000e+02 : f32
  %cst_7 = arith.constant 1.270000e+02 : f32
  %0 = hal.tensor.import %arg0 "input 0" : !hal.buffer_view -> tensor<1x2xi8>
  %1 = tensor.empty() : tensor<1x2xf32>
  %2 = linalg.generic {indexing_maps = [affine_map<(d0, d1) -> (d0, d1)>, affine_map<(d0, d1) -> (d0, d1)>], iterator_types = ["parallel", "parallel"]} ins(%0 : tensor<1x2xi8>) outs(%1 : tensor<1x2xf32>) {
  ^bb0(%in: i8, %out: f32):
    %28 = arith.sitofp %in : i8 to f32
    linalg.yield %28 : f32
  } -> tensor<1x2xf32>
  %3 = tensor.empty() : tensor<1x2xf32>
  %4 = linalg.generic {indexing_maps = [affine_map<(d0, d1) -> (d0, d1)>, affine_map<(d0, d1) -> (d0)>, affine_map<(d0, d1) -> (d0, d1)>], iterator_types = ["parallel", "parallel"]} ins(%2, %cst : tensor<1x2xf32>, tensor<1xf32>) outs(%3 : tensor<1x2xf32>) {
  ^bb0(%in: f32, %in_8: f32, %out: f32):
    %28 = arith.subf %in, %in_8 : f32
    linalg.yield %28 : f32
  } -> tensor<1x2xf32>
  %5 = tensor.empty() : tensor<1x2xf32>
  %6 = linalg.generic {indexing_maps = [affine_map<(d0, d1) -> (d0, d1)>, affine_map<(d0, d1) -> (d0)>, affine_map<(d0, d1) -> (d0, d1)>], iterator_types = ["parallel", "parallel"]} ins(%4, %cst_0 : tensor<1x2xf32>, tensor<1xf32>) outs(%5 : tensor<1x2xf32>) {
  ^bb0(%in: f32, %in_8: f32, %out: f32):
    %28 = arith.mulf %in, %in_8 : f32
    linalg.yield %28 : f32
  } -> tensor<1x2xf32>
  %7 = tensor.empty() : tensor<1xf32>
  %8 = linalg.fill ins(%cst_1 : f32) outs(%7 : tensor<1xf32>) -> tensor<1xf32>
  %9 = linalg.generic {indexing_maps = [affine_map<(d0, d1) -> (d0, d1)>, affine_map<(d0, d1) -> (d0)>], iterator_types = ["parallel", "reduction"]} ins(%6 : tensor<1x2xf32>) outs(%8 : tensor<1xf32>) {
  ^bb0(%in: f32, %out: f32):
    %28 = arith.maxf %in, %out : f32
    linalg.yield %28 : f32
  } -> tensor<1xf32>
  %10 = tensor.empty() : tensor<1x2xf32>
  %11 = linalg.generic {indexing_maps = [affine_map<(d0, d1) -> (d0, d1)>, affine_map<(d0, d1) -> (d0)>, affine_map<(d0, d1) -> (d0, d1)>], iterator_types = ["parallel", "parallel"]} ins(%6, %9 : tensor<1x2xf32>, tensor<1xf32>) outs(%10 : tensor<1x2xf32>) {
  ^bb0(%in: f32, %in_8: f32, %out: f32):
    %28 = arith.subf %in, %in_8 : f32
    linalg.yield %28 : f32
  } -> tensor<1x2xf32>
  %12 = tensor.empty() : tensor<1x2xf32>
  %13 = linalg.generic {indexing_maps = [affine_map<(d0, d1) -> (d0, d1)>, affine_map<(d0, d1) -> (d0, d1)>], iterator_types = ["parallel", "parallel"]} ins(%11 : tensor<1x2xf32>) outs(%12 : tensor<1x2xf32>) {
  ^bb0(%in: f32, %out: f32):
    %28 = math.exp %in : f32
    linalg.yield %28 : f32
  } -> tensor<1x2xf32>
  %14 = tensor.empty() : tensor<1xf32>
  %15 = linalg.fill ins(%cst_2 : f32) outs(%14 : tensor<1xf32>) -> tensor<1xf32>
  %16 = linalg.generic {indexing_maps = [affine_map<(d0, d1) -> (d0, d1)>, affine_map<(d0, d1) -> (d0)>], iterator_types = ["parallel", "reduction"]} ins(%13 : tensor<1x2xf32>) outs(%15 : tensor<1xf32>) {
  ^bb0(%in: f32, %out: f32):
    %28 = arith.addf %in, %out : f32
    linalg.yield %28 : f32
  } -> tensor<1xf32>
  %expanded = tensor.expand_shape %16 [[0, 1]] : tensor<1xf32> into tensor<1x1xf32>
  %17 = tensor.empty() : tensor<1x1xf32>
  %18 = linalg.generic {indexing_maps = [affine_map<(d0, d1) -> (d0, d1)>, affine_map<(d0, d1) -> (d0, d1)>], iterator_types = ["parallel", "parallel"]} ins(%expanded : tensor<1x1xf32>) outs(%17 : tensor<1x1xf32>) {
  ^bb0(%in: f32, %out: f32):
    %28 = arith.divf %cst_3, %in : f32
    linalg.yield %28 : f32
  } -> tensor<1x1xf32>
  %19 = tensor.empty() : tensor<1x2xf32>
  %collapsed = tensor.collapse_shape %18 [[0, 1]] : tensor<1x1xf32> into tensor<1xf32>
  %20 = linalg.generic {indexing_maps = [affine_map<(d0, d1) -> (d0, d1)>, affine_map<(d0, d1) -> (d0)>, affine_map<(d0, d1) -> (d0, d1)>], iterator_types = ["parallel", "parallel"]} ins(%13, %collapsed : tensor<1x2xf32>, tensor<1xf32>) outs(%19 : tensor<1x2xf32>) {
  ^bb0(%in: f32, %in_8: f32, %out: f32):
    %28 = arith.mulf %in, %in_8 : f32
    linalg.yield %28 : f32
  } -> tensor<1x2xf32>
  %21 = tensor.empty() : tensor<1x2xf32>
  %22 = linalg.generic {indexing_maps = [affine_map<(d0, d1) -> (d0, d1)>, affine_map<(d0, d1) -> (d0)>, affine_map<(d0, d1) -> (d0, d1)>], iterator_types = ["parallel", "parallel"]} ins(%20, %cst_4 : tensor<1x2xf32>, tensor<1xf32>) outs(%21 : tensor<1x2xf32>) {
  ^bb0(%in: f32, %in_8: f32, %out: f32):
    %28 = arith.mulf %in, %in_8 : f32
    linalg.yield %28 : f32
  } -> tensor<1x2xf32>
  %23 = tensor.empty() : tensor<1x2xf32>
  %24 = linalg.generic {indexing_maps = [affine_map<(d0, d1) -> (d0, d1)>, affine_map<(d0, d1) -> (d0)>, affine_map<(d0, d1) -> (d0, d1)>], iterator_types = ["parallel", "parallel"]} ins(%22, %cst_5 : tensor<1x2xf32>, tensor<1xf32>) outs(%23 : tensor<1x2xf32>) {
  ^bb0(%in: f32, %in_8: f32, %out: f32):
    %28 = arith.addf %in, %in_8 : f32
    linalg.yield %28 : f32
  } -> tensor<1x2xf32>
  %25 = tensor.empty() : tensor<1x2xi8>
  %26 = linalg.generic {indexing_maps = [affine_map<(d0, d1) -> (d0, d1)>, affine_map<(d0, d1) -> (d0, d1)>], iterator_types = ["parallel", "parallel"]} ins(%24 : tensor<1x2xf32>) outs(%25 : tensor<1x2xi8>) {
  ^bb0(%in: f32, %out: i8):
    %28 = math.roundeven %in : f32
    %29 = arith.minf %28, %cst_7 : f32
    %30 = arith.maxf %29, %cst_6 : f32
    %31 = arith.fptosi %30 : f32 to i8
    linalg.yield %31 : i8
  } -> tensor<1x2xi8>
  %27 = hal.tensor.export %26 "output 0" : tensor<1x2xi8> -> !hal.buffer_view
  return %27 : !hal.buffer_view
}

// -----// IR Dump After Inliner (inline) //----- //
#executable_target_static = #hal.executable.target<"llvm-cpu", "static", {cpu = "generic-rv32", cpu_features = "+m", data_layout = "e-m:e-p:32:32-i64:64-n32-S128", native_vector_size = 16 : index, target_triple = "riscv32-pc-linux-elf", ukernels = false}>
#map = affine_map<(d0, d1) -> (d0, d1)>
#map1 = affine_map<(d0, d1) -> (d0)>
#device_target_llvm_cpu = #hal.device.target<"llvm-cpu", {executable_targets = [#executable_target_static]}>
module attributes {hal.device.targets = [#device_target_llvm_cpu]} {
  func.func @main(%arg0: !hal.buffer_view {ml_program.identifier = "MobilenetV1/Logits/SpatialSqueeze"}) -> (!hal.buffer_view {ml_program.identifier = "MobilenetV1/Predictions/Reshape_1"}) attributes {iree.abi.stub} {
    %cst = arith.constant dense<-1.000000e+00> : tensor<1xf32>
    %cst_0 = arith.constant dense<0.0125187514> : tensor<1xf32>
    %cst_1 = arith.constant -3.40282347E+38 : f32
    %cst_2 = arith.constant 0.000000e+00 : f32
    %cst_3 = arith.constant 1.000000e+00 : f32
    %cst_4 = arith.constant dense<2.560000e+02> : tensor<1xf32>
    %cst_5 = arith.constant dense<-1.280000e+02> : tensor<1xf32>
    %cst_6 = arith.constant -1.280000e+02 : f32
    %cst_7 = arith.constant 1.270000e+02 : f32
    %0 = hal.tensor.import %arg0 "input 0" : !hal.buffer_view -> tensor<1x2xi8>
    %1 = tensor.empty() : tensor<1x2xf32>
    %2 = linalg.generic {indexing_maps = [#map, #map], iterator_types = ["parallel", "parallel"]} ins(%0 : tensor<1x2xi8>) outs(%1 : tensor<1x2xf32>) {
    ^bb0(%in: i8, %out: f32):
      %28 = arith.sitofp %in : i8 to f32
      linalg.yield %28 : f32
    } -> tensor<1x2xf32>
    %3 = tensor.empty() : tensor<1x2xf32>
    %4 = linalg.generic {indexing_maps = [#map, #map1, #map], iterator_types = ["parallel", "parallel"]} ins(%2, %cst : tensor<1x2xf32>, tensor<1xf32>) outs(%3 : tensor<1x2xf32>) {
    ^bb0(%in: f32, %in_8: f32, %out: f32):
      %28 = arith.subf %in, %in_8 : f32
      linalg.yield %28 : f32
    } -> tensor<1x2xf32>
    %5 = tensor.empty() : tensor<1x2xf32>
    %6 = linalg.generic {indexing_maps = [#map, #map1, #map], iterator_types = ["parallel", "parallel"]} ins(%4, %cst_0 : tensor<1x2xf32>, tensor<1xf32>) outs(%5 : tensor<1x2xf32>) {
    ^bb0(%in: f32, %in_8: f32, %out: f32):
      %28 = arith.mulf %in, %in_8 : f32
      linalg.yield %28 : f32
    } -> tensor<1x2xf32>
    %7 = tensor.empty() : tensor<1xf32>
    %8 = linalg.fill ins(%cst_1 : f32) outs(%7 : tensor<1xf32>) -> tensor<1xf32>
    %9 = linalg.generic {indexing_maps = [#map, #map1], iterator_types = ["parallel", "reduction"]} ins(%6 : tensor<1x2xf32>) outs(%8 : tensor<1xf32>) {
    ^bb0(%in: f32, %out: f32):
      %28 = arith.maxf %in, %out : f32
      linalg.yield %28 : f32
    } -> tensor<1xf32>
    %10 = tensor.empty() : tensor<1x2xf32>
    %11 = linalg.generic {indexing_maps = [#map, #map1, #map], iterator_types = ["parallel", "parallel"]} ins(%6, %9 : tensor<1x2xf32>, tensor<1xf32>) outs(%10 : tensor<1x2xf32>) {
    ^bb0(%in: f32, %in_8: f32, %out: f32):
      %28 = arith.subf %in, %in_8 : f32
      linalg.yield %28 : f32
    } -> tensor<1x2xf32>
    %12 = tensor.empty() : tensor<1x2xf32>
    %13 = linalg.generic {indexing_maps = [#map, #map], iterator_types = ["parallel", "parallel"]} ins(%11 : tensor<1x2xf32>) outs(%12 : tensor<1x2xf32>) {
    ^bb0(%in: f32, %out: f32):
      %28 = math.exp %in : f32
      linalg.yield %28 : f32
    } -> tensor<1x2xf32>
    %14 = tensor.empty() : tensor<1xf32>
    %15 = linalg.fill ins(%cst_2 : f32) outs(%14 : tensor<1xf32>) -> tensor<1xf32>
    %16 = linalg.generic {indexing_maps = [#map, #map1], iterator_types = ["parallel", "reduction"]} ins(%13 : tensor<1x2xf32>) outs(%15 : tensor<1xf32>) {
    ^bb0(%in: f32, %out: f32):
      %28 = arith.addf %in, %out : f32
      linalg.yield %28 : f32
    } -> tensor<1xf32>
    %expanded = tensor.expand_shape %16 [[0, 1]] : tensor<1xf32> into tensor<1x1xf32>
    %17 = tensor.empty() : tensor<1x1xf32>
    %18 = linalg.generic {indexing_maps = [#map, #map], iterator_types = ["parallel", "parallel"]} ins(%expanded : tensor<1x1xf32>) outs(%17 : tensor<1x1xf32>) {
    ^bb0(%in: f32, %out: f32):
      %28 = arith.divf %cst_3, %in : f32
      linalg.yield %28 : f32
    } -> tensor<1x1xf32>
    %19 = tensor.empty() : tensor<1x2xf32>
    %collapsed = tensor.collapse_shape %18 [[0, 1]] : tensor<1x1xf32> into tensor<1xf32>
    %20 = linalg.generic {indexing_maps = [#map, #map1, #map], iterator_types = ["parallel", "parallel"]} ins(%13, %collapsed : tensor<1x2xf32>, tensor<1xf32>) outs(%19 : tensor<1x2xf32>) {
    ^bb0(%in: f32, %in_8: f32, %out: f32):
      %28 = arith.mulf %in, %in_8 : f32
      linalg.yield %28 : f32
    } -> tensor<1x2xf32>
    %21 = tensor.empty() : tensor<1x2xf32>
    %22 = linalg.generic {indexing_maps = [#map, #map1, #map], iterator_types = ["parallel", "parallel"]} ins(%20, %cst_4 : tensor<1x2xf32>, tensor<1xf32>) outs(%21 : tensor<1x2xf32>) {
    ^bb0(%in: f32, %in_8: f32, %out: f32):
      %28 = arith.mulf %in, %in_8 : f32
      linalg.yield %28 : f32
    } -> tensor<1x2xf32>
    %23 = tensor.empty() : tensor<1x2xf32>
    %24 = linalg.generic {indexing_maps = [#map, #map1, #map], iterator_types = ["parallel", "parallel"]} ins(%22, %cst_5 : tensor<1x2xf32>, tensor<1xf32>) outs(%23 : tensor<1x2xf32>) {
    ^bb0(%in: f32, %in_8: f32, %out: f32):
      %28 = arith.addf %in, %in_8 : f32
      linalg.yield %28 : f32
    } -> tensor<1x2xf32>
    %25 = tensor.empty() : tensor<1x2xi8>
    %26 = linalg.generic {indexing_maps = [#map, #map], iterator_types = ["parallel", "parallel"]} ins(%24 : tensor<1x2xf32>) outs(%25 : tensor<1x2xi8>) {
    ^bb0(%in: f32, %out: i8):
      %28 = math.roundeven %in : f32
      %29 = arith.minf %28, %cst_7 : f32
      %30 = arith.maxf %29, %cst_6 : f32
      %31 = arith.fptosi %30 : f32 to i8
      linalg.yield %31 : i8
    } -> tensor<1x2xi8>
    %27 = hal.tensor.export %26 "output 0" : tensor<1x2xi8> -> !hal.buffer_view
    return %27 : !hal.buffer_view
  }
}


// -----// IR Dump After Canonicalizer (canonicalize) //----- //
func.func @main(%arg0: !hal.buffer_view {ml_program.identifier = "MobilenetV1/Logits/SpatialSqueeze"}) -> (!hal.buffer_view {ml_program.identifier = "MobilenetV1/Predictions/Reshape_1"}) attributes {iree.abi.stub} {
  %cst = arith.constant dense<-1.000000e+00> : tensor<1xf32>
  %cst_0 = arith.constant dense<0.0125187514> : tensor<1xf32>
  %cst_1 = arith.constant -3.40282347E+38 : f32
  %cst_2 = arith.constant 0.000000e+00 : f32
  %cst_3 = arith.constant 1.000000e+00 : f32
  %cst_4 = arith.constant dense<2.560000e+02> : tensor<1xf32>
  %cst_5 = arith.constant dense<-1.280000e+02> : tensor<1xf32>
  %cst_6 = arith.constant -1.280000e+02 : f32
  %cst_7 = arith.constant 1.270000e+02 : f32
  %0 = hal.tensor.import %arg0 "input 0" : !hal.buffer_view -> tensor<1x2xi8>
  %1 = tensor.empty() : tensor<1x2xf32>
  %2 = linalg.generic {indexing_maps = [affine_map<(d0, d1) -> (d0, d1)>, affine_map<(d0, d1) -> (d0, d1)>], iterator_types = ["parallel", "parallel"]} ins(%0 : tensor<1x2xi8>) outs(%1 : tensor<1x2xf32>) {
  ^bb0(%in: i8, %out: f32):
    %28 = arith.sitofp %in : i8 to f32
    linalg.yield %28 : f32
  } -> tensor<1x2xf32>
  %3 = tensor.empty() : tensor<1x2xf32>
  %4 = linalg.generic {indexing_maps = [affine_map<(d0, d1) -> (d0, d1)>, affine_map<(d0, d1) -> (d0)>, affine_map<(d0, d1) -> (d0, d1)>], iterator_types = ["parallel", "parallel"]} ins(%2, %cst : tensor<1x2xf32>, tensor<1xf32>) outs(%3 : tensor<1x2xf32>) {
  ^bb0(%in: f32, %in_8: f32, %out: f32):
    %28 = arith.subf %in, %in_8 : f32
    linalg.yield %28 : f32
  } -> tensor<1x2xf32>
  %5 = tensor.empty() : tensor<1x2xf32>
  %6 = linalg.generic {indexing_maps = [affine_map<(d0, d1) -> (d0, d1)>, affine_map<(d0, d1) -> (d0)>, affine_map<(d0, d1) -> (d0, d1)>], iterator_types = ["parallel", "parallel"]} ins(%4, %cst_0 : tensor<1x2xf32>, tensor<1xf32>) outs(%5 : tensor<1x2xf32>) {
  ^bb0(%in: f32, %in_8: f32, %out: f32):
    %28 = arith.mulf %in, %in_8 : f32
    linalg.yield %28 : f32
  } -> tensor<1x2xf32>
  %7 = tensor.empty() : tensor<1xf32>
  %8 = linalg.fill ins(%cst_1 : f32) outs(%7 : tensor<1xf32>) -> tensor<1xf32>
  %9 = linalg.generic {indexing_maps = [affine_map<(d0, d1) -> (d0, d1)>, affine_map<(d0, d1) -> (d0)>], iterator_types = ["parallel", "reduction"]} ins(%6 : tensor<1x2xf32>) outs(%8 : tensor<1xf32>) {
  ^bb0(%in: f32, %out: f32):
    %28 = arith.maxf %in, %out : f32
    linalg.yield %28 : f32
  } -> tensor<1xf32>
  %10 = tensor.empty() : tensor<1x2xf32>
  %11 = linalg.generic {indexing_maps = [affine_map<(d0, d1) -> (d0, d1)>, affine_map<(d0, d1) -> (d0)>, affine_map<(d0, d1) -> (d0, d1)>], iterator_types = ["parallel", "parallel"]} ins(%6, %9 : tensor<1x2xf32>, tensor<1xf32>) outs(%10 : tensor<1x2xf32>) {
  ^bb0(%in: f32, %in_8: f32, %out: f32):
    %28 = arith.subf %in, %in_8 : f32
    linalg.yield %28 : f32
  } -> tensor<1x2xf32>
  %12 = tensor.empty() : tensor<1x2xf32>
  %13 = linalg.generic {indexing_maps = [affine_map<(d0, d1) -> (d0, d1)>, affine_map<(d0, d1) -> (d0, d1)>], iterator_types = ["parallel", "parallel"]} ins(%11 : tensor<1x2xf32>) outs(%12 : tensor<1x2xf32>) {
  ^bb0(%in: f32, %out: f32):
    %28 = math.exp %in : f32
    linalg.yield %28 : f32
  } -> tensor<1x2xf32>
  %14 = tensor.empty() : tensor<1xf32>
  %15 = linalg.fill ins(%cst_2 : f32) outs(%14 : tensor<1xf32>) -> tensor<1xf32>
  %16 = linalg.generic {indexing_maps = [affine_map<(d0, d1) -> (d0, d1)>, affine_map<(d0, d1) -> (d0)>], iterator_types = ["parallel", "reduction"]} ins(%13 : tensor<1x2xf32>) outs(%15 : tensor<1xf32>) {
  ^bb0(%in: f32, %out: f32):
    %28 = arith.addf %in, %out : f32
    linalg.yield %28 : f32
  } -> tensor<1xf32>
  %expanded = tensor.expand_shape %16 [[0, 1]] : tensor<1xf32> into tensor<1x1xf32>
  %17 = tensor.empty() : tensor<1x1xf32>
  %18 = linalg.generic {indexing_maps = [affine_map<(d0, d1) -> (d0, d1)>, affine_map<(d0, d1) -> (d0, d1)>], iterator_types = ["parallel", "parallel"]} ins(%expanded : tensor<1x1xf32>) outs(%17 : tensor<1x1xf32>) {
  ^bb0(%in: f32, %out: f32):
    %28 = arith.divf %cst_3, %in : f32
    linalg.yield %28 : f32
  } -> tensor<1x1xf32>
  %19 = tensor.empty() : tensor<1x2xf32>
  %collapsed = tensor.collapse_shape %18 [[0, 1]] : tensor<1x1xf32> into tensor<1xf32>
  %20 = linalg.generic {indexing_maps = [affine_map<(d0, d1) -> (d0, d1)>, affine_map<(d0, d1) -> (d0)>, affine_map<(d0, d1) -> (d0, d1)>], iterator_types = ["parallel", "parallel"]} ins(%13, %collapsed : tensor<1x2xf32>, tensor<1xf32>) outs(%19 : tensor<1x2xf32>) {
  ^bb0(%in: f32, %in_8: f32, %out: f32):
    %28 = arith.mulf %in, %in_8 : f32
    linalg.yield %28 : f32
  } -> tensor<1x2xf32>
  %21 = tensor.empty() : tensor<1x2xf32>
  %22 = linalg.generic {indexing_maps = [affine_map<(d0, d1) -> (d0, d1)>, affine_map<(d0, d1) -> (d0)>, affine_map<(d0, d1) -> (d0, d1)>], iterator_types = ["parallel", "parallel"]} ins(%20, %cst_4 : tensor<1x2xf32>, tensor<1xf32>) outs(%21 : tensor<1x2xf32>) {
  ^bb0(%in: f32, %in_8: f32, %out: f32):
    %28 = arith.mulf %in, %in_8 : f32
    linalg.yield %28 : f32
  } -> tensor<1x2xf32>
  %23 = tensor.empty() : tensor<1x2xf32>
  %24 = linalg.generic {indexing_maps = [affine_map<(d0, d1) -> (d0, d1)>, affine_map<(d0, d1) -> (d0)>, affine_map<(d0, d1) -> (d0, d1)>], iterator_types = ["parallel", "parallel"]} ins(%22, %cst_5 : tensor<1x2xf32>, tensor<1xf32>) outs(%23 : tensor<1x2xf32>) {
  ^bb0(%in: f32, %in_8: f32, %out: f32):
    %28 = arith.addf %in, %in_8 : f32
    linalg.yield %28 : f32
  } -> tensor<1x2xf32>
  %25 = tensor.empty() : tensor<1x2xi8>
  %26 = linalg.generic {indexing_maps = [affine_map<(d0, d1) -> (d0, d1)>, affine_map<(d0, d1) -> (d0, d1)>], iterator_types = ["parallel", "parallel"]} ins(%24 : tensor<1x2xf32>) outs(%25 : tensor<1x2xi8>) {
  ^bb0(%in: f32, %out: i8):
    %28 = math.roundeven %in : f32
    %29 = arith.minf %28, %cst_7 : f32
    %30 = arith.maxf %29, %cst_6 : f32
    %31 = arith.fptosi %30 : f32 to i8
    linalg.yield %31 : i8
  } -> tensor<1x2xi8>
  %27 = hal.tensor.export %26 "output 0" : tensor<1x2xi8> -> !hal.buffer_view
  return %27 : !hal.buffer_view
}

// -----// IR Dump After CSE (cse) //----- //
func.func @main(%arg0: !hal.buffer_view {ml_program.identifier = "MobilenetV1/Logits/SpatialSqueeze"}) -> (!hal.buffer_view {ml_program.identifier = "MobilenetV1/Predictions/Reshape_1"}) attributes {iree.abi.stub} {
  %cst = arith.constant dense<-1.000000e+00> : tensor<1xf32>
  %cst_0 = arith.constant dense<0.0125187514> : tensor<1xf32>
  %cst_1 = arith.constant -3.40282347E+38 : f32
  %cst_2 = arith.constant 0.000000e+00 : f32
  %cst_3 = arith.constant 1.000000e+00 : f32
  %cst_4 = arith.constant dense<2.560000e+02> : tensor<1xf32>
  %cst_5 = arith.constant dense<-1.280000e+02> : tensor<1xf32>
  %cst_6 = arith.constant -1.280000e+02 : f32
  %cst_7 = arith.constant 1.270000e+02 : f32
  %0 = hal.tensor.import %arg0 "input 0" : !hal.buffer_view -> tensor<1x2xi8>
  %1 = tensor.empty() : tensor<1x2xf32>
  %2 = linalg.generic {indexing_maps = [affine_map<(d0, d1) -> (d0, d1)>, affine_map<(d0, d1) -> (d0, d1)>], iterator_types = ["parallel", "parallel"]} ins(%0 : tensor<1x2xi8>) outs(%1 : tensor<1x2xf32>) {
  ^bb0(%in: i8, %out: f32):
    %20 = arith.sitofp %in : i8 to f32
    linalg.yield %20 : f32
  } -> tensor<1x2xf32>
  %3 = linalg.generic {indexing_maps = [affine_map<(d0, d1) -> (d0, d1)>, affine_map<(d0, d1) -> (d0)>, affine_map<(d0, d1) -> (d0, d1)>], iterator_types = ["parallel", "parallel"]} ins(%2, %cst : tensor<1x2xf32>, tensor<1xf32>) outs(%1 : tensor<1x2xf32>) {
  ^bb0(%in: f32, %in_8: f32, %out: f32):
    %20 = arith.subf %in, %in_8 : f32
    linalg.yield %20 : f32
  } -> tensor<1x2xf32>
  %4 = linalg.generic {indexing_maps = [affine_map<(d0, d1) -> (d0, d1)>, affine_map<(d0, d1) -> (d0)>, affine_map<(d0, d1) -> (d0, d1)>], iterator_types = ["parallel", "parallel"]} ins(%3, %cst_0 : tensor<1x2xf32>, tensor<1xf32>) outs(%1 : tensor<1x2xf32>) {
  ^bb0(%in: f32, %in_8: f32, %out: f32):
    %20 = arith.mulf %in, %in_8 : f32
    linalg.yield %20 : f32
  } -> tensor<1x2xf32>
  %5 = tensor.empty() : tensor<1xf32>
  %6 = linalg.fill ins(%cst_1 : f32) outs(%5 : tensor<1xf32>) -> tensor<1xf32>
  %7 = linalg.generic {indexing_maps = [affine_map<(d0, d1) -> (d0, d1)>, affine_map<(d0, d1) -> (d0)>], iterator_types = ["parallel", "reduction"]} ins(%4 : tensor<1x2xf32>) outs(%6 : tensor<1xf32>) {
  ^bb0(%in: f32, %out: f32):
    %20 = arith.maxf %in, %out : f32
    linalg.yield %20 : f32
  } -> tensor<1xf32>
…
  vm.import private @hal.command_buffer.dispatch(%command_buffer : !vm.ref<!hal.command_buffer>, %executable : !vm.ref<!hal.executable>, %entry_point : i32, %workgroup_x : i32, %workgroup_y : i32, %workgroup_z : i32)
  vm.import private @hal.descriptor_set_layout.create(%device : !vm.ref<!hal.device>, %flags : i32, %bindings : tuple<i32, i32, i32> ...) -> !vm.ref<!hal.descriptor_set_layout> attributes {nosideeffects}
  vm.import private @hal.device.allocator(%device : !vm.ref<!hal.device>) -> !vm.ref<!hal.allocator> attributes {nosideeffects}
  vm.import private @hal.device.query.i64(%device : !vm.ref<!hal.device>, %category : !vm.buffer, %key : !vm.buffer) -> (i32, i64) attributes {nosideeffects}
  vm.import private @hal.device.queue.alloca(%device : !vm.ref<!hal.device>, %queue_affinity : i64, %wait_fence : !vm.ref<!hal.fence>, %signal_fence : !vm.ref<!hal.fence>, %pool : i32, %memory_types : i32, %buffer_usage : i32, %allocation_size : i64) -> !vm.ref<!hal.buffer>
  vm.import private @hal.device.queue.dealloca(%device : !vm.ref<!hal.device>, %queue_affinity : i64, %wait_fence : !vm.ref<!hal.fence>, %signal_fence : !vm.ref<!hal.fence>, %buffer : !vm.ref<!hal.buffer>)
  vm.import private @hal.device.queue.execute(%device : !vm.ref<!hal.device>, %queue_affinity : i64, %wait_fence : !vm.ref<!hal.fence>, %signal_fence : !vm.ref<!hal.fence>, %command_buffers : !vm.ref<!hal.command_buffer> ...)
  vm.import private @hal.executable.create(%device : !vm.ref<!hal.device>, %executable_format : !vm.buffer, %executable_data : !vm.buffer, %constants : !vm.buffer, %pipeline_layouts : !vm.ref<!hal.pipeline_layout> ...) -> !vm.ref<!hal.executable> attributes {nosideeffects}
  vm.import private @hal.fence.create(%device : !vm.ref<!hal.device>, %flags : i32) -> !vm.ref<!hal.fence>
  vm.import private @hal.fence.await(%timeout_millis : i32, %fences : !vm.ref<!hal.fence> ...) -> i32 attributes {vm.yield}
  vm.import private @hal.pipeline_layout.create(%device : !vm.ref<!hal.device>, %push_constants : i32, %set_layouts : !vm.ref<!hal.descriptor_set_layout> ...) -> !vm.ref<!hal.pipeline_layout> attributes {nosideeffects}
  vm.rodata private @_utf8_input_0_5FD512E67BEFDEEC {alignment = 1 : i64} "input 0"
  vm.rodata private @_utf8_tensor_3C6209B4FD120BDC {alignment = 1 : i64} "tensor"
  vm.func private @main(%arg0: !vm.ref<!hal.buffer_view>) -> !vm.ref<!hal.buffer_view> {
    %c2 = vm.const.i32 2
    %c13 = vm.const.i32 13
    %c28 = vm.const.i32 28
    %c3 = vm.const.i32 3
    %c48 = vm.const.i32 48
    %zero = vm.const.i32.zero
    %null = vm.const.ref.zero : !vm.ref<!hal.fence>
    %c150998019 = vm.const.i32 150998019
    %c50 = vm.const.i32 50
    %c3075 = vm.const.i32 3075
    %c16 = vm.const.i32 16
    %c1 = vm.const.i64 1
    %c1_0 = vm.const.i32 1
    %c268435464 = vm.const.i32 268435464
    %zero_1 = vm.const.i64.zero
    %c2_2 = vm.const.i64 2
    %c128 = vm.const.i64 128
    %c-1 = vm.const.i64 -1
    %c-1_3 = vm.const.i32 -1
    %_device_query_0 = vm.global.load.i32 @_device_query_0 : i32
    %_pipeline_layout_0 = vm.global.load.ref @_pipeline_layout_0 : !vm.ref<!hal.pipeline_layout>
    %_executable_llvm_module_linked_llvm_cpu = vm.global.load.ref @_executable_llvm_module_linked_llvm_cpu : !vm.ref<!hal.executable>
    %_utf8_input_0_5FD512E67BEFDEEC = vm.const.ref.rodata @_utf8_input_0_5FD512E67BEFDEEC : !vm.buffer
    vm.call.variadic @hal.buffer_view.assert(%arg0, %_utf8_input_0_5FD512E67BEFDEEC, %c268435464, %c1_0, [%c1, %c2_2]) : (!vm.ref<!hal.buffer_view>, !vm.buffer, i32, i32, i64 ...)
    %ref = vm.call @hal.buffer_view.buffer(%arg0) {nosideeffects} : (!vm.ref<!hal.buffer_view>) -> !vm.ref<!hal.buffer>
    %ref_4 = vm.call @hal.ex.shared_device() {nosideeffects} : () -> !vm.ref<!hal.device>
    %ref_5 = vm.call @hal.device.allocator(%ref_4) {nosideeffects} : (!vm.ref<!hal.device>) -> !vm.ref<!hal.allocator>
    %_utf8_tensor_3C6209B4FD120BDC = vm.const.ref.rodata @_utf8_tensor_3C6209B4FD120BDC : !vm.buffer
    vm.call @hal.buffer.assert(%ref, %_utf8_tensor_3C6209B4FD120BDC, %ref_5, %c2_2, %c16, %c3075) : (!vm.ref<!hal.buffer>, !vm.buffer, !vm.ref<!hal.allocator>, i64, i32, i32) -> ()
    %ref_6 = vm.call @hal.allocator.allocate(%ref_5, %c50, %c150998019, %c2_2) : (!vm.ref<!hal.allocator>, i32, i32, i64) -> !vm.ref<!hal.buffer>
    %ref_7 = vm.call @hal.fence.create(%ref_4, %zero) : (!vm.ref<!hal.device>, i32) -> !vm.ref<!hal.fence>
    %ref_8 = vm.call @hal.device.queue.alloca(%ref_4, %c-1, %null, %ref_7, %zero, %c48, %c3075, %c128) : (!vm.ref<!hal.device>, i64, !vm.ref<!hal.fence>, !vm.ref<!hal.fence>, i32, i32, i32, i64) -> !vm.ref<!hal.buffer>
    %ref_9 = vm.call @hal.command_buffer.create(%ref_4, %c1_0, %c3, %zero) : (!vm.ref<!hal.device>, i32, i32, i32) -> !vm.ref<!hal.command_buffer>
    vm.cond_br %_device_query_0, ^bb1, ^bb4
  ^bb1:  // pred: ^bb0
    vm.call.variadic @hal.command_buffer.push_descriptor_set(%ref_9, %_pipeline_layout_0, %zero, [(%zero, %zero, %ref, %zero_1, %c2_2), (%c1_0, %zero, %ref_8, %zero_1, %c128)]) : (!vm.ref<!hal.command_buffer>, !vm.ref<!hal.pipeline_layout>, i32, tuple<i32, i32, !vm.ref<!hal.buffer>, i64, i64> ...)
    vm.call @hal.command_buffer.dispatch(%ref_9, %_executable_llvm_module_linked_llvm_cpu, %zero, %c1_0, %c1_0, %c1_0) : (!vm.ref<!hal.command_buffer>, !vm.ref<!hal.executable>, i32, i32, i32, i32) -> ()
    vm.call @hal.command_buffer.execution_barrier(%ref_9, %c28, %c13, %zero) : (!vm.ref<!hal.command_buffer>, i32, i32, i32) -> ()
    vm.call.variadic @hal.command_buffer.push_descriptor_set(%ref_9, %_pipeline_layout_0, %zero, [(%zero, %zero, %ref_8, %zero_1, %c128), (%c1_0, %zero, %ref_8, %zero_1, %c128)]) : (!vm.ref<!hal.command_buffer>, !vm.ref<!hal.pipeline_layout>, i32, tuple<i32, i32, !vm.ref<!hal.buffer>, i64, i64> ...)
    vm.call @hal.command_buffer.dispatch(%ref_9, %_executable_llvm_module_linked_llvm_cpu, %c1_0, %c1_0, %c1_0, %c1_0) : (!vm.ref<!hal.command_buffer>, !vm.ref<!hal.executable>, i32, i32, i32, i32) -> ()
    vm.call @hal.command_buffer.execution_barrier(%ref_9, %c28, %c13, %zero) : (!vm.ref<!hal.command_buffer>, i32, i32, i32) -> ()
    vm.call.variadic @hal.command_buffer.push_descriptor_set(%ref_9, %_pipeline_layout_0, %zero, [(%zero, %zero, %ref_8, %zero_1, %c128), (%c1_0, %zero, %ref_6, %zero_1, %c2_2)]) : (!vm.ref<!hal.command_buffer>, !vm.ref<!hal.pipeline_layout>, i32, tuple<i32, i32, !vm.ref<!hal.buffer>, i64, i64> ...)
    vm.call @hal.command_buffer.dispatch(%ref_9, %_executable_llvm_module_linked_llvm_cpu, %c2, %c1_0, %c1_0, %c1_0) : (!vm.ref<!hal.command_buffer>, !vm.ref<!hal.executable>, i32, i32, i32, i32) -> ()
    vm.call @hal.command_buffer.execution_barrier(%ref_9, %c28, %c13, %zero) : (!vm.ref<!hal.command_buffer>, i32, i32, i32) -> ()
    vm.call @hal.command_buffer.finalize(%ref_9) : (!vm.ref<!hal.command_buffer>) -> ()
    %ref_10 = vm.call @hal.fence.create(%ref_4, %zero) : (!vm.ref<!hal.device>, i32) -> !vm.ref<!hal.fence>
    vm.call.variadic @hal.device.queue.execute(%ref_4, %c-1, %ref_7, %ref_10, [%ref_9]) : (!vm.ref<!hal.device>, i64, !vm.ref<!hal.fence>, !vm.ref<!hal.fence>, !vm.ref<!hal.command_buffer> ...)
    %ref_11 = vm.call @hal.fence.create(%ref_4, %zero) : (!vm.ref<!hal.device>, i32) -> !vm.ref<!hal.fence>
    vm.call @hal.device.queue.dealloca(%ref_4, %c-1, %ref_10, %ref_11, %ref_8) : (!vm.ref<!hal.device>, i64, !vm.ref<!hal.fence>, !vm.ref<!hal.fence>, !vm.ref<!hal.buffer>) -> ()
    %0 = vm.call.variadic @hal.fence.await(%c-1_3, [%ref_11]) : (i32, !vm.ref<!hal.fence> ...) -> i32
    vm.cond_br %0, ^bb3, ^bb2
  ^bb2:  // pred: ^bb1
    %ref_12 = vm.call.variadic @hal.buffer_view.create(%ref_6, %zero_1, %c2_2, %c268435464, %c1_0, [%c1, %c2_2]) {nosideeffects} : (!vm.ref<!hal.buffer>, i64, i64, i32, i32, i64 ...) -> !vm.ref<!hal.buffer_view>
    vm.return %ref_12 : !vm.ref<!hal.buffer_view>
  ^bb3:  // pred: ^bb1
    vm.fail %0, "failed to wait on timepoint"
  ^bb4:  // pred: ^bb0
    vm.fail %c2, "device not supported in the compiled configuration"
  }
  vm.export @main attributes {iree.abi.stub}
  vm.export @__init
  vm.func private @__init() {
    %null = vm.const.ref.zero : !vm.ref<!hal.executable>
    %null_0 = vm.const.ref.zero : !vm.buffer
    %c7 = vm.const.i32 7
    %zero = vm.const.i32.zero
    %c1 = vm.const.i32 1
    %ref = vm.call @hal.ex.shared_device() {nosideeffects} : () -> !vm.ref<!hal.device>
    %_utf8_hal_executable_format_EAB228F999C2D3A1 = vm.const.ref.rodata @_utf8_hal_executable_format_EAB228F999C2D3A1 : !vm.buffer
    %_utf8_static_96B31E405495E0B6 = vm.const.ref.rodata @_utf8_static_96B31E405495E0B6 : !vm.buffer
    %0:2 = vm.call @hal.device.query.i64(%ref, %_utf8_hal_executable_format_EAB228F999C2D3A1, %_utf8_static_96B31E405495E0B6) {nosideeffects} : (!vm.ref<!hal.device>, !vm.buffer, !vm.buffer) -> (i32, i64)
    %1 = vm.trunc.i64.i32 %0#1 : i64 -> i32
    %2 = vm.and.i32 %1, %c1 : i32
    %3 = vm.select.i32 %0#0, %2, %zero : i32
    %ref_1 = vm.call.variadic @hal.descriptor_set_layout.create(%ref, %zero, [(%zero, %c7, %c1), (%c1, %c7, %zero)]) {nosideeffects} : (!vm.ref<!hal.device>, i32, tuple<i32, i32, i32> ...) -> !vm.ref<!hal.descriptor_set_layout>
    %ref_2 = vm.call.variadic @hal.pipeline_layout.create(%ref, %zero, [%ref_1]) {nosideeffects} : (!vm.ref<!hal.device>, i32, !vm.ref<!hal.descriptor_set_layout> ...) -> !vm.ref<!hal.pipeline_layout>
    vm.global.store.i32 %3, @_device_query_0 : i32
    vm.global.store.ref %ref_2, @_pipeline_layout_0 : !vm.ref<!hal.pipeline_layout>
    vm.cond_br %3, ^bb1, ^bb2
  ^bb1:  // pred: ^bb0
    %_pipeline_layout_0 = vm.global.load.ref @_pipeline_layout_0 : !vm.ref<!hal.pipeline_layout>
    %llvm_module_linked_llvm_cpu_static = vm.const.ref.rodata @llvm_module_linked_llvm_cpu_static : !vm.buffer
    %ref_3 = vm.call.variadic @hal.executable.create(%ref, %_utf8_static_96B31E405495E0B6, %llvm_module_linked_llvm_cpu_static, %null_0, [%_pipeline_layout_0, %_pipeline_layout_0, %_pipeline_layout_0]) {nosideeffects} : (!vm.ref<!hal.device>, !vm.buffer, !vm.buffer, !vm.buffer, !vm.ref<!hal.pipeline_layout> ...) -> !vm.ref<!hal.executable>
    vm.br ^bb3(%ref_3 : !vm.ref<!hal.executable>)
  ^bb2:  // pred: ^bb0
    vm.br ^bb3(%null : !vm.ref<!hal.executable>)
  ^bb3(%4: !vm.ref<!hal.executable>):  // 2 preds: ^bb1, ^bb2
    vm.global.store.ref %4, @_executable_llvm_module_linked_llvm_cpu : !vm.ref<!hal.executable>
    vm.return
  }
}

// -----// IR Dump After Canonicalizer (canonicalize) //----- //
vm.module public @module {
  vm.global.i32 private mutable @_device_query_0 : i32
  vm.global.ref private mutable @_pipeline_layout_0 : !vm.ref<!hal.pipeline_layout>
  vm.global.ref private mutable @_executable_llvm_module_linked_llvm_cpu : !vm.ref<!hal.executable>
  vm.rodata private @llvm_module_linked_llvm_cpu_static {alignment = 16 : i64} dense<[108, 108, 118, 109, 95, 109, 111, 100, 117, 108, 101, 95, 108, 105, 110, 107, 101, 100, 95, 108, 108, 118, 109, 95, 99, 112, 117]> : vector<27xi8>
  vm.rodata private @_utf8_hal_executable_format_EAB228F999C2D3A1 {alignment = 1 : i64} "hal.executable.format"
  vm.rodata private @_utf8_static_96B31E405495E0B6 {alignment = 1 : i64} "static"
  vm.import private @hal.ex.shared_device() -> !vm.ref<!hal.device> attributes {nosideeffects}
  vm.import private @hal.allocator.allocate(%allocator : !vm.ref<!hal.allocator>, %memory_types : i32, %buffer_usage : i32, %allocation_size : i64) -> !vm.ref<!hal.buffer>
  vm.import private @hal.buffer.assert(%buffer : !vm.ref<!hal.buffer>, %message : !vm.buffer, %allocator : !vm.ref<!hal.allocator>, %minimum_length : i64, %memory_types : i32, %buffer_usage : i32)
  vm.import private @hal.buffer_view.create(%buffer : !vm.ref<!hal.buffer>, %source_offset : i64, %source_length : i64, %element_type : i32, %encoding_type : i32, %shape : i64 ...) -> !vm.ref<!hal.buffer_view> attributes {nosideeffects}
  vm.import private @hal.buffer_view.assert(%buffer_view : !vm.ref<!hal.buffer_view>, %message : !vm.buffer, %element_type : i32, %encoding_type : i32, %shape : i64 ...)
  vm.import private @hal.buffer_view.buffer(%buffer_view : !vm.ref<!hal.buffer_view>) -> !vm.ref<!hal.buffer> attributes {nosideeffects}
  vm.import private @hal.command_buffer.create(%device : !vm.ref<!hal.device>, %modes : i32, %command_categories : i32, %binding_capacity : i32) -> !vm.ref<!hal.command_buffer>
  vm.import private @hal.command_buffer.finalize(%command_buffer : !vm.ref<!hal.command_buffer>)
  vm.import private @hal.command_buffer.execution_barrier(%command_buffer : !vm.ref<!hal.command_buffer>, %source_stage_mask : i32, %target_stage_mask : i32, %flags : i32)
  vm.import private @hal.command_buffer.push_descriptor_set(%command_buffer : !vm.ref<!hal.command_buffer>, %pipeline_layout : !vm.ref<!hal.pipeline_layout>, %set : i32, %bindings : tuple<i32, i32, !vm.ref<!hal.buffer>, i64, i64> ...)
  vm.import private @hal.command_buffer.dispatch(%command_buffer : !vm.ref<!hal.command_buffer>, %executable : !vm.ref<!hal.executable>, %entry_point : i32, %workgroup_x : i32, %workgroup_y : i32, %workgroup_z : i32)
  vm.import private @hal.descriptor_set_layout.create(%device : !vm.ref<!hal.device>, %flags : i32, %bindings : tuple<i32, i32, i32> ...) -> !vm.ref<!hal.descriptor_set_layout> attributes {nosideeffects}
  vm.import private @hal.device.allocator(%device : !vm.ref<!hal.device>) -> !vm.ref<!hal.allocator> attributes {nosideeffects}
  vm.import private @hal.device.query.i64(%device : !vm.ref<!hal.device>, %category : !vm.buffer, %key : !vm.buffer) -> (i32, i64) attributes {nosideeffects}
  vm.import private @hal.device.queue.alloca(%device : !vm.ref<!hal.device>, %queue_affinity : i64, %wait_fence : !vm.ref<!hal.fence>, %signal_fence : !vm.ref<!hal.fence>, %pool : i32, %memory_types : i32, %buffer_usage : i32, %allocation_size : i64) -> !vm.ref<!hal.buffer>
  vm.import private @hal.device.queue.dealloca(%device : !vm.ref<!hal.device>, %queue_affinity : i64, %wait_fence : !vm.ref<!hal.fence>, %signal_fence : !vm.ref<!hal.fence>, %buffer : !vm.ref<!hal.buffer>)
  vm.import private @hal.device.queue.execute(%device : !vm.ref<!hal.device>, %queue_affinity : i64, %wait_fence : !vm.ref<!hal.fence>, %signal_fence : !vm.ref<!hal.fence>, %command_buffers : !vm.ref<!hal.command_buffer> ...)
  vm.import private @hal.executable.create(%device : !vm.ref<!hal.device>, %executable_format : !vm.buffer, %executable_data : !vm.buffer, %constants : !vm.buffer, %pipeline_layouts : !vm.ref<!hal.pipeline_layout> ...) -> !vm.ref<!hal.executable> attributes {nosideeffects}
  vm.import private @hal.fence.create(%device : !vm.ref<!hal.device>, %flags : i32) -> !vm.ref<!hal.fence>
  vm.import private @hal.fence.await(%timeout_millis : i32, %fences : !vm.ref<!hal.fence> ...) -> i32 attributes {vm.yield}
  vm.import private @hal.pipeline_layout.create(%device : !vm.ref<!hal.device>, %push_constants : i32, %set_layouts : !vm.ref<!hal.descriptor_set_layout> ...) -> !vm.ref<!hal.pipeline_layout> attributes {nosideeffects}
  vm.rodata private @_utf8_input_0_5FD512E67BEFDEEC {alignment = 1 : i64} "input 0"
  vm.rodata private @_utf8_tensor_3C6209B4FD120BDC {alignment = 1 : i64} "tensor"
  vm.func private @main(%arg0: !vm.ref<!hal.buffer_view>) -> !vm.ref<!hal.buffer_view> {
    %c2 = vm.const.i32 2
    %c13 = vm.const.i32 13
    %c28 = vm.const.i32 28
    %c3 = vm.const.i32 3
    %c48 = vm.const.i32 48
    %zero = vm.const.i32.zero
    %null = vm.const.ref.zero : !vm.ref<!hal.fence>
    %c150998019 = vm.const.i32 150998019
    %c50 = vm.const.i32 50
    %c3075 = vm.const.i32 3075
    %c16 = vm.const.i32 16
    %c1 = vm.const.i64 1
    %c1_0 = vm.const.i32 1
    %c268435464 = vm.const.i32 268435464
    %zero_1 = vm.const.i64.zero
    %c2_2 = vm.const.i64 2
    %c128 = vm.const.i64 128
    %c-1 = vm.const.i64 -1
    %c-1_3 = vm.const.i32 -1
    %_device_query_0 = vm.global.load.i32 @_device_query_0 : i32
    %_pipeline_layout_0 = vm.global.load.ref @_pipeline_layout_0 : !vm.ref<!hal.pipeline_layout>
    %_executable_llvm_module_linked_llvm_cpu = vm.global.load.ref @_executable_llvm_module_linked_llvm_cpu : !vm.ref<!hal.executable>
    %_utf8_input_0_5FD512E67BEFDEEC = vm.const.ref.rodata @_utf8_input_0_5FD512E67BEFDEEC : !vm.buffer
    vm.call.variadic @hal.buffer_view.assert(%arg0, %_utf8_input_0_5FD512E67BEFDEEC, %c268435464, %c1_0, [%c1, %c2_2]) : (!vm.ref<!hal.buffer_view>, !vm.buffer, i32, i32, i64 ...)
    %ref = vm.call @hal.buffer_view.buffer(%arg0) {nosideeffects} : (!vm.ref<!hal.buffer_view>) -> !vm.ref<!hal.buffer>
    %ref_4 = vm.call @hal.ex.shared_device() {nosideeffects} : () -> !vm.ref<!hal.device>
    %ref_5 = vm.call @hal.device.allocator(%ref_4) {nosideeffects} : (!vm.ref<!hal.device>) -> !vm.ref<!hal.allocator>
    %_utf8_tensor_3C6209B4FD120BDC = vm.const.ref.rodata @_utf8_tensor_3C6209B4FD120BDC : !vm.buffer
    vm.call @hal.buffer.assert(%ref, %_utf8_tensor_3C6209B4FD120BDC, %ref_5, %c2_2, %c16, %c3075) : (!vm.ref<!hal.buffer>, !vm.buffer, !vm.ref<!hal.allocator>, i64, i32, i32) -> ()
    %ref_6 = vm.call @hal.allocator.allocate(%ref_5, %c50, %c150998019, %c2_2) : (!vm.ref<!hal.allocator>, i32, i32, i64) -> !vm.ref<!hal.buffer>
    %ref_7 = vm.call @hal.fence.create(%ref_4, %zero) : (!vm.ref<!hal.device>, i32) -> !vm.ref<!hal.fence>
    %ref_8 = vm.call @hal.device.queue.alloca(%ref_4, %c-1, %null, %ref_7, %zero, %c48, %c3075, %c128) : (!vm.ref<!hal.device>, i64, !vm.ref<!hal.fence>, !vm.ref<!hal.fence>, i32, i32, i32, i64) -> !vm.ref<!hal.buffer>
    %ref_9 = vm.call @hal.command_buffer.create(%ref_4, %c1_0, %c3, %zero) : (!vm.ref<!hal.device>, i32, i32, i32) -> !vm.ref<!hal.command_buffer>
    vm.cond_br %_device_query_0, ^bb1, ^bb4
  ^bb1:  // pred: ^bb0
    vm.call.variadic @hal.command_buffer.push_descriptor_set(%ref_9, %_pipeline_layout_0, %zero, [(%zero, %zero, %ref, %zero_1, %c2_2), (%c1_0, %zero, %ref_8, %zero_1, %c128)]) : (!vm.ref<!hal.command_buffer>, !vm.ref<!hal.pipeline_layout>, i32, tuple<i32, i32, !vm.ref<!hal.buffer>, i64, i64> ...)
    vm.call @hal.command_buffer.dispatch(%ref_9, %_executable_llvm_module_linked_llvm_cpu, %zero, %c1_0, %c1_0, %c1_0) : (!vm.ref<!hal.command_buffer>, !vm.ref<!hal.executable>, i32, i32, i32, i32) -> ()
    vm.call @hal.command_buffer.execution_barrier(%ref_9, %c28, %c13, %zero) : (!vm.ref<!hal.command_buffer>, i32, i32, i32) -> ()
    vm.call.variadic @hal.command_buffer.push_descriptor_set(%ref_9, %_pipeline_layout_0, %zero, [(%zero, %zero, %ref_8, %zero_1, %c128), (%c1_0, %zero, %ref_8, %zero_1, %c128)]) : (!vm.ref<!hal.command_buffer>, !vm.ref<!hal.pipeline_layout>, i32, tuple<i32, i32, !vm.ref<!hal.buffer>, i64, i64> ...)
    vm.call @hal.command_buffer.dispatch(%ref_9, %_executable_llvm_module_linked_llvm_cpu, %c1_0, %c1_0, %c1_0, %c1_0) : (!vm.ref<!hal.command_buffer>, !vm.ref<!hal.executable>, i32, i32, i32, i32) -> ()
    vm.call @hal.command_buffer.execution_barrier(%ref_9, %c28, %c13, %zero) : (!vm.ref<!hal.command_buffer>, i32, i32, i32) -> ()
    vm.call.variadic @hal.command_buffer.push_descriptor_set(%ref_9, %_pipeline_layout_0, %zero, [(%zero, %zero, %ref_8, %zero_1, %c128), (%c1_0, %zero, %ref_6, %zero_1, %c2_2)]) : (!vm.ref<!hal.command_buffer>, !vm.ref<!hal.pipeline_layout>, i32, tuple<i32, i32, !vm.ref<!hal.buffer>, i64, i64> ...)
    vm.call @hal.command_buffer.dispatch(%ref_9, %_executable_llvm_module_linked_llvm_cpu, %c2, %c1_0, %c1_0, %c1_0) : (!vm.ref<!hal.command_buffer>, !vm.ref<!hal.executable>, i32, i32, i32, i32) -> ()
    vm.call @hal.command_buffer.execution_barrier(%ref_9, %c28, %c13, %zero) : (!vm.ref<!hal.command_buffer>, i32, i32, i32) -> ()
    vm.call @hal.command_buffer.finalize(%ref_9) : (!vm.ref<!hal.command_buffer>) -> ()
    %ref_10 = vm.call @hal.fence.create(%ref_4, %zero) : (!vm.ref<!hal.device>, i32) -> !vm.ref<!hal.fence>
    vm.call.variadic @hal.device.queue.execute(%ref_4, %c-1, %ref_7, %ref_10, [%ref_9]) : (!vm.ref<!hal.device>, i64, !vm.ref<!hal.fence>, !vm.ref<!hal.fence>, !vm.ref<!hal.command_buffer> ...)
    %ref_11 = vm.call @hal.fence.create(%ref_4, %zero) : (!vm.ref<!hal.device>, i32) -> !vm.ref<!hal.fence>
    vm.call @hal.device.queue.dealloca(%ref_4, %c-1, %ref_10, %ref_11, %ref_8) : (!vm.ref<!hal.device>, i64, !vm.ref<!hal.fence>, !vm.ref<!hal.fence>, !vm.ref<!hal.buffer>) -> ()
    %0 = vm.call.variadic @hal.fence.await(%c-1_3, [%ref_11]) : (i32, !vm.ref<!hal.fence> ...) -> i32
    vm.cond_br %0, ^bb3, ^bb2
  ^bb2:  // pred: ^bb1
    %ref_12 = vm.call.variadic @hal.buffer_view.create(%ref_6, %zero_1, %c2_2, %c268435464, %c1_0, [%c1, %c2_2]) {nosideeffects} : (!vm.ref<!hal.buffer>, i64, i64, i32, i32, i64 ...) -> !vm.ref<!hal.buffer_view>
    vm.return %ref_12 : !vm.ref<!hal.buffer_view>
  ^bb3:  // pred: ^bb1
    vm.fail %0, "failed to wait on timepoint"
  ^bb4:  // pred: ^bb0
    vm.fail %c2, "device not supported in the compiled configuration"
  }
  vm.export @main attributes {iree.abi.stub}
  vm.export @__init
  vm.func private @__init() {
    %null = vm.const.ref.zero : !vm.ref<!hal.executable>
    %null_0 = vm.const.ref.zero : !vm.buffer
    %c7 = vm.const.i32 7
    %zero = vm.const.i32.zero
    %c1 = vm.const.i32 1
    %ref = vm.call @hal.ex.shared_device() {nosideeffects} : () -> !vm.ref<!hal.device>
    %_utf8_hal_executable_format_EAB228F999C2D3A1 = vm.const.ref.rodata @_utf8_hal_executable_format_EAB228F999C2D3A1 : !vm.buffer
    %_utf8_static_96B31E405495E0B6 = vm.const.ref.rodata @_utf8_static_96B31E405495E0B6 : !vm.buffer
    %0:2 = vm.call @hal.device.query.i64(%ref, %_utf8_hal_executable_format_EAB228F999C2D3A1, %_utf8_static_96B31E405495E0B6) {nosideeffects} : (!vm.ref<!hal.device>, !vm.buffer, !vm.buffer) -> (i32, i64)
    %1 = vm.trunc.i64.i32 %0#1 : i64 -> i32
    %2 = vm.and.i32 %1, %c1 : i32
    %3 = vm.select.i32 %0#0, %2, %zero : i32
    %ref_1 = vm.call.variadic @hal.descriptor_set_layout.create(%ref, %zero, [(%zero, %c7, %c1), (%c1, %c7, %zero)]) {nosideeffects} : (!vm.ref<!hal.device>, i32, tuple<i32, i32, i32> ...) -> !vm.ref<!hal.descriptor_set_layout>
    %ref_2 = vm.call.variadic @hal.pipeline_layout.create(%ref, %zero, [%ref_1]) {nosideeffects} : (!vm.ref<!hal.device>, i32, !vm.ref<!hal.descriptor_set_layout> ...) -> !vm.ref<!hal.pipeline_layout>
    vm.global.store.i32 %3, @_device_query_0 : i32
    vm.global.store.ref %ref_2, @_pipeline_layout_0 : !vm.ref<!hal.pipeline_layout>
    vm.cond_br %3, ^bb1, ^bb2
  ^bb1:  // pred: ^bb0
    %_pipeline_layout_0 = vm.global.load.ref @_pipeline_layout_0 : !vm.ref<!hal.pipeline_layout>
    %llvm_module_linked_llvm_cpu_static = vm.const.ref.rodata @llvm_module_linked_llvm_cpu_static : !vm.buffer
    %ref_3 = vm.call.variadic @hal.executable.create(%ref, %_utf8_static_96B31E405495E0B6, %llvm_module_linked_llvm_cpu_static, %null_0, [%_pipeline_layout_0, %_pipeline_layout_0, %_pipeline_layout_0]) {nosideeffects} : (!vm.ref<!hal.device>, !vm.buffer, !vm.buffer, !vm.buffer, !vm.ref<!hal.pipeline_layout> ...) -> !vm.ref<!hal.executable>
    vm.br ^bb3(%ref_3 : !vm.ref<!hal.executable>)
  ^bb2:  // pred: ^bb0
    vm.br ^bb3(%null : !vm.ref<!hal.executable>)
  ^bb3(%4: !vm.ref<!hal.executable>):  // 2 preds: ^bb1, ^bb2
    vm.global.store.ref %4, @_executable_llvm_module_linked_llvm_cpu : !vm.ref<!hal.executable>
    vm.return
  }
}

// -----// IR Dump After DropCompilerHints (iree-util-drop-compiler-hints) //----- //
vm.module public @module {
  vm.global.i32 private mutable @_device_query_0 : i32
  vm.global.ref private mutable @_pipeline_layout_0 : !vm.ref<!hal.pipeline_layout>
  vm.global.ref private mutable @_executable_llvm_module_linked_llvm_cpu : !vm.ref<!hal.executable>
  vm.rodata private @llvm_module_linked_llvm_cpu_static {alignment = 16 : i64} dense<[108, 108, 118, 109, 95, 109, 111, 100, 117, 108, 101, 95, 108, 105, 110, 107, 101, 100, 95, 108, 108, 118, 109, 95, 99, 112, 117]> : vector<27xi8>
  vm.rodata private @_utf8_hal_executable_format_EAB228F999C2D3A1 {alignment = 1 : i64} "hal.executable.format"
  vm.rodata private @_utf8_static_96B31E405495E0B6 {alignment = 1 : i64} "static"
  vm.import private @hal.ex.shared_device() -> !vm.ref<!hal.device> attributes {nosideeffects}
  vm.import private @hal.allocator.allocate(%allocator : !vm.ref<!hal.allocator>, %memory_types : i32, %buffer_usage : i32, %allocation_size : i64) -> !vm.ref<!hal.buffer>
  vm.import private @hal.buffer.assert(%buffer : !vm.ref<!hal.buffer>, %message : !vm.buffer, %allocator : !vm.ref<!hal.allocator>, %minimum_length : i64, %memory_types : i32, %buffer_usage : i32)
  vm.import private @hal.buffer_view.create(%buffer : !vm.ref<!hal.buffer>, %source_offset : i64, %source_length : i64, %element_type : i32, %encoding_type : i32, %shape : i64 ...) -> !vm.ref<!hal.buffer_view> attributes {nosideeffects}
  vm.import private @hal.buffer_view.assert(%buffer_view : !vm.ref<!hal.buffer_view>, %message : !vm.buffer, %element_type : i32, %encoding_type : i32, %shape : i64 ...)
  vm.import private @hal.buffer_view.buffer(%buffer_view : !vm.ref<!hal.buffer_view>) -> !vm.ref<!hal.buffer> attributes {nosideeffects}
  vm.import private @hal.command_buffer.create(%device : !vm.ref<!hal.device>, %modes : i32, %command_categories : i32, %binding_capacity : i32) -> !vm.ref<!hal.command_buffer>
  vm.import private @hal.command_buffer.finalize(%command_buffer : !vm.ref<!hal.command_buffer>)
  vm.import private @hal.command_buffer.execution_barrier(%command_buffer : !vm.ref<!hal.command_buffer>, %source_stage_mask : i32, %target_stage_mask : i32, %flags : i32)
  vm.import private @hal.command_buffer.push_descriptor_set(%command_buffer : !vm.ref<!hal.command_buffer>, %pipeline_layout : !vm.ref<!hal.pipeline_layout>, %set : i32, %bindings : tuple<i32, i32, !vm.ref<!hal.buffer>, i64, i64> ...)
  vm.import private @hal.command_buffer.dispatch(%command_buffer : !vm.ref<!hal.command_buffer>, %executable : !vm.ref<!hal.executable>, %entry_point : i32, %workgroup_x : i32, %workgroup_y : i32, %workgroup_z : i32)
  vm.import private @hal.descriptor_set_layout.create(%device : !vm.ref<!hal.device>, %flags : i32, %bindings : tuple<i32, i32, i32> ...) -> !vm.ref<!hal.descriptor_set_layout> attributes {nosideeffects}
  vm.import private @hal.device.allocator(%device : !vm.ref<!hal.device>) -> !vm.ref<!hal.allocator> attributes {nosideeffects}
  vm.import private @hal.device.query.i64(%device : !vm.ref<!hal.device>, %category : !vm.buffer, %key : !vm.buffer) -> (i32, i64) attributes {nosideeffects}
  vm.import private @hal.device.queue.alloca(%device : !vm.ref<!hal.device>, %queue_affinity : i64, %wait_fence : !vm.ref<!hal.fence>, %signal_fence : !vm.ref<!hal.fence>, %pool : i32, %memory_types : i32, %buffer_usage : i32, %allocation_size : i64) -> !vm.ref<!hal.buffer>
  vm.import private @hal.device.queue.dealloca(%device : !vm.ref<!hal.device>, %queue_affinity : i64, %wait_fence : !vm.ref<!hal.fence>, %signal_fence : !vm.ref<!hal.fence>, %buffer : !vm.ref<!hal.buffer>)
  vm.import private @hal.device.queue.execute(%device : !vm.ref<!hal.device>, %queue_affinity : i64, %wait_fence : !vm.ref<!hal.fence>, %signal_fence : !vm.ref<!hal.fence>, %command_buffers : !vm.ref<!hal.command_buffer> ...)
  vm.import private @hal.executable.create(%device : !vm.ref<!hal.device>, %executable_format : !vm.buffer, %executable_data : !vm.buffer, %constants : !vm.buffer, %pipeline_layouts : !vm.ref<!hal.pipeline_layout> ...) -> !vm.ref<!hal.executable> attributes {nosideeffects}
  vm.import private @hal.fence.create(%device : !vm.ref<!hal.device>, %flags : i32) -> !vm.ref<!hal.fence>
  vm.import private @hal.fence.await(%timeout_millis : i32, %fences : !vm.ref<!hal.fence> ...) -> i32 attributes {vm.yield}
  vm.import private @hal.pipeline_layout.create(%device : !vm.ref<!hal.device>, %push_constants : i32, %set_layouts : !vm.ref<!hal.descriptor_set_layout> ...) -> !vm.ref<!hal.pipeline_layout> attributes {nosideeffects}
  vm.rodata private @_utf8_input_0_5FD512E67BEFDEEC {alignment = 1 : i64} "input 0"
  vm.rodata private @_utf8_tensor_3C6209B4FD120BDC {alignment = 1 : i64} "tensor"
  vm.func private @main(%arg0: !vm.ref<!hal.buffer_view>) -> !vm.ref<!hal.buffer_view> {
    %c2 = vm.const.i32 2
    %c13 = vm.const.i32 13
    %c28 = vm.const.i32 28
    %c3 = vm.const.i32 3
    %c48 = vm.const.i32 48
    %zero = vm.const.i32.zero
    %null = vm.const.ref.zero : !vm.ref<!hal.fence>
    %c150998019 = vm.const.i32 150998019
    %c50 = vm.const.i32 50
    %c3075 = vm.const.i32 3075
    %c16 = vm.const.i32 16
    %c1 = vm.const.i64 1
    %c1_0 = vm.const.i32 1
    %c268435464 = vm.const.i32 268435464
    %zero_1 = vm.const.i64.zero
    %c2_2 = vm.const.i64 2
    %c128 = vm.const.i64 128
    %c-1 = vm.const.i64 -1
    %c-1_3 = vm.const.i32 -1
    %_device_query_0 = vm.global.load.i32 @_device_query_0 : i32
    %_pipeline_layout_0 = vm.global.load.ref @_pipeline_layout_0 : !vm.ref<!hal.pipeline_layout>
    %_executable_llvm_module_linked_llvm_cpu = vm.global.load.ref @_executable_llvm_module_linked_llvm_cpu : !vm.ref<!hal.executable>
    %_utf8_input_0_5FD512E67BEFDEEC = vm.const.ref.rodata @_utf8_input_0_5FD512E67BEFDEEC : !vm.buffer
    vm.call.variadic @hal.buffer_view.assert(%arg0, %_utf8_input_0_5FD512E67BEFDEEC, %c268435464, %c1_0, [%c1, %c2_2]) : (!vm.ref<!hal.buffer_view>, !vm.buffer, i32, i32, i64 ...)
    %ref = vm.call @hal.buffer_view.buffer(%arg0) {nosideeffects} : (!vm.ref<!hal.buffer_view>) -> !vm.ref<!hal.buffer>
    %ref_4 = vm.call @hal.ex.shared_device() {nosideeffects} : () -> !vm.ref<!hal.device>
    %ref_5 = vm.call @hal.device.allocator(%ref_4) {nosideeffects} : (!vm.ref<!hal.device>) -> !vm.ref<!hal.allocator>
    %_utf8_tensor_3C6209B4FD120BDC = vm.const.ref.rodata @_utf8_tensor_3C6209B4FD120BDC : !vm.buffer
    vm.call @hal.buffer.assert(%ref, %_utf8_tensor_3C6209B4FD120BDC, %ref_5, %c2_2, %c16, %c3075) : (!vm.ref<!hal.buffer>, !vm.buffer, !vm.ref<!hal.allocator>, i64, i32, i32) -> ()
    %ref_6 = vm.call @hal.allocator.allocate(%ref_5, %c50, %c150998019, %c2_2) : (!vm.ref<!hal.allocator>, i32, i32, i64) -> !vm.ref<!hal.buffer>
    %ref_7 = vm.call @hal.fence.create(%ref_4, %zero) : (!vm.ref<!hal.device>, i32) -> !vm.ref<!hal.fence>
    %ref_8 = vm.call @hal.device.queue.alloca(%ref_4, %c-1, %null, %ref_7, %zero, %c48, %c3075, %c128) : (!vm.ref<!hal.device>, i64, !vm.ref<!hal.fence>, !vm.ref<!hal.fence>, i32, i32, i32, i64) -> !vm.ref<!hal.buffer>
    %ref_9 = vm.call @hal.command_buffer.create(%ref_4, %c1_0, %c3, %zero) : (!vm.ref<!hal.device>, i32, i32, i32) -> !vm.ref<!hal.command_buffer>
    vm.cond_br %_device_query_0, ^bb1, ^bb4
  ^bb1:  // pred: ^bb0
    vm.call.variadic @hal.command_buffer.push_descriptor_set(%ref_9, %_pipeline_layout_0, %zero, [(%zero, %zero, %ref, %zero_1, %c2_2), (%c1_0, %zero, %ref_8, %zero_1, %c128)]) : (!vm.ref<!hal.command_buffer>, !vm.ref<!hal.pipeline_layout>, i32, tuple<i32, i32, !vm.ref<!hal.buffer>, i64, i64> ...)
    vm.call @hal.command_buffer.dispatch(%ref_9, %_executable_llvm_module_linked_llvm_cpu, %zero, %c1_0, %c1_0, %c1_0) : (!vm.ref<!hal.command_buffer>, !vm.ref<!hal.executable>, i32, i32, i32, i32) -> ()
    vm.call @hal.command_buffer.execution_barrier(%ref_9, %c28, %c13, %zero) : (!vm.ref<!hal.command_buffer>, i32, i32, i32) -> ()
    vm.call.variadic @hal.command_buffer.push_descriptor_set(%ref_9, %_pipeline_layout_0, %zero, [(%zero, %zero, %ref_8, %zero_1, %c128), (%c1_0, %zero, %ref_8, %zero_1, %c128)]) : (!vm.ref<!hal.command_buffer>, !vm.ref<!hal.pipeline_layout>, i32, tuple<i32, i32, !vm.ref<!hal.buffer>, i64, i64> ...)
    vm.call @hal.command_buffer.dispatch(%ref_9, %_executable_llvm_module_linked_llvm_cpu, %c1_0, %c1_0, %c1_0, %c1_0) : (!vm.ref<!hal.command_buffer>, !vm.ref<!hal.executable>, i32, i32, i32, i32) -> ()
    vm.call @hal.command_buffer.execution_barrier(%ref_9, %c28, %c13, %zero) : (!vm.ref<!hal.command_buffer>, i32, i32, i32) -> ()
    vm.call.variadic @hal.command_buffer.push_descriptor_set(%ref_9, %_pipeline_layout_0, %zero, [(%zero, %zero, %ref_8, %zero_1, %c128), (%c1_0, %zero, %ref_6, %zero_1, %c2_2)]) : (!vm.ref<!hal.command_buffer>, !vm.ref<!hal.pipeline_layout>, i32, tuple<i32, i32, !vm.ref<!hal.buffer>, i64, i64> ...)
    vm.call @hal.command_buffer.dispatch(%ref_9, %_executable_llvm_module_linked_llvm_cpu, %c2, %c1_0, %c1_0, %c1_0) : (!vm.ref<!hal.command_buffer>, !vm.ref<!hal.executable>, i32, i32, i32, i32) -> ()
    vm.call @hal.command_buffer.execution_barrier(%ref_9, %c28, %c13, %zero) : (!vm.ref<!hal.command_buffer>, i32, i32, i32) -> ()
    vm.call @hal.command_buffer.finalize(%ref_9) : (!vm.ref<!hal.command_buffer>) -> ()
    %ref_10 = vm.call @hal.fence.create(%ref_4, %zero) : (!vm.ref<!hal.device>, i32) -> !vm.ref<!hal.fence>
    vm.call.variadic @hal.device.queue.execute(%ref_4, %c-1, %ref_7, %ref_10, [%ref_9]) : (!vm.ref<!hal.device>, i64, !vm.ref<!hal.fence>, !vm.ref<!hal.fence>, !vm.ref<!hal.command_buffer> ...)
    %ref_11 = vm.call @hal.fence.create(%ref_4, %zero) : (!vm.ref<!hal.device>, i32) -> !vm.ref<!hal.fence>
    vm.call @hal.device.queue.dealloca(%ref_4, %c-1, %ref_10, %ref_11, %ref_8) : (!vm.ref<!hal.device>, i64, !vm.ref<!hal.fence>, !vm.ref<!hal.fence>, !vm.ref<!hal.buffer>) -> ()
    %0 = vm.call.variadic @hal.fence.await(%c-1_3, [%ref_11]) : (i32, !vm.ref<!hal.fence> ...) -> i32
    vm.cond_br %0, ^bb3, ^bb2
  ^bb2:  // pred: ^bb1
    %ref_12 = vm.call.variadic @hal.buffer_view.create(%ref_6, %zero_1, %c2_2, %c268435464, %c1_0, [%c1, %c2_2]) {nosideeffects} : (!vm.ref<!hal.buffer>, i64, i64, i32, i32, i64 ...) -> !vm.ref<!hal.buffer_view>
    vm.return %ref_12 : !vm.ref<!hal.buffer_view>
  ^bb3:  // pred: ^bb1
    vm.fail %0, "failed to wait on timepoint"
  ^bb4:  // pred: ^bb0
    vm.fail %c2, "device not supported in the compiled configuration"
  }
  vm.export @main attributes {iree.abi.stub}
  vm.export @__init
  vm.func private @__init() {
    %null = vm.const.ref.zero : !vm.ref<!hal.executable>
    %null_0 = vm.const.ref.zero : !vm.buffer
    %c7 = vm.const.i32 7
    %zero = vm.const.i32.zero
    %c1 = vm.const.i32 1
    %ref = vm.call @hal.ex.shared_device() {nosideeffects} : () -> !vm.ref<!hal.device>
    %_utf8_hal_executable_format_EAB228F999C2D3A1 = vm.const.ref.rodata @_utf8_hal_executable_format_EAB228F999C2D3A1 : !vm.buffer
    %_utf8_static_96B31E405495E0B6 = vm.const.ref.rodata @_utf8_static_96B31E405495E0B6 : !vm.buffer
    %0:2 = vm.call @hal.device.query.i64(%ref, %_utf8_hal_executable_format_EAB228F999C2D3A1, %_utf8_static_96B31E405495E0B6) {nosideeffects} : (!vm.ref<!hal.device>, !vm.buffer, !vm.buffer) -> (i32, i64)
    %1 = vm.trunc.i64.i32 %0#1 : i64 -> i32
    %2 = vm.and.i32 %1, %c1 : i32
    %3 = vm.select.i32 %0#0, %2, %zero : i32
    %ref_1 = vm.call.variadic @hal.descriptor_set_layout.create(%ref, %zero, [(%zero, %c7, %c1), (%c1, %c7, %zero)]) {nosideeffects} : (!vm.ref<!hal.device>, i32, tuple<i32, i32, i32> ...) -> !vm.ref<!hal.descriptor_set_layout>
    %ref_2 = vm.call.variadic @hal.pipeline_layout.create(%ref, %zero, [%ref_1]) {nosideeffects} : (!vm.ref<!hal.device>, i32, !vm.ref<!hal.descriptor_set_layout> ...) -> !vm.ref<!hal.pipeline_layout>
    vm.global.store.i32 %3, @_device_query_0 : i32
    vm.global.store.ref %ref_2, @_pipeline_layout_0 : !vm.ref<!hal.pipeline_layout>
    vm.cond_br %3, ^bb1, ^bb2
  ^bb1:  // pred: ^bb0
    %_pipeline_layout_0 = vm.global.load.ref @_pipeline_layout_0 : !vm.ref<!hal.pipeline_layout>
    %llvm_module_linked_llvm_cpu_static = vm.const.ref.rodata @llvm_module_linked_llvm_cpu_static : !vm.buffer
    %ref_3 = vm.call.variadic @hal.executable.create(%ref, %_utf8_static_96B31E405495E0B6, %llvm_module_linked_llvm_cpu_static, %null_0, [%_pipeline_layout_0, %_pipeline_layout_0, %_pipeline_layout_0]) {nosideeffects} : (!vm.ref<!hal.device>, !vm.buffer, !vm.buffer, !vm.buffer, !vm.ref<!hal.pipeline_layout> ...) -> !vm.ref<!hal.executable>
    vm.br ^bb3(%ref_3 : !vm.ref<!hal.executable>)
  ^bb2:  // pred: ^bb0
    vm.br ^bb3(%null : !vm.ref<!hal.executable>)
  ^bb3(%4: !vm.ref<!hal.executable>):  // 2 preds: ^bb1, ^bb2
    vm.global.store.ref %4, @_executable_llvm_module_linked_llvm_cpu : !vm.ref<!hal.executable>
    vm.return
  }
}

// -----// IR Dump After mlir::iree_compiler::IREE::VM::OrdinalAllocationPass (iree-vm-ordinal-allocation) //----- //
vm.module public @module attributes {ordinal_counts = #vm.ordinal_counts<import_funcs = 21, export_funcs = 2, internal_funcs = 2, global_bytes = 4, global_refs = 2, rodatas = 5, rwdatas = 0>} {
  vm.global.i32 private mutable @_device_query_0 {ordinal = 0 : i32} : i32
  vm.global.ref private mutable @_pipeline_layout_0 {ordinal = 0 : i32} : !vm.ref<!hal.pipeline_layout>
  vm.global.ref private mutable @_executable_llvm_module_linked_llvm_cpu {ordinal = 1 : i32} : !vm.ref<!hal.executable>
  vm.rodata private @llvm_module_linked_llvm_cpu_static {alignment = 16 : i64, ordinal = 0 : i32} dense<[108, 108, 118, 109, 95, 109, 111, 100, 117, 108, 101, 95, 108, 105, 110, 107, 101, 100, 95, 108, 108, 118, 109, 95, 99, 112, 117]> : vector<27xi8>
  vm.rodata private @_utf8_hal_executable_format_EAB228F999C2D3A1 {alignment = 1 : i64, ordinal = 1 : i32} "hal.executable.format"
  vm.rodata private @_utf8_static_96B31E405495E0B6 {alignment = 1 : i64, ordinal = 2 : i32} "static"
  vm.import private @hal.ex.shared_device() -> !vm.ref<!hal.device> attributes {nosideeffects, ordinal = 0 : i32}
  vm.import private @hal.allocator.allocate(%allocator : !vm.ref<!hal.allocator>, %memory_types : i32, %buffer_usage : i32, %allocation_size : i64) -> !vm.ref<!hal.buffer> attributes {ordinal = 1 : i32}
  vm.import private @hal.buffer.assert(%buffer : !vm.ref<!hal.buffer>, %message : !vm.buffer, %allocator : !vm.ref<!hal.allocator>, %minimum_length : i64, %memory_types : i32, %buffer_usage : i32) attributes {ordinal = 2 : i32}
  vm.import private @hal.buffer_view.create(%buffer : !vm.ref<!hal.buffer>, %source_offset : i64, %source_length : i64, %element_type : i32, %encoding_type : i32, %shape : i64 ...) -> !vm.ref<!hal.buffer_view> attributes {nosideeffects, ordinal = 3 : i32}
  vm.import private @hal.buffer_view.assert(%buffer_view : !vm.ref<!hal.buffer_view>, %message : !vm.buffer, %element_type : i32, %encoding_type : i32, %shape : i64 ...) attributes {ordinal = 4 : i32}
  vm.import private @hal.buffer_view.buffer(%buffer_view : !vm.ref<!hal.buffer_view>) -> !vm.ref<!hal.buffer> attributes {nosideeffects, ordinal = 5 : i32}
  vm.import private @hal.command_buffer.create(%device : !vm.ref<!hal.device>, %modes : i32, %command_categories : i32, %binding_capacity : i32) -> !vm.ref<!hal.command_buffer> attributes {ordinal = 6 : i32}
  vm.import private @hal.command_buffer.finalize(%command_buffer : !vm.ref<!hal.command_buffer>) attributes {ordinal = 7 : i32}
  vm.import private @hal.command_buffer.execution_barrier(%command_buffer : !vm.ref<!hal.command_buffer>, %source_stage_mask : i32, %target_stage_mask : i32, %flags : i32) attributes {ordinal = 8 : i32}
  vm.import private @hal.command_buffer.push_descriptor_set(%command_buffer : !vm.ref<!hal.command_buffer>, %pipeline_layout : !vm.ref<!hal.pipeline_layout>, %set : i32, %bindings : tuple<i32, i32, !vm.ref<!hal.buffer>, i64, i64> ...) attributes {ordinal = 9 : i32}
  vm.import private @hal.command_buffer.dispatch(%command_buffer : !vm.ref<!hal.command_buffer>, %executable : !vm.ref<!hal.executable>, %entry_point : i32, %workgroup_x : i32, %workgroup_y : i32, %workgroup_z : i32) attributes {ordinal = 10 : i32}
  vm.import private @hal.descriptor_set_layout.create(%device : !vm.ref<!hal.device>, %flags : i32, %bindings : tuple<i32, i32, i32> ...) -> !vm.ref<!hal.descriptor_set_layout> attributes {nosideeffects, ordinal = 11 : i32}
  vm.import private @hal.device.allocator(%device : !vm.ref<!hal.device>) -> !vm.ref<!hal.allocator> attributes {nosideeffects, ordinal = 12 : i32}
  vm.import private @hal.device.query.i64(%device : !vm.ref<!hal.device>, %category : !vm.buffer, %key : !vm.buffer) -> (i32, i64) attributes {nosideeffects, ordinal = 13 : i32}
  vm.import private @hal.device.queue.alloca(%device : !vm.ref<!hal.device>, %queue_affinity : i64, %wait_fence : !vm.ref<!hal.fence>, %signal_fence : !vm.ref<!hal.fence>, %pool : i32, %memory_types : i32, %buffer_usage : i32, %allocation_size : i64) -> !vm.ref<!hal.buffer> attributes {ordinal = 14 : i32}
  vm.import private @hal.device.queue.dealloca(%device : !vm.ref<!hal.device>, %queue_affinity : i64, %wait_fence : !vm.ref<!hal.fence>, %signal_fence : !vm.ref<!hal.fence>, %buffer : !vm.ref<!hal.buffer>) attributes {ordinal = 15 : i32}
  vm.import private @hal.device.queue.execute(%device : !vm.ref<!hal.device>, %queue_affinity : i64, %wait_fence : !vm.ref<!hal.fence>, %signal_fence : !vm.ref<!hal.fence>, %command_buffers : !vm.ref<!hal.command_buffer> ...) attributes {ordinal = 16 : i32}
  vm.import private @hal.executable.create(%device : !vm.ref<!hal.device>, %executable_format : !vm.buffer, %executable_data : !vm.buffer, %constants : !vm.buffer, %pipeline_layouts : !vm.ref<!hal.pipeline_layout> ...) -> !vm.ref<!hal.executable> attributes {nosideeffects, ordinal = 17 : i32}
  vm.import private @hal.fence.create(%device : !vm.ref<!hal.device>, %flags : i32) -> !vm.ref<!hal.fence> attributes {ordinal = 18 : i32}
  vm.import private @hal.fence.await(%timeout_millis : i32, %fences : !vm.ref<!hal.fence> ...) -> i32 attributes {ordinal = 19 : i32, vm.yield}
  vm.import private @hal.pipeline_layout.create(%device : !vm.ref<!hal.device>, %push_constants : i32, %set_layouts : !vm.ref<!hal.descriptor_set_layout> ...) -> !vm.ref<!hal.pipeline_layout> attributes {nosideeffects, ordinal = 20 : i32}
  vm.rodata private @_utf8_input_0_5FD512E67BEFDEEC {alignment = 1 : i64, ordinal = 3 : i32} "input 0"
  vm.rodata private @_utf8_tensor_3C6209B4FD120BDC {alignment = 1 : i64, ordinal = 4 : i32} "tensor"
  vm.func private @main(%arg0: !vm.ref<!hal.buffer_view>) -> !vm.ref<!hal.buffer_view> attributes {ordinal = 0 : i32} {
    %c2 = vm.const.i32 2
    %c13 = vm.const.i32 13
    %c28 = vm.const.i32 28
    %c3 = vm.const.i32 3
    %c48 = vm.const.i32 48
    %zero = vm.const.i32.zero
    %null = vm.const.ref.zero : !vm.ref<!hal.fence>
    %c150998019 = vm.const.i32 150998019
    %c50 = vm.const.i32 50
    %c3075 = vm.const.i32 3075
    %c16 = vm.const.i32 16
    %c1 = vm.const.i64 1
    %c1_0 = vm.const.i32 1
    %c268435464 = vm.const.i32 268435464
    %zero_1 = vm.const.i64.zero
    %c2_2 = vm.const.i64 2
    %c128 = vm.const.i64 128
    %c-1 = vm.const.i64 -1
    %c-1_3 = vm.const.i32 -1
    %_device_query_0 = vm.global.load.i32 @_device_query_0 : i32
    %_pipeline_layout_0 = vm.global.load.ref @_pipeline_layout_0 : !vm.ref<!hal.pipeline_layout>
    %_executable_llvm_module_linked_llvm_cpu = vm.global.load.ref @_executable_llvm_module_linked_llvm_cpu : !vm.ref<!hal.executable>
    %_utf8_input_0_5FD512E67BEFDEEC = vm.const.ref.rodata @_utf8_input_0_5FD512E67BEFDEEC : !vm.buffer
    vm.call.variadic @hal.buffer_view.assert(%arg0, %_utf8_input_0_5FD512E67BEFDEEC, %c268435464, %c1_0, [%c1, %c2_2]) : (!vm.ref<!hal.buffer_view>, !vm.buffer, i32, i32, i64 ...)
    %ref = vm.call @hal.buffer_view.buffer(%arg0) {nosideeffects} : (!vm.ref<!hal.buffer_view>) -> !vm.ref<!hal.buffer>
    %ref_4 = vm.call @hal.ex.shared_device() {nosideeffects} : () -> !vm.ref<!hal.device>
    %ref_5 = vm.call @hal.device.allocator(%ref_4) {nosideeffects} : (!vm.ref<!hal.device>) -> !vm.ref<!hal.allocator>
    %_utf8_tensor_3C6209B4FD120BDC = vm.const.ref.rodata @_utf8_tensor_3C6209B4FD120BDC : !vm.buffer
    vm.call @hal.buffer.assert(%ref, %_utf8_tensor_3C6209B4FD120BDC, %ref_5, %c2_2, %c16, %c3075) : (!vm.ref<!hal.buffer>, !vm.buffer, !vm.ref<!hal.allocator>, i64, i32, i32) -> ()
    %ref_6 = vm.call @hal.allocator.allocate(%ref_5, %c50, %c150998019, %c2_2) : (!vm.ref<!hal.allocator>, i32, i32, i64) -> !vm.ref<!hal.buffer>
    %ref_7 = vm.call @hal.fence.create(%ref_4, %zero) : (!vm.ref<!hal.device>, i32) -> !vm.ref<!hal.fence>
    %ref_8 = vm.call @hal.device.queue.alloca(%ref_4, %c-1, %null, %ref_7, %zero, %c48, %c3075, %c128) : (!vm.ref<!hal.device>, i64, !vm.ref<!hal.fence>, !vm.ref<!hal.fence>, i32, i32, i32, i64) -> !vm.ref<!hal.buffer>
    %ref_9 = vm.call @hal.command_buffer.create(%ref_4, %c1_0, %c3, %zero) : (!vm.ref<!hal.device>, i32, i32, i32) -> !vm.ref<!hal.command_buffer>
    vm.cond_br %_device_query_0, ^bb1, ^bb4
  ^bb1:  // pred: ^bb0
    vm.call.variadic @hal.command_buffer.push_descriptor_set(%ref_9, %_pipeline_layout_0, %zero, [(%zero, %zero, %ref, %zero_1, %c2_2), (%c1_0, %zero, %ref_8, %zero_1, %c128)]) : (!vm.ref<!hal.command_buffer>, !vm.ref<!hal.pipeline_layout>, i32, tuple<i32, i32, !vm.ref<!hal.buffer>, i64, i64> ...)
    vm.call @hal.command_buffer.dispatch(%ref_9, %_executable_llvm_module_linked_llvm_cpu, %zero, %c1_0, %c1_0, %c1_0) : (!vm.ref<!hal.command_buffer>, !vm.ref<!hal.executable>, i32, i32, i32, i32) -> ()
    vm.call @hal.command_buffer.execution_barrier(%ref_9, %c28, %c13, %zero) : (!vm.ref<!hal.command_buffer>, i32, i32, i32) -> ()
    vm.call.variadic @hal.command_buffer.push_descriptor_set(%ref_9, %_pipeline_layout_0, %zero, [(%zero, %zero, %ref_8, %zero_1, %c128), (%c1_0, %zero, %ref_8, %zero_1, %c128)]) : (!vm.ref<!hal.command_buffer>, !vm.ref<!hal.pipeline_layout>, i32, tuple<i32, i32, !vm.ref<!hal.buffer>, i64, i64> ...)
    vm.call @hal.command_buffer.dispatch(%ref_9, %_executable_llvm_module_linked_llvm_cpu, %c1_0, %c1_0, %c1_0, %c1_0) : (!vm.ref<!hal.command_buffer>, !vm.ref<!hal.executable>, i32, i32, i32, i32) -> ()
    vm.call @hal.command_buffer.execution_barrier(%ref_9, %c28, %c13, %zero) : (!vm.ref<!hal.command_buffer>, i32, i32, i32) -> ()
    vm.call.variadic @hal.command_buffer.push_descriptor_set(%ref_9, %_pipeline_layout_0, %zero, [(%zero, %zero, %ref_8, %zero_1, %c128), (%c1_0, %zero, %ref_6, %zero_1, %c2_2)]) : (!vm.ref<!hal.command_buffer>, !vm.ref<!hal.pipeline_layout>, i32, tuple<i32, i32, !vm.ref<!hal.buffer>, i64, i64> ...)
    vm.call @hal.command_buffer.dispatch(%ref_9, %_executable_llvm_module_linked_llvm_cpu, %c2, %c1_0, %c1_0, %c1_0) : (!vm.ref<!hal.command_buffer>, !vm.ref<!hal.executable>, i32, i32, i32, i32) -> ()
    vm.call @hal.command_buffer.execution_barrier(%ref_9, %c28, %c13, %zero) : (!vm.ref<!hal.command_buffer>, i32, i32, i32) -> ()
    vm.call @hal.command_buffer.finalize(%ref_9) : (!vm.ref<!hal.command_buffer>) -> ()
    %ref_10 = vm.call @hal.fence.create(%ref_4, %zero) : (!vm.ref<!hal.device>, i32) -> !vm.ref<!hal.fence>
    vm.call.variadic @hal.device.queue.execute(%ref_4, %c-1, %ref_7, %ref_10, [%ref_9]) : (!vm.ref<!hal.device>, i64, !vm.ref<!hal.fence>, !vm.ref<!hal.fence>, !vm.ref<!hal.command_buffer> ...)
    %ref_11 = vm.call @hal.fence.create(%ref_4, %zero) : (!vm.ref<!hal.device>, i32) -> !vm.ref<!hal.fence>
    vm.call @hal.device.queue.dealloca(%ref_4, %c-1, %ref_10, %ref_11, %ref_8) : (!vm.ref<!hal.device>, i64, !vm.ref<!hal.fence>, !vm.ref<!hal.fence>, !vm.ref<!hal.buffer>) -> ()
    %0 = vm.call.variadic @hal.fence.await(%c-1_3, [%ref_11]) : (i32, !vm.ref<!hal.fence> ...) -> i32
    vm.cond_br %0, ^bb3, ^bb2
  ^bb2:  // pred: ^bb1
    %ref_12 = vm.call.variadic @hal.buffer_view.create(%ref_6, %zero_1, %c2_2, %c268435464, %c1_0, [%c1, %c2_2]) {nosideeffects} : (!vm.ref<!hal.buffer>, i64, i64, i32, i32, i64 ...) -> !vm.ref<!hal.buffer_view>
    vm.return %ref_12 : !vm.ref<!hal.buffer_view>
  ^bb3:  // pred: ^bb1
    vm.fail %0, "failed to wait on timepoint"
  ^bb4:  // pred: ^bb0
    vm.fail %c2, "device not supported in the compiled configuration"
  }
  vm.export @main attributes {iree.abi.stub, ordinal = 0 : i32}
  vm.export @__init attributes {ordinal = 1 : i32}
  vm.func private @__init() attributes {ordinal = 1 : i32} {
    %null = vm.const.ref.zero : !vm.ref<!hal.executable>
    %null_0 = vm.const.ref.zero : !vm.buffer
    %c7 = vm.const.i32 7
    %zero = vm.const.i32.zero
    %c1 = vm.const.i32 1
    %ref = vm.call @hal.ex.shared_device() {nosideeffects} : () -> !vm.ref<!hal.device>
    %_utf8_hal_executable_format_EAB228F999C2D3A1 = vm.const.ref.rodata @_utf8_hal_executable_format_EAB228F999C2D3A1 : !vm.buffer
    %_utf8_static_96B31E405495E0B6 = vm.const.ref.rodata @_utf8_static_96B31E405495E0B6 : !vm.buffer
    %0:2 = vm.call @hal.device.query.i64(%ref, %_utf8_hal_executable_format_EAB228F999C2D3A1, %_utf8_static_96B31E405495E0B6) {nosideeffects} : (!vm.ref<!hal.device>, !vm.buffer, !vm.buffer) -> (i32, i64)
    %1 = vm.trunc.i64.i32 %0#1 : i64 -> i32
    %2 = vm.and.i32 %1, %c1 : i32
    %3 = vm.select.i32 %0#0, %2, %zero : i32
    %ref_1 = vm.call.variadic @hal.descriptor_set_layout.create(%ref, %zero, [(%zero, %c7, %c1), (%c1, %c7, %zero)]) {nosideeffects} : (!vm.ref<!hal.device>, i32, tuple<i32, i32, i32> ...) -> !vm.ref<!hal.descriptor_set_layout>
    %ref_2 = vm.call.variadic @hal.pipeline_layout.create(%ref, %zero, [%ref_1]) {nosideeffects} : (!vm.ref<!hal.device>, i32, !vm.ref<!hal.descriptor_set_layout> ...) -> !vm.ref<!hal.pipeline_layout>
    vm.global.store.i32 %3, @_device_query_0 : i32
    vm.global.store.ref %ref_2, @_pipeline_layout_0 : !vm.ref<!hal.pipeline_layout>
    vm.cond_br %3, ^bb1, ^bb2
  ^bb1:  // pred: ^bb0
    %_pipeline_layout_0 = vm.global.load.ref @_pipeline_layout_0 : !vm.ref<!hal.pipeline_layout>
    %llvm_module_linked_llvm_cpu_static = vm.const.ref.rodata @llvm_module_linked_llvm_cpu_static : !vm.buffer
    %ref_3 = vm.call.variadic @hal.executable.create(%ref, %_utf8_static_96B31E405495E0B6, %llvm_module_linked_llvm_cpu_static, %null_0, [%_pipeline_layout_0, %_pipeline_layout_0, %_pipeline_layout_0]) {nosideeffects} : (!vm.ref<!hal.device>, !vm.buffer, !vm.buffer, !vm.buffer, !vm.ref<!hal.pipeline_layout> ...) -> !vm.ref<!hal.executable>
    vm.br ^bb3(%ref_3 : !vm.ref<!hal.executable>)
  ^bb2:  // pred: ^bb0
    vm.br ^bb3(%null : !vm.ref<!hal.executable>)
  ^bb3(%4: !vm.ref<!hal.executable>):  // 2 preds: ^bb1, ^bb2
    vm.global.store.ref %4, @_executable_llvm_module_linked_llvm_cpu : !vm.ref<!hal.executable>
    vm.return
  }
}

